…
I0105 11:54:23.811067 30841 net.cpp:257] The NetState phase (0) differed from the phase (1) specified by a rule in layer loss3/top-5
I0105 11:54:23.813390 30841 net.cpp:42] Initializing net from parameters: 
name: "MYNET"
state {
  phase: TRAIN
}
layer {
  name: "data"
  type: "ImageData"
  top: "data"
  top: "label"
  include {
    phase: TRAIN
  }
  transform_param {
    mirror: false
    crop_size: 224
    mean_value: 129
    mean_value: 129
    mean_value: 129
  }
  image_data_param {
    source: "/home/coldmanck/kaggle/label_train_full_resize_rotated.txt"
    batch_size: 80
    shuffle: true
  }
}
layer {
  name: "conv1/7x7_s2"
  type: "Convolution"
  bottom: "data"
  top: "conv1/7x7_s2"
  param {
    lr_mult: 1
    decay_mult: 1
  }
  param {
    lr_mult: 2
    decay_mult: 0
  }
  convolution_param {
    num_output: 64
    pad: 3
    kernel_size: 7
    stride: 2
    weight_filler {
      type: "xavier"
    }
    bias_filler {
      type: "constant"
      value: 0.2
    }
  }
}
layer {
  name: "conv1/relu_7x7"
  type: "ReLU"
  bottom: "conv1/7x7_s2"
  top: "conv1/7x7_s2"
}
layer {
  name: "pool1/3x3_s2"
  type: "Pooling"
  bottom: "conv1/7x7_s2"
  top: "pool1/3x3_s2"
  pooling_param {
    pool: MAX
    kernel_size: 3
    stride: 2
  }
}
layer {
  name: "pool1/norm1"
  type: "LRN"
  bottom: "pool1/3x3_s2"
  top: "pool1/norm1"
  lrn_param {
    local_size: 5
    alpha: 0.0001
    beta: 0.75
  }
}
layer {
  name: "conv2/3x3_reduce"
  type: "Convolution"
  bottom: "pool1/norm1"
  top: "conv2/3x3_reduce"
  param {
    lr_mult: 1
    decay_mult: 1
  }
  param {
    lr_mult: 2
    decay_mult: 0
  }
  convolution_param {
    num_output: 64
    kernel_size: 1
    weight_filler {
      type: "xavier"
    }
    bias_filler {
      type: "constant"
      value: 0.2
    }
  }
}
layer {
  name: "conv2/relu_3x3_reduce"
  type: "ReLU"
  bottom: "conv2/3x3_reduce"
  top: "conv2/3x3_reduce"
}
layer {
  name: "conv2/3x3"
  type: "Convolution"
  bottom: "conv2/3x3_reduce"
  top: "conv2/3x3"
  param {
    lr_mult: 1
    decay_mult: 1
  }
  param {
    lr_mult: 2
    decay_mult: 0
  }
  convolution_param {
    num_output: 192
    pad: 1
    kernel_size: 3
    weight_filler {
      type: "xavier"
    }
    bias_filler {
      type: "constant"
      value: 0.2
    }
  }
}
layer {
  name: "conv2/relu_3x3"
  type: "ReLU"
  bottom: "conv2/3x3"
  top: "conv2/3x3"
}
layer {
  name: "conv2/norm2"
  type: "LRN"
  bottom: "conv2/3x3"
  top: "conv2/norm2"
  lrn_param {
    local_size: 5
    alpha: 0.0001
    beta: 0.75
  }
}
layer {
  name: "pool2/3x3_s2"
  type: "Pooling"
  bottom: "conv2/norm2"
  top: "pool2/3x3_s2"
  pooling_param {
    pool: MAX
    kernel_size: 3
    stride: 2
  }
}
layer {
  name: "inception_3a/1x1"
  type: "Convolution"
  bottom: "pool2/3x3_s2"
  top: "inception_3a/1x1"
  param {
    lr_mult: 1
    decay_mult: 1
  }
  param {
    lr_mult: 2
    decay_mult: 0
  }
  convolution_param {
    num_output: 64
    kernel_size: 1
    weight_filler {
      type: "xavier"
    }
    bias_filler {
      type: "constant"
      value: 0.2
    }
  }
}
layer {
  name: "inception_3a/relu_1x1"
  type: "ReLU"
  bottom: "inception_3a/1x1"
  top: "inception_3a/1x1"
}
layer {
  name: "inception_3a/3x3_reduce"
  type: "Convolution"
  bottom: "pool2/3x3_s2"
  top: "inception_3a/3x3_reduce"
  param {
    lr_mult: 1
    decay_mult: 1
  }
  param {
    lr_mult: 2
    decay_mult: 0
  }
  convolution_param {
    num_output: 96
    kernel_size: 1
    weight_filler {
      type: "xavier"
    }
    bias_filler {
      type: "constant"
      value: 0.2
    }
  }
}
layer {
  name: "inception_3a/relu_3x3_reduce"
  type: "ReLU"
  bottom: "inception_3a/3x3_reduce"
  top: "inception_3a/3x3_reduce"
}
layer {
  name: "inception_3a/3x3"
  type: "Convolution"
  bottom: "inception_3a/3x3_reduce"
  top: "inception_3a/3x3"
  param {
    lr_mult: 1
    decay_mult: 1
  }
  param {
    lr_mult: 2
    decay_mult: 0
  }
  convolution_param {
    num_output: 128
    pad: 1
    kernel_size: 3
    weight_filler {
      type: "xavier"
    }
    bias_filler {
      type: "constant"
      value: 0.2
    }
  }
}
layer {
  name: "inception_3a/relu_3x3"
  type: "ReLU"
  bottom: "inception_3a/3x3"
  top: "inception_3a/3x3"
}
layer {
  name: "inception_3a/5x5_reduce"
  type: "Convolution"
  bottom: "pool2/3x3_s2"
  top: "inception_3a/5x5_reduce"
  param {
    lr_mult: 1
    decay_mult: 1
  }
  param {
    lr_mult: 2
    decay_mult: 0
  }
  convolution_param {
    num_output: 16
    kernel_size: 1
    weight_filler {
      type: "xavier"
    }
    bias_filler {
      type: "constant"
      value: 0.2
    }
  }
}
layer {
  name: "inception_3a/relu_5x5_reduce"
  type: "ReLU"
  bottom: "inception_3a/5x5_reduce"
  top: "inception_3a/5x5_reduce"
}
layer {
  name: "inception_3a/5x5"
  type: "Convolution"
  bottom: "inception_3a/5x5_reduce"
  top: "inception_3a/5x5"
  param {
    lr_mult: 1
    decay_mult: 1
  }
  param {
    lr_mult: 2
    decay_mult: 0
  }
  convolution_param {
    num_output: 32
    pad: 2
    kernel_size: 5
    weight_filler {
      type: "xavier"
    }
    bias_filler {
      type: "constant"
      value: 0.2
    }
  }
}
layer {
  name: "inception_3a/relu_5x5"
  type: "ReLU"
  bottom: "inception_3a/5x5"
  top: "inception_3a/5x5"
}
layer {
  name: "inception_3a/pool"
  type: "Pooling"
  bottom: "pool2/3x3_s2"
  top: "inception_3a/pool"
  pooling_param {
    pool: MAX
    kernel_size: 3
    stride: 1
    pad: 1
  }
}
layer {
  name: "inception_3a/pool_proj"
  type: "Convolution"
  bottom: "inception_3a/pool"
  top: "inception_3a/pool_proj"
  param {
    lr_mult: 1
    decay_mult: 1
  }
  param {
    lr_mult: 2
    decay_mult: 0
  }
  convolution_param {
    num_output: 32
    kernel_size: 1
    weight_filler {
      type: "xavier"
    }
    bias_filler {
      type: "constant"
      value: 0.2
    }
  }
}
layer {
  name: "inception_3a/relu_pool_proj"
  type: "ReLU"
  bottom: "inception_3a/pool_proj"
  top: "inception_3a/pool_proj"
}
layer {
  name: "inception_3a/output"
  type: "Concat"
  bottom: "inception_3a/1x1"
  bottom: "inception_3a/3x3"
  bottom: "inception_3a/5x5"
  bottom: "inception_3a/pool_proj"
  top: "inception_3a/output"
}
layer {
  name: "inception_3b/1x1"
  type: "Convolution"
  bottom: "inception_3a/output"
  top: "inception_3b/1x1"
  param {
    lr_mult: 1
    decay_mult: 1
  }
  param {
    lr_mult: 2
    decay_mult: 0
  }
  convolution_param {
    num_output: 128
    kernel_size: 1
    weight_filler {
      type: "xavier"
    }
    bias_filler {
      type: "constant"
      value: 0.2
    }
  }
}
layer {
  name: "inception_3b/relu_1x1"
  type: "ReLU"
  bottom: "inception_3b/1x1"
  top: "inception_3b/1x1"
}
layer {
  name: "inception_3b/3x3_reduce"
  type: "Convolution"
  bottom: "inception_3a/output"
  top: "inception_3b/3x3_reduce"
  param {
    lr_mult: 1
    decay_mult: 1
  }
  param {
    lr_mult: 2
    decay_mult: 0
  }
  convolution_param {
    num_output: 128
    kernel_size: 1
    weight_filler {
      type: "xavier"
    }
    bias_filler {
      type: "constant"
      value: 0.2
    }
  }
}
layer {
  name: "inception_3b/relu_3x3_reduce"
  type: "ReLU"
  bottom: "inception_3b/3x3_reduce"
  top: "inception_3b/3x3_reduce"
}
layer {
  name: "inception_3b/3x3"
  type: "Convolution"
  bottom: "inception_3b/3x3_reduce"
  top: "inception_3b/3x3"
  param {
    lr_mult: 1
    decay_mult: 1
  }
  param {
    lr_mult: 2
    decay_mult: 0
  }
  convolution_param {
    num_output: 192
    pad: 1
    kernel_size: 3
    weight_filler {
      type: "xavier"
    }
    bias_filler {
      type: "constant"
      value: 0.2
    }
  }
}
layer {
  name: "inception_3b/relu_3x3"
  type: "ReLU"
  bottom: "inception_3b/3x3"
  top: "inception_3b/3x3"
}
layer {
  name: "inception_3b/5x5_reduce"
  type: "Convolution"
  bottom: "inception_3a/output"
  top: "inception_3b/5x5_reduce"
  param {
    lr_mult: 1
    decay_mult: 1
  }
  param {
    lr_mult: 2
    decay_mult: 0
  }
  convolution_param {
    num_output: 32
    kernel_size: 1
    weight_filler {
      type: "xavier"
    }
    bias_filler {
      type: "constant"
      value: 0.2
    }
  }
}
layer {
  name: "inception_3b/relu_5x5_reduce"
  type: "ReLU"
  bottom: "inception_3b/5x5_reduce"
  top: "inception_3b/5x5_reduce"
}
layer {
  name: "inception_3b/5x5"
  type: "Convolution"
  bottom: "inception_3b/5x5_reduce"
  top: "inception_3b/5x5"
  param {
    lr_mult: 1
    decay_mult: 1
  }
  param {
    lr_mult: 2
    decay_mult: 0
  }
  convolution_param {
    num_output: 96
    pad: 2
    kernel_size: 5
    weight_filler {
      type: "xavier"
    }
    bias_filler {
      type: "constant"
      value: 0.2
    }
  }
}
layer {
  name: "inception_3b/relu_5x5"
  type: "ReLU"
  bottom: "inception_3b/5x5"
  top: "inception_3b/5x5"
}
layer {
  name: "inception_3b/pool"
  type: "Pooling"
  bottom: "inception_3a/output"
  top: "inception_3b/pool"
  pooling_param {
    pool: MAX
    kernel_size: 3
    stride: 1
    pad: 1
  }
}
layer {
  name: "inception_3b/pool_proj"
  type: "Convolution"
  bottom: "inception_3b/pool"
  top: "inception_3b/pool_proj"
  param {
    lr_mult: 1
    decay_mult: 1
  }
  param {
    lr_mult: 2
    decay_mult: 0
  }
  convolution_param {
    num_output: 64
    kernel_size: 1
    weight_filler {
      type: "xavier"
    }
    bias_filler {
      type: "constant"
      value: 0.2
    }
  }
}
layer {
  name: "inception_3b/relu_pool_proj"
  type: "ReLU"
  bottom: "inception_3b/pool_proj"
  top: "inception_3b/pool_proj"
}
layer {
  name: "inception_3b/output"
  type: "Concat"
  bottom: "inception_3b/1x1"
  bottom: "inception_3b/3x3"
  bottom: "inception_3b/5x5"
  bottom: "inception_3b/pool_proj"
  top: "inception_3b/output"
}
layer {
  name: "pool3/3x3_s2"
  type: "Pooling"
  bottom: "inception_3b/output"
  top: "pool3/3x3_s2"
  pooling_param {
    pool: MAX
    kernel_size: 3
    stride: 2
  }
}
layer {
  name: "inception_4a/1x1"
  type: "Convolution"
  bottom: "pool3/3x3_s2"
  top: "inception_4a/1x1"
  param {
    lr_mult: 1
    decay_mult: 1
  }
  param {
    lr_mult: 2
    decay_mult: 0
  }
  convolution_param {
    num_output: 192
    kernel_size: 1
    weight_filler {
      type: "xavier"
    }
    bias_filler {
      type: "constant"
      value: 0.2
    }
  }
}
layer {
  name: "inception_4a/relu_1x1"
  type: "ReLU"
  bottom: "inception_4a/1x1"
  top: "inception_4a/1x1"
}
layer {
  name: "inception_4a/3x3_reduce"
  type: "Convolution"
  bottom: "pool3/3x3_s2"
  top: "inception_4a/3x3_reduce"
  param {
    lr_mult: 1
    decay_mult: 1
  }
  param {
    lr_mult: 2
    decay_mult: 0
  }
  convolution_param {
    num_output: 96
    kernel_size: 1
    weight_filler {
      type: "xavier"
    }
    bias_filler {
      type: "constant"
      value: 0.2
    }
  }
}
layer {
  name: "inception_4a/relu_3x3_reduce"
  type: "ReLU"
  bottom: "inception_4a/3x3_reduce"
  top: "inception_4a/3x3_reduce"
}
layer {
  name: "inception_4a/3x3"
  type: "Convolution"
  bottom: "inception_4a/3x3_reduce"
  top: "inception_4a/3x3"
  param {
    lr_mult: 1
    decay_mult: 1
  }
  param {
    lr_mult: 2
    decay_mult: 0
  }
  convolution_param {
    num_output: 208
    pad: 1
    kernel_size: 3
    weight_filler {
      type: "xavier"
    }
    bias_filler {
      type: "constant"
      value: 0.2
    }
  }
}
layer {
  name: "inception_4a/relu_3x3"
  type: "ReLU"
  bottom: "inception_4a/3x3"
  top: "inception_4a/3x3"
}
layer {
  name: "inception_4a/5x5_reduce"
  type: "Convolution"
  bottom: "pool3/3x3_s2"
  top: "inception_4a/5x5_reduce"
  param {
    lr_mult: 1
    decay_mult: 1
  }
  param {
    lr_mult: 2
    decay_mult: 0
  }
  convolution_param {
    num_output: 16
    kernel_size: 1
    weight_filler {
      type: "xavier"
    }
    bias_filler {
      type: "constant"
      value: 0.2
    }
  }
}
layer {
  name: "inception_4a/relu_5x5_reduce"
  type: "ReLU"
  bottom: "inception_4a/5x5_reduce"
  top: "inception_4a/5x5_reduce"
}
layer {
  name: "inception_4a/5x5"
  type: "Convolution"
  bottom: "inception_4a/5x5_reduce"
  top: "inception_4a/5x5"
  param {
    lr_mult: 1
    decay_mult: 1
  }
  param {
    lr_mult: 2
    decay_mult: 0
  }
  convolution_param {
    num_output: 48
    pad: 2
    kernel_size: 5
    weight_filler {
      type: "xavier"
    }
    bias_filler {
      type: "constant"
      value: 0.2
    }
  }
}
layer {
  name: "inception_4a/relu_5x5"
  type: "ReLU"
  bottom: "inception_4a/5x5"
  top: "inception_4a/5x5"
}
layer {
  name: "inception_4a/pool"
  type: "Pooling"
  bottom: "pool3/3x3_s2"
  top: "inception_4a/pool"
  pooling_param {
    pool: MAX
    kernel_size: 3
    stride: 1
    pad: 1
  }
}
layer {
  name: "inception_4a/pool_proj"
  type: "Convolution"
  bottom: "inception_4a/pool"
  top: "inception_4a/pool_proj"
  param {
    lr_mult: 1
    decay_mult: 1
  }
  param {
    lr_mult: 2
    decay_mult: 0
  }
  convolution_param {
    num_output: 64
    kernel_size: 1
    weight_filler {
      type: "xavier"
    }
    bias_filler {
      type: "constant"
      value: 0.2
    }
  }
}
layer {
  name: "inception_4a/relu_pool_proj"
  type: "ReLU"
  bottom: "inception_4a/pool_proj"
  top: "inception_4a/pool_proj"
}
layer {
  name: "inception_4a/output"
  type: "Concat"
  bottom: "inception_4a/1x1"
  bottom: "inception_4a/3x3"
  bottom: "inception_4a/5x5"
  bottom: "inception_4a/pool_proj"
  top: "inception_4a/output"
}
layer {
  name: "loss1/ave_pool"
  type: "Pooling"
  bottom: "inception_4a/output"
  top: "loss1/ave_pool"
  pooling_param {
    pool: AVE
    kernel_size: 5
    stride: 3
  }
}
layer {
  name: "loss1/conv"
  type: "Convolution"
  bottom: "loss1/ave_pool"
  top: "loss1/conv"
  param {
    lr_mult: 1
    decay_mult: 1
  }
  param {
    lr_mult: 2
    decay_mult: 0
  }
  convolution_param {
    num_output: 128
    kernel_size: 1
    weight_filler {
      type: "xavier"
    }
    bias_filler {
      type: "constant"
      value: 0.2
    }
  }
}
layer {
  name: "loss1/relu_conv"
  type: "ReLU"
  bottom: "loss1/conv"
  top: "loss1/conv"
}
layer {
  name: "loss1/fc"
  type: "InnerProduct"
  bottom: "loss1/conv"
  top: "loss1/fc"
  param {
    lr_mult: 1
    decay_mult: 1
  }
  param {
    lr_mult: 2
    decay_mult: 0
  }
  inner_product_param {
    num_output: 1024
    weight_filler {
      type: "xavier"
    }
    bias_filler {
      type: "constant"
      value: 0.2
    }
  }
}
layer {
  name: "loss1/relu_fc"
  type: "ReLU"
  bottom: "loss1/fc"
  top: "loss1/fc"
}
layer {
  name: "loss1/drop_fc"
  type: "Dropout"
  bottom: "loss1/fc"
  top: "loss1/fc"
  dropout_param {
    dropout_ratio: 0.7
  }
}
layer {
  name: "loss1/classifier_kaggle"
  type: "InnerProduct"
  bottom: "loss1/fc"
  top: "loss1/classifier_kaggle"
  param {
    lr_mult: 1
    decay_mult: 1
  }
  param {
    lr_mult: 2
    decay_mult: 0
  }
  inner_product_param {
    num_output: 447
    weight_filler {
      type: "xavier"
    }
    bias_filler {
      type: "constant"
      value: 0
    }
  }
}
layer {
  name: "loss1/loss"
  type: "SoftmaxWithLoss"
  bottom: "loss1/classifier_kaggle"
  bottom: "label"
  top: "loss1/loss1"
  loss_weight: 0.3
}
layer {
  name: "inception_4b/1x1"
  type: "Convolution"
  bottom: "inception_4a/output"
  top: "inception_4b/1x1"
  param {
    lr_mult: 1
    decay_mult: 1
  }
  param {
    lr_mult: 2
    decay_mult: 0
  }
  convolution_param {
    num_output: 160
    kernel_size: 1
    weight_filler {
      type: "xavier"
    }
    bias_filler {
      type: "constant"
      value: 0.2
    }
  }
}
layer {
  name: "inception_4b/relu_1x1"
  type: "ReLU"
  bottom: "inception_4b/1x1"
  top: "inception_4b/1x1"
}
layer {
  name: "inception_4b/3x3_reduce"
  type: "Convolution"
  bottom: "inception_4a/output"
  top: "inception_4b/3x3_reduce"
  param {
    lr_mult: 1
    decay_mult: 1
  }
  param {
    lr_mult: 2
    decay_mult: 0
  }
  convolution_param {
    num_output: 112
    kernel_size: 1
    weight_filler {
      type: "xavier"
    }
    bias_filler {
      type: "constant"
      value: 0.2
    }
  }
}
layer {
  name: "inception_4b/relu_3x3_reduce"
  type: "ReLU"
  bottom: "inception_4b/3x3_reduce"
  top: "inception_4b/3x3_reduce"
}
layer {
  name: "inception_4b/3x3"
  type: "Convolution"
  bottom: "inception_4b/3x3_reduce"
  top: "inception_4b/3x3"
  param {
    lr_mult: 1
    decay_mult: 1
  }
  param {
    lr_mult: 2
    decay_mult: 0
  }
  convolution_param {
    num_output: 224
    pad: 1
    kernel_size: 3
    weight_filler {
      type: "xavier"
    }
    bias_filler {
      type: "constant"
      value: 0.2
    }
  }
}
layer {
  name: "inception_4b/relu_3x3"
  type: "ReLU"
  bottom: "inception_4b/3x3"
  top: "inception_4b/3x3"
}
layer {
  name: "inception_4b/5x5_reduce"
  type: "Convolution"
  bottom: "inception_4a/output"
  top: "inception_4b/5x5_reduce"
  param {
    lr_mult: 1
    decay_mult: 1
  }
  param {
    lr_mult: 2
    decay_mult: 0
  }
  convolution_param {
    num_output: 24
    kernel_size: 1
    weight_filler {
      type: "xavier"
    }
    bias_filler {
      type: "constant"
      value: 0.2
    }
  }
}
layer {
  name: "inception_4b/relu_5x5_reduce"
  type: "ReLU"
  bottom: "inception_4b/5x5_reduce"
  top: "inception_4b/5x5_reduce"
}
layer {
  name: "inception_4b/5x5"
  type: "Convolution"
  bottom: "inception_4b/5x5_reduce"
  top: "inception_4b/5x5"
  param {
    lr_mult: 1
    decay_mult: 1
  }
  param {
    lr_mult: 2
    decay_mult: 0
  }
  convolution_param {
    num_output: 64
    pad: 2
    kernel_size: 5
    weight_filler {
      type: "xavier"
    }
    bias_filler {
      type: "constant"
      value: 0.2
    }
  }
}
layer {
  name: "inception_4b/relu_5x5"
  type: "ReLU"
  bottom: "inception_4b/5x5"
  top: "inception_4b/5x5"
}
layer {
  name: "inception_4b/pool"
  type: "Pooling"
  bottom: "inception_4a/output"
  top: "inception_4b/pool"
  pooling_param {
    pool: MAX
    kernel_size: 3
    stride: 1
    pad: 1
  }
}
layer {
  name: "inception_4b/pool_proj"
  type: "Convolution"
  bottom: "inception_4b/pool"
  top: "inception_4b/pool_proj"
  param {
    lr_mult: 1
    decay_mult: 1
  }
  param {
    lr_mult: 2
    decay_mult: 0
  }
  convolution_param {
    num_output: 64
    kernel_size: 1
    weight_filler {
      type: "xavier"
    }
    bias_filler {
      type: "constant"
      value: 0.2
    }
  }
}
layer {
  name: "inception_4b/relu_pool_proj"
  type: "ReLU"
  bottom: "inception_4b/pool_proj"
  top: "inception_4b/pool_proj"
}
layer {
  name: "inception_4b/output"
  type: "Concat"
  bottom: "inception_4b/1x1"
  bottom: "inception_4b/3x3"
  bottom: "inception_4b/5x5"
  bottom: "inception_4b/pool_proj"
  top: "inception_4b/output"
}
layer {
  name: "inception_4c/1x1"
  type: "Convolution"
  bottom: "inception_4b/output"
  top: "inception_4c/1x1"
  param {
    lr_mult: 1
    decay_mult: 1
  }
  param {
    lr_mult: 2
    decay_mult: 0
  }
  convolution_param {
    num_output: 128
    kernel_size: 1
    weight_filler {
      type: "xavier"
    }
    bias_filler {
      type: "constant"
      value: 0.2
    }
  }
}
layer {
  name: "inception_4c/relu_1x1"
  type: "ReLU"
  bottom: "inception_4c/1x1"
  top: "inception_4c/1x1"
}
layer {
  name: "inception_4c/3x3_reduce"
  type: "Convolution"
  bottom: "inception_4b/output"
  top: "inception_4c/3x3_reduce"
  param {
    lr_mult: 1
    decay_mult: 1
  }
  param {
    lr_mult: 2
    decay_mult: 0
  }
  convolution_param {
    num_output: 128
    kernel_size: 1
    weight_filler {
      type: "xavier"
    }
    bias_filler {
      type: "constant"
      value: 0.2
    }
  }
}
layer {
  name: "inception_4c/relu_3x3_reduce"
  type: "ReLU"
  bottom: "inception_4c/3x3_reduce"
  top: "inception_4c/3x3_reduce"
}
layer {
  name: "inception_4c/3x3"
  type: "Convolution"
  bottom: "inception_4c/3x3_reduce"
  top: "inception_4c/3x3"
  param {
    lr_mult: 1
    decay_mult: 1
  }
  param {
    lr_mult: 2
    decay_mult: 0
  }
  convolution_param {
    num_output: 256
    pad: 1
    kernel_size: 3
    weight_filler {
      type: "xavier"
    }
    bias_filler {
      type: "constant"
      value: 0.2
    }
  }
}
layer {
  name: "inception_4c/relu_3x3"
  type: "ReLU"
  bottom: "inception_4c/3x3"
  top: "inception_4c/3x3"
}
layer {
  name: "inception_4c/5x5_reduce"
  type: "Convolution"
  bottom: "inception_4b/output"
  top: "inception_4c/5x5_reduce"
  param {
    lr_mult: 1
    decay_mult: 1
  }
  param {
    lr_mult: 2
    decay_mult: 0
  }
  convolution_param {
    num_output: 24
    kernel_size: 1
    weight_filler {
      type: "xavier"
    }
    bias_filler {
      type: "constant"
      value: 0.2
    }
  }
}
layer {
  name: "inception_4c/relu_5x5_reduce"
  type: "ReLU"
  bottom: "inception_4c/5x5_reduce"
  top: "inception_4c/5x5_reduce"
}
layer {
  name: "inception_4c/5x5"
  type: "Convolution"
  bottom: "inception_4c/5x5_reduce"
  top: "inception_4c/5x5"
  param {
    lr_mult: 1
    decay_mult: 1
  }
  param {
    lr_mult: 2
    decay_mult: 0
  }
  convolution_param {
    num_output: 64
    pad: 2
    kernel_size: 5
    weight_filler {
      type: "xavier"
    }
    bias_filler {
      type: "constant"
      value: 0.2
    }
  }
}
layer {
  name: "inception_4c/relu_5x5"
  type: "ReLU"
  bottom: "inception_4c/5x5"
  top: "inception_4c/5x5"
}
layer {
  name: "inception_4c/pool"
  type: "Pooling"
  bottom: "inception_4b/output"
  top: "inception_4c/pool"
  pooling_param {
    pool: MAX
    kernel_size: 3
    stride: 1
    pad: 1
  }
}
layer {
  name: "inception_4c/pool_proj"
  type: "Convolution"
  bottom: "inception_4c/pool"
  top: "inception_4c/pool_proj"
  param {
    lr_mult: 1
    decay_mult: 1
  }
  param {
    lr_mult: 2
    decay_mult: 0
  }
  convolution_param {
    num_output: 64
    kernel_size: 1
    weight_filler {
      type: "xavier"
    }
    bias_filler {
      type: "constant"
      value: 0.2
    }
  }
}
layer {
  name: "inception_4c/relu_pool_proj"
  type: "ReLU"
  bottom: "inception_4c/pool_proj"
  top: "inception_4c/pool_proj"
}
layer {
  name: "inception_4c/output"
  type: "Concat"
  bottom: "inception_4c/1x1"
  bottom: "inception_4c/3x3"
  bottom: "inception_4c/5x5"
  bottom: "inception_4c/pool_proj"
  top: "inception_4c/output"
}
layer {
  name: "inception_4d/1x1"
  type: "Convolution"
  bottom: "inception_4c/output"
  top: "inception_4d/1x1"
  param {
    lr_mult: 1
    decay_mult: 1
  }
  param {
    lr_mult: 2
    decay_mult: 0
  }
  convolution_param {
    num_output: 112
    kernel_size: 1
    weight_filler {
      type: "xavier"
    }
    bias_filler {
      type: "constant"
      value: 0.2
    }
  }
}
layer {
  name: "inception_4d/relu_1x1"
  type: "ReLU"
  bottom: "inception_4d/1x1"
  top: "inception_4d/1x1"
}
layer {
  name: "inception_4d/3x3_reduce"
  type: "Convolution"
  bottom: "inception_4c/output"
  top: "inception_4d/3x3_reduce"
  param {
    lr_mult: 1
    decay_mult: 1
  }
  param {
    lr_mult: 2
    decay_mult: 0
  }
  convolution_param {
    num_output: 144
    kernel_size: 1
    weight_filler {
      type: "xavier"
    }
    bias_filler {
      type: "constant"
      value: 0.2
    }
  }
}
layer {
  name: "inception_4d/relu_3x3_reduce"
  type: "ReLU"
  bottom: "inception_4d/3x3_reduce"
  top: "inception_4d/3x3_reduce"
}
layer {
  name: "inception_4d/3x3"
  type: "Convolution"
  bottom: "inception_4d/3x3_reduce"
  top: "inception_4d/3x3"
  param {
    lr_mult: 1
    decay_mult: 1
  }
  param {
    lr_mult: 2
    decay_mult: 0
  }
  convolution_param {
    num_output: 288
    pad: 1
    kernel_size: 3
    weight_filler {
      type: "xavier"
    }
    bias_filler {
      type: "constant"
      value: 0.2
    }
  }
}
layer {
  name: "inception_4d/relu_3x3"
  type: "ReLU"
  bottom: "inception_4d/3x3"
  top: "inception_4d/3x3"
}
layer {
  name: "inception_4d/5x5_reduce"
  type: "Convolution"
  bottom: "inception_4c/output"
  top: "inception_4d/5x5_reduce"
  param {
    lr_mult: 1
    decay_mult: 1
  }
  param {
    lr_mult: 2
    decay_mult: 0
  }
  convolution_param {
    num_output: 32
    kernel_size: 1
    weight_filler {
      type: "xavier"
    }
    bias_filler {
      type: "constant"
      value: 0.2
    }
  }
}
layer {
  name: "inception_4d/relu_5x5_reduce"
  type: "ReLU"
  bottom: "inception_4d/5x5_reduce"
  top: "inception_4d/5x5_reduce"
}
layer {
  name: "inception_4d/5x5"
  type: "Convolution"
  bottom: "inception_4d/5x5_reduce"
  top: "inception_4d/5x5"
  param {
    lr_mult: 1
    decay_mult: 1
  }
  param {
    lr_mult: 2
    decay_mult: 0
  }
  convolution_param {
    num_output: 64
    pad: 2
    kernel_size: 5
    weight_filler {
      type: "xavier"
    }
    bias_filler {
      type: "constant"
      value: 0.2
    }
  }
}
layer {
  name: "inception_4d/relu_5x5"
  type: "ReLU"
  bottom: "inception_4d/5x5"
  top: "inception_4d/5x5"
}
layer {
  name: "inception_4d/pool"
  type: "Pooling"
  bottom: "inception_4c/output"
  top: "inception_4d/pool"
  pooling_param {
    pool: MAX
    kernel_size: 3
    stride: 1
    pad: 1
  }
}
layer {
  name: "inception_4d/pool_proj"
  type: "Convolution"
  bottom: "inception_4d/pool"
  top: "inception_4d/pool_proj"
  param {
    lr_mult: 1
    decay_mult: 1
  }
  param {
    lr_mult: 2
    decay_mult: 0
  }
  convolution_param {
    num_output: 64
    kernel_size: 1
    weight_filler {
      type: "xavier"
    }
    bias_filler {
      type: "constant"
      value: 0.2
    }
  }
}
layer {
  name: "inception_4d/relu_pool_proj"
  type: "ReLU"
  bottom: "inception_4d/pool_proj"
  top: "inception_4d/pool_proj"
}
layer {
  name: "inception_4d/output"
  type: "Concat"
  bottom: "inception_4d/1x1"
  bottom: "inception_4d/3x3"
  bottom: "inception_4d/5x5"
  bottom: "inception_4d/pool_proj"
  top: "inception_4d/output"
}
layer {
  name: "loss2/ave_pool"
  type: "Pooling"
  bottom: "inception_4d/output"
  top: "loss2/ave_pool"
  pooling_param {
    pool: AVE
    kernel_size: 5
    stride: 3
  }
}
layer {
  name: "loss2/conv"
  type: "Convolution"
  bottom: "loss2/ave_pool"
  top: "loss2/conv"
  param {
    lr_mult: 1
    decay_mult: 1
  }
  param {
    lr_mult: 2
    decay_mult: 0
  }
  convolution_param {
    num_output: 128
    kernel_size: 1
    weight_filler {
      type: "xavier"
    }
    bias_filler {
      type: "constant"
      value: 0.2
    }
  }
}
layer {
  name: "loss2/relu_conv"
  type: "ReLU"
  bottom: "loss2/conv"
  top: "loss2/conv"
}
layer {
  name: "loss2/fc"
  type: "InnerProduct"
  bottom: "loss2/conv"
  top: "loss2/fc"
  param {
    lr_mult: 1
    decay_mult: 1
  }
  param {
    lr_mult: 2
    decay_mult: 0
  }
  inner_product_param {
    num_output: 1024
    weight_filler {
      type: "xavier"
    }
    bias_filler {
      type: "constant"
      value: 0.2
    }
  }
}
layer {
  name: "loss2/relu_fc"
  type: "ReLU"
  bottom: "loss2/fc"
  top: "loss2/fc"
}
layer {
  name: "loss2/drop_fc"
  type: "Dropout"
  bottom: "loss2/fc"
  top: "loss2/fc"
  dropout_param {
    dropout_ratio: 0.7
  }
}
layer {
  name: "loss2/classifier_kaggle"
  type: "InnerProduct"
  bottom: "loss2/fc"
  top: "loss2/classifier_kaggle"
  param {
    lr_mult: 1
    decay_mult: 1
  }
  param {
    lr_mult: 2
    decay_mult: 0
  }
  inner_product_param {
    num_output: 447
    weight_filler {
      type: "xavier"
    }
    bias_filler {
      type: "constant"
      value: 0
    }
  }
}
layer {
  name: "loss2/loss"
  type: "SoftmaxWithLoss"
  bottom: "loss2/classifier_kaggle"
  bottom: "label"
  top: "loss2/loss1"
  loss_weight: 0.3
}
layer {
  name: "inception_4e/1x1"
  type: "Convolution"
  bottom: "inception_4d/output"
  top: "inception_4e/1x1"
  param {
    lr_mult: 1
    decay_mult: 1
  }
  param {
    lr_mult: 2
    decay_mult: 0
  }
  convolution_param {
    num_output: 256
    kernel_size: 1
    weight_filler {
      type: "xavier"
    }
    bias_filler {
      type: "constant"
      value: 0.2
    }
  }
}
layer {
  name: "inception_4e/relu_1x1"
  type: "ReLU"
  bottom: "inception_4e/1x1"
  top: "inception_4e/1x1"
}
layer {
  name: "inception_4e/3x3_reduce"
  type: "Convolution"
  bottom: "inception_4d/output"
  top: "inception_4e/3x3_reduce"
  param {
    lr_mult: 1
    decay_mult: 1
  }
  param {
    lr_mult: 2
    decay_mult: 0
  }
  convolution_param {
    num_output: 160
    kernel_size: 1
    weight_filler {
      type: "xavier"
    }
    bias_filler {
      type: "constant"
      value: 0.2
    }
  }
}
layer {
  name: "inception_4e/relu_3x3_reduce"
  type: "ReLU"
  bottom: "inception_4e/3x3_reduce"
  top: "inception_4e/3x3_reduce"
}
layer {
  name: "inception_4e/3x3"
  type: "Convolution"
  bottom: "inception_4e/3x3_reduce"
  top: "inception_4e/3x3"
  param {
    lr_mult: 1
    decay_mult: 1
  }
  param {
    lr_mult: 2
    decay_mult: 0
  }
  convolution_param {
    num_output: 320
    pad: 1
    kernel_size: 3
    weight_filler {
      type: "xavier"
    }
    bias_filler {
      type: "constant"
      value: 0.2
    }
  }
}
layer {
  name: "inception_4e/relu_3x3"
  type: "ReLU"
  bottom: "inception_4e/3x3"
  top: "inception_4e/3x3"
}
layer {
  name: "inception_4e/5x5_reduce"
  type: "Convolution"
  bottom: "inception_4d/output"
  top: "inception_4e/5x5_reduce"
  param {
    lr_mult: 1
    decay_mult: 1
  }
  param {
    lr_mult: 2
    decay_mult: 0
  }
  convolution_param {
    num_output: 32
    kernel_size: 1
    weight_filler {
      type: "xavier"
    }
    bias_filler {
      type: "constant"
      value: 0.2
    }
  }
}
layer {
  name: "inception_4e/relu_5x5_reduce"
  type: "ReLU"
  bottom: "inception_4e/5x5_reduce"
  top: "inception_4e/5x5_reduce"
}
layer {
  name: "inception_4e/5x5"
  type: "Convolution"
  bottom: "inception_4e/5x5_reduce"
  top: "inception_4e/5x5"
  param {
    lr_mult: 1
    decay_mult: 1
  }
  param {
    lr_mult: 2
    decay_mult: 0
  }
  convolution_param {
    num_output: 128
    pad: 2
    kernel_size: 5
    weight_filler {
      type: "xavier"
    }
    bias_filler {
      type: "constant"
      value: 0.2
    }
  }
}
layer {
  name: "inception_4e/relu_5x5"
  type: "ReLU"
  bottom: "inception_4e/5x5"
  top: "inception_4e/5x5"
}
layer {
  name: "inception_4e/pool"
  type: "Pooling"
  bottom: "inception_4d/output"
  top: "inception_4e/po
I0105 11:54:23.814545 30841 layer_factory.hpp:74] Creating layer data
I0105 11:54:23.814590 30841 net.cpp:84] Creating Layer data
I0105 11:54:23.814604 30841 net.cpp:338] data -> data
I0105 11:54:23.814649 30841 net.cpp:338] data -> label
I0105 11:54:23.814669 30841 net.cpp:113] Setting up data
I0105 11:54:23.814681 30841 image_data_layer.cpp:36] Opening file /home/coldmanck/kaggle/label_train_full_resize_rotated.txt
I0105 11:54:23.818331 30841 image_data_layer.cpp:46] Shuffling data
I0105 11:54:23.819519 30841 image_data_layer.cpp:51] A total of 4235 images.
I0105 11:54:23.820804 30841 image_data_layer.cpp:80] output data size: 80,3,224,224
I0105 11:54:24.682670 30841 net.cpp:120] Top shape: 80 3 224 224 (12042240)
I0105 11:54:24.682724 30841 net.cpp:120] Top shape: 80 (80)
I0105 11:54:24.682770 30841 layer_factory.hpp:74] Creating layer label_data_1_split
I0105 11:54:24.682843 30841 net.cpp:84] Creating Layer label_data_1_split
I0105 11:54:24.682854 30841 net.cpp:380] label_data_1_split <- label
I0105 11:54:24.682904 30841 net.cpp:338] label_data_1_split -> label_data_1_split_0
I0105 11:54:24.682935 30841 net.cpp:338] label_data_1_split -> label_data_1_split_1
I0105 11:54:24.682961 30841 net.cpp:338] label_data_1_split -> label_data_1_split_2
I0105 11:54:24.682971 30841 net.cpp:113] Setting up label_data_1_split
I0105 11:54:24.682984 30841 net.cpp:120] Top shape: 80 (80)
I0105 11:54:24.682991 30841 net.cpp:120] Top shape: 80 (80)
I0105 11:54:24.682998 30841 net.cpp:120] Top shape: 80 (80)
I0105 11:54:24.683006 30841 layer_factory.hpp:74] Creating layer conv1/7x7_s2
I0105 11:54:24.683027 30841 net.cpp:84] Creating Layer conv1/7x7_s2
I0105 11:54:24.683035 30841 net.cpp:380] conv1/7x7_s2 <- data
I0105 11:54:24.683060 30841 net.cpp:338] conv1/7x7_s2 -> conv1/7x7_s2
I0105 11:54:24.683076 30841 net.cpp:113] Setting up conv1/7x7_s2
I0105 11:54:24.989789 30841 net.cpp:120] Top shape: 80 64 112 112 (64225280)
I0105 11:54:24.989881 30841 layer_factory.hpp:74] Creating layer conv1/relu_7x7
I0105 11:54:24.989902 30841 net.cpp:84] Creating Layer conv1/relu_7x7
I0105 11:54:24.989913 30841 net.cpp:380] conv1/relu_7x7 <- conv1/7x7_s2
I0105 11:54:24.989928 30841 net.cpp:327] conv1/relu_7x7 -> conv1/7x7_s2 (in-place)
I0105 11:54:24.989946 30841 net.cpp:113] Setting up conv1/relu_7x7
I0105 11:54:24.990324 30841 net.cpp:120] Top shape: 80 64 112 112 (64225280)
I0105 11:54:24.990342 30841 layer_factory.hpp:74] Creating layer pool1/3x3_s2
I0105 11:54:24.990363 30841 net.cpp:84] Creating Layer pool1/3x3_s2
I0105 11:54:24.990372 30841 net.cpp:380] pool1/3x3_s2 <- conv1/7x7_s2
I0105 11:54:24.990387 30841 net.cpp:338] pool1/3x3_s2 -> pool1/3x3_s2
I0105 11:54:24.990401 30841 net.cpp:113] Setting up pool1/3x3_s2
I0105 11:54:24.990514 30841 net.cpp:120] Top shape: 80 64 56 56 (16056320)
I0105 11:54:24.990526 30841 layer_factory.hpp:74] Creating layer pool1/norm1
I0105 11:54:24.990542 30841 net.cpp:84] Creating Layer pool1/norm1
I0105 11:54:24.990551 30841 net.cpp:380] pool1/norm1 <- pool1/3x3_s2
I0105 11:54:24.990562 30841 net.cpp:338] pool1/norm1 -> pool1/norm1
I0105 11:54:24.990576 30841 net.cpp:113] Setting up pool1/norm1
I0105 11:54:24.990591 30841 net.cpp:120] Top shape: 80 64 56 56 (16056320)
I0105 11:54:24.990600 30841 layer_factory.hpp:74] Creating layer conv2/3x3_reduce
I0105 11:54:24.990617 30841 net.cpp:84] Creating Layer conv2/3x3_reduce
I0105 11:54:24.990627 30841 net.cpp:380] conv2/3x3_reduce <- pool1/norm1
I0105 11:54:24.990638 30841 net.cpp:338] conv2/3x3_reduce -> conv2/3x3_reduce
I0105 11:54:24.990655 30841 net.cpp:113] Setting up conv2/3x3_reduce
I0105 11:54:24.991353 30841 net.cpp:120] Top shape: 80 64 56 56 (16056320)
I0105 11:54:24.991377 30841 layer_factory.hpp:74] Creating layer conv2/relu_3x3_reduce
I0105 11:54:24.991389 30841 net.cpp:84] Creating Layer conv2/relu_3x3_reduce
I0105 11:54:24.991399 30841 net.cpp:380] conv2/relu_3x3_reduce <- conv2/3x3_reduce
I0105 11:54:24.991410 30841 net.cpp:327] conv2/relu_3x3_reduce -> conv2/3x3_reduce (in-place)
I0105 11:54:24.991421 30841 net.cpp:113] Setting up conv2/relu_3x3_reduce
I0105 11:54:24.991505 30841 net.cpp:120] Top shape: 80 64 56 56 (16056320)
I0105 11:54:24.991515 30841 layer_factory.hpp:74] Creating layer conv2/3x3
I0105 11:54:24.991531 30841 net.cpp:84] Creating Layer conv2/3x3
I0105 11:54:24.991540 30841 net.cpp:380] conv2/3x3 <- conv2/3x3_reduce
I0105 11:54:24.991554 30841 net.cpp:338] conv2/3x3 -> conv2/3x3
I0105 11:54:24.991569 30841 net.cpp:113] Setting up conv2/3x3
I0105 11:54:24.993686 30841 net.cpp:120] Top shape: 80 192 56 56 (48168960)
I0105 11:54:24.993716 30841 layer_factory.hpp:74] Creating layer conv2/relu_3x3
I0105 11:54:24.993731 30841 net.cpp:84] Creating Layer conv2/relu_3x3
I0105 11:54:24.993739 30841 net.cpp:380] conv2/relu_3x3 <- conv2/3x3
I0105 11:54:24.993752 30841 net.cpp:327] conv2/relu_3x3 -> conv2/3x3 (in-place)
I0105 11:54:24.993763 30841 net.cpp:113] Setting up conv2/relu_3x3
I0105 11:54:24.994125 30841 net.cpp:120] Top shape: 80 192 56 56 (48168960)
I0105 11:54:24.994143 30841 layer_factory.hpp:74] Creating layer conv2/norm2
I0105 11:54:24.994158 30841 net.cpp:84] Creating Layer conv2/norm2
I0105 11:54:24.994189 30841 net.cpp:380] conv2/norm2 <- conv2/3x3
I0105 11:54:24.994217 30841 net.cpp:338] conv2/norm2 -> conv2/norm2
I0105 11:54:24.994231 30841 net.cpp:113] Setting up conv2/norm2
I0105 11:54:24.994246 30841 net.cpp:120] Top shape: 80 192 56 56 (48168960)
I0105 11:54:24.994254 30841 layer_factory.hpp:74] Creating layer pool2/3x3_s2
I0105 11:54:24.994267 30841 net.cpp:84] Creating Layer pool2/3x3_s2
I0105 11:54:24.994276 30841 net.cpp:380] pool2/3x3_s2 <- conv2/norm2
I0105 11:54:24.994287 30841 net.cpp:338] pool2/3x3_s2 -> pool2/3x3_s2
I0105 11:54:24.994299 30841 net.cpp:113] Setting up pool2/3x3_s2
I0105 11:54:24.994405 30841 net.cpp:120] Top shape: 80 192 28 28 (12042240)
I0105 11:54:24.994418 30841 layer_factory.hpp:74] Creating layer pool2/3x3_s2_pool2/3x3_s2_0_split
I0105 11:54:24.994433 30841 net.cpp:84] Creating Layer pool2/3x3_s2_pool2/3x3_s2_0_split
I0105 11:54:24.994441 30841 net.cpp:380] pool2/3x3_s2_pool2/3x3_s2_0_split <- pool2/3x3_s2
I0105 11:54:24.994454 30841 net.cpp:338] pool2/3x3_s2_pool2/3x3_s2_0_split -> pool2/3x3_s2_pool2/3x3_s2_0_split_0
I0105 11:54:24.994468 30841 net.cpp:338] pool2/3x3_s2_pool2/3x3_s2_0_split -> pool2/3x3_s2_pool2/3x3_s2_0_split_1
I0105 11:54:24.994482 30841 net.cpp:338] pool2/3x3_s2_pool2/3x3_s2_0_split -> pool2/3x3_s2_pool2/3x3_s2_0_split_2
I0105 11:54:24.994494 30841 net.cpp:338] pool2/3x3_s2_pool2/3x3_s2_0_split -> pool2/3x3_s2_pool2/3x3_s2_0_split_3
I0105 11:54:24.994506 30841 net.cpp:113] Setting up pool2/3x3_s2_pool2/3x3_s2_0_split
I0105 11:54:24.994520 30841 net.cpp:120] Top shape: 80 192 28 28 (12042240)
I0105 11:54:24.994530 30841 net.cpp:120] Top shape: 80 192 28 28 (12042240)
I0105 11:54:24.994540 30841 net.cpp:120] Top shape: 80 192 28 28 (12042240)
I0105 11:54:24.994550 30841 net.cpp:120] Top shape: 80 192 28 28 (12042240)
I0105 11:54:24.994559 30841 layer_factory.hpp:74] Creating layer inception_3a/1x1
I0105 11:54:24.994571 30841 net.cpp:84] Creating Layer inception_3a/1x1
I0105 11:54:24.994580 30841 net.cpp:380] inception_3a/1x1 <- pool2/3x3_s2_pool2/3x3_s2_0_split_0
I0105 11:54:24.994595 30841 net.cpp:338] inception_3a/1x1 -> inception_3a/1x1
I0105 11:54:24.994612 30841 net.cpp:113] Setting up inception_3a/1x1
I0105 11:54:24.995457 30841 net.cpp:120] Top shape: 80 64 28 28 (4014080)
I0105 11:54:24.995481 30841 layer_factory.hpp:74] Creating layer inception_3a/relu_1x1
I0105 11:54:24.995497 30841 net.cpp:84] Creating Layer inception_3a/relu_1x1
I0105 11:54:24.995507 30841 net.cpp:380] inception_3a/relu_1x1 <- inception_3a/1x1
I0105 11:54:24.995519 30841 net.cpp:327] inception_3a/relu_1x1 -> inception_3a/1x1 (in-place)
I0105 11:54:24.995532 30841 net.cpp:113] Setting up inception_3a/relu_1x1
I0105 11:54:24.995647 30841 net.cpp:120] Top shape: 80 64 28 28 (4014080)
I0105 11:54:24.995659 30841 layer_factory.hpp:74] Creating layer inception_3a/3x3_reduce
I0105 11:54:24.995676 30841 net.cpp:84] Creating Layer inception_3a/3x3_reduce
I0105 11:54:24.995685 30841 net.cpp:380] inception_3a/3x3_reduce <- pool2/3x3_s2_pool2/3x3_s2_0_split_1
I0105 11:54:24.995697 30841 net.cpp:338] inception_3a/3x3_reduce -> inception_3a/3x3_reduce
I0105 11:54:24.995712 30841 net.cpp:113] Setting up inception_3a/3x3_reduce
I0105 11:54:24.996633 30841 net.cpp:120] Top shape: 80 96 28 28 (6021120)
I0105 11:54:24.996659 30841 layer_factory.hpp:74] Creating layer inception_3a/relu_3x3_reduce
I0105 11:54:24.996680 30841 net.cpp:84] Creating Layer inception_3a/relu_3x3_reduce
I0105 11:54:24.996690 30841 net.cpp:380] inception_3a/relu_3x3_reduce <- inception_3a/3x3_reduce
I0105 11:54:24.996704 30841 net.cpp:327] inception_3a/relu_3x3_reduce -> inception_3a/3x3_reduce (in-place)
I0105 11:54:24.996716 30841 net.cpp:113] Setting up inception_3a/relu_3x3_reduce
I0105 11:54:24.996816 30841 net.cpp:120] Top shape: 80 96 28 28 (6021120)
I0105 11:54:24.996827 30841 layer_factory.hpp:74] Creating layer inception_3a/3x3
I0105 11:54:24.996844 30841 net.cpp:84] Creating Layer inception_3a/3x3
I0105 11:54:24.996852 30841 net.cpp:380] inception_3a/3x3 <- inception_3a/3x3_reduce
I0105 11:54:24.996873 30841 net.cpp:338] inception_3a/3x3 -> inception_3a/3x3
I0105 11:54:24.996896 30841 net.cpp:113] Setting up inception_3a/3x3
I0105 11:54:24.999059 30841 net.cpp:120] Top shape: 80 128 28 28 (8028160)
I0105 11:54:24.999086 30841 layer_factory.hpp:74] Creating layer inception_3a/relu_3x3
I0105 11:54:24.999099 30841 net.cpp:84] Creating Layer inception_3a/relu_3x3
I0105 11:54:24.999109 30841 net.cpp:380] inception_3a/relu_3x3 <- inception_3a/3x3
I0105 11:54:24.999122 30841 net.cpp:327] inception_3a/relu_3x3 -> inception_3a/3x3 (in-place)
I0105 11:54:24.999135 30841 net.cpp:113] Setting up inception_3a/relu_3x3
I0105 11:54:24.999449 30841 net.cpp:120] Top shape: 80 128 28 28 (8028160)
I0105 11:54:24.999464 30841 layer_factory.hpp:74] Creating layer inception_3a/5x5_reduce
I0105 11:54:24.999483 30841 net.cpp:84] Creating Layer inception_3a/5x5_reduce
I0105 11:54:24.999492 30841 net.cpp:380] inception_3a/5x5_reduce <- pool2/3x3_s2_pool2/3x3_s2_0_split_2
I0105 11:54:24.999511 30841 net.cpp:338] inception_3a/5x5_reduce -> inception_3a/5x5_reduce
I0105 11:54:24.999529 30841 net.cpp:113] Setting up inception_3a/5x5_reduce
I0105 11:54:25.000164 30841 net.cpp:120] Top shape: 80 16 28 28 (1003520)
I0105 11:54:25.000185 30841 layer_factory.hpp:74] Creating layer inception_3a/relu_5x5_reduce
I0105 11:54:25.000198 30841 net.cpp:84] Creating Layer inception_3a/relu_5x5_reduce
I0105 11:54:25.000207 30841 net.cpp:380] inception_3a/relu_5x5_reduce <- inception_3a/5x5_reduce
I0105 11:54:25.000219 30841 net.cpp:327] inception_3a/relu_5x5_reduce -> inception_3a/5x5_reduce (in-place)
I0105 11:54:25.000231 30841 net.cpp:113] Setting up inception_3a/relu_5x5_reduce
I0105 11:54:25.000326 30841 net.cpp:120] Top shape: 80 16 28 28 (1003520)
I0105 11:54:25.000339 30841 layer_factory.hpp:74] Creating layer inception_3a/5x5
I0105 11:54:25.000355 30841 net.cpp:84] Creating Layer inception_3a/5x5
I0105 11:54:25.000363 30841 net.cpp:380] inception_3a/5x5 <- inception_3a/5x5_reduce
I0105 11:54:25.000375 30841 net.cpp:338] inception_3a/5x5 -> inception_3a/5x5
I0105 11:54:25.000388 30841 net.cpp:113] Setting up inception_3a/5x5
I0105 11:54:25.001193 30841 net.cpp:120] Top shape: 80 32 28 28 (2007040)
I0105 11:54:25.001216 30841 layer_factory.hpp:74] Creating layer inception_3a/relu_5x5
I0105 11:54:25.001229 30841 net.cpp:84] Creating Layer inception_3a/relu_5x5
I0105 11:54:25.001236 30841 net.cpp:380] inception_3a/relu_5x5 <- inception_3a/5x5
I0105 11:54:25.001251 30841 net.cpp:327] inception_3a/relu_5x5 -> inception_3a/5x5 (in-place)
I0105 11:54:25.001263 30841 net.cpp:113] Setting up inception_3a/relu_5x5
I0105 11:54:25.001394 30841 net.cpp:120] Top shape: 80 32 28 28 (2007040)
I0105 11:54:25.001420 30841 layer_factory.hpp:74] Creating layer inception_3a/pool
I0105 11:54:25.001430 30841 layer_factory.cpp:56] CUDNN does not support padding or multiple tops. Using Caffe's own pooling layer.
I0105 11:54:25.001443 30841 net.cpp:84] Creating Layer inception_3a/pool
I0105 11:54:25.001453 30841 net.cpp:380] inception_3a/pool <- pool2/3x3_s2_pool2/3x3_s2_0_split_3
I0105 11:54:25.001468 30841 net.cpp:338] inception_3a/pool -> inception_3a/pool
I0105 11:54:25.001482 30841 net.cpp:113] Setting up inception_3a/pool
I0105 11:54:25.001499 30841 net.cpp:120] Top shape: 80 192 28 28 (12042240)
I0105 11:54:25.001507 30841 layer_factory.hpp:74] Creating layer inception_3a/pool_proj
I0105 11:54:25.001523 30841 net.cpp:84] Creating Layer inception_3a/pool_proj
I0105 11:54:25.001533 30841 net.cpp:380] inception_3a/pool_proj <- inception_3a/pool
I0105 11:54:25.001549 30841 net.cpp:338] inception_3a/pool_proj -> inception_3a/pool_proj
I0105 11:54:25.001562 30841 net.cpp:113] Setting up inception_3a/pool_proj
I0105 11:54:25.002290 30841 net.cpp:120] Top shape: 80 32 28 28 (2007040)
I0105 11:54:25.002318 30841 layer_factory.hpp:74] Creating layer inception_3a/relu_pool_proj
I0105 11:54:25.002332 30841 net.cpp:84] Creating Layer inception_3a/relu_pool_proj
I0105 11:54:25.002354 30841 net.cpp:380] inception_3a/relu_pool_proj <- inception_3a/pool_proj
I0105 11:54:25.002374 30841 net.cpp:327] inception_3a/relu_pool_proj -> inception_3a/pool_proj (in-place)
I0105 11:54:25.002398 30841 net.cpp:113] Setting up inception_3a/relu_pool_proj
I0105 11:54:25.002531 30841 net.cpp:120] Top shape: 80 32 28 28 (2007040)
I0105 11:54:25.002544 30841 layer_factory.hpp:74] Creating layer inception_3a/output
I0105 11:54:25.002578 30841 net.cpp:84] Creating Layer inception_3a/output
I0105 11:54:25.002589 30841 net.cpp:380] inception_3a/output <- inception_3a/1x1
I0105 11:54:25.002600 30841 net.cpp:380] inception_3a/output <- inception_3a/3x3
I0105 11:54:25.002610 30841 net.cpp:380] inception_3a/output <- inception_3a/5x5
I0105 11:54:25.002619 30841 net.cpp:380] inception_3a/output <- inception_3a/pool_proj
I0105 11:54:25.002630 30841 net.cpp:338] inception_3a/output -> inception_3a/output
I0105 11:54:25.002645 30841 net.cpp:113] Setting up inception_3a/output
I0105 11:54:25.002661 30841 net.cpp:120] Top shape: 80 256 28 28 (16056320)
I0105 11:54:25.002671 30841 layer_factory.hpp:74] Creating layer inception_3a/output_inception_3a/output_0_split
I0105 11:54:25.002686 30841 net.cpp:84] Creating Layer inception_3a/output_inception_3a/output_0_split
I0105 11:54:25.002694 30841 net.cpp:380] inception_3a/output_inception_3a/output_0_split <- inception_3a/output
I0105 11:54:25.002707 30841 net.cpp:338] inception_3a/output_inception_3a/output_0_split -> inception_3a/output_inception_3a/output_0_split_0
I0105 11:54:25.002720 30841 net.cpp:338] inception_3a/output_inception_3a/output_0_split -> inception_3a/output_inception_3a/output_0_split_1
I0105 11:54:25.002733 30841 net.cpp:338] inception_3a/output_inception_3a/output_0_split -> inception_3a/output_inception_3a/output_0_split_2
I0105 11:54:25.002748 30841 net.cpp:338] inception_3a/output_inception_3a/output_0_split -> inception_3a/output_inception_3a/output_0_split_3
I0105 11:54:25.002759 30841 net.cpp:113] Setting up inception_3a/output_inception_3a/output_0_split
I0105 11:54:25.002774 30841 net.cpp:120] Top shape: 80 256 28 28 (16056320)
I0105 11:54:25.002784 30841 net.cpp:120] Top shape: 80 256 28 28 (16056320)
I0105 11:54:25.002794 30841 net.cpp:120] Top shape: 80 256 28 28 (16056320)
I0105 11:54:25.002804 30841 net.cpp:120] Top shape: 80 256 28 28 (16056320)
I0105 11:54:25.002811 30841 layer_factory.hpp:74] Creating layer inception_3b/1x1
I0105 11:54:25.002827 30841 net.cpp:84] Creating Layer inception_3b/1x1
I0105 11:54:25.002836 30841 net.cpp:380] inception_3b/1x1 <- inception_3a/output_inception_3a/output_0_split_0
I0105 11:54:25.002849 30841 net.cpp:338] inception_3b/1x1 -> inception_3b/1x1
I0105 11:54:25.002862 30841 net.cpp:113] Setting up inception_3b/1x1
I0105 11:54:25.003834 30841 net.cpp:120] Top shape: 80 128 28 28 (8028160)
I0105 11:54:25.003856 30841 layer_factory.hpp:74] Creating layer inception_3b/relu_1x1
I0105 11:54:25.003870 30841 net.cpp:84] Creating Layer inception_3b/relu_1x1
I0105 11:54:25.003880 30841 net.cpp:380] inception_3b/relu_1x1 <- inception_3b/1x1
I0105 11:54:25.003890 30841 net.cpp:327] inception_3b/relu_1x1 -> inception_3b/1x1 (in-place)
I0105 11:54:25.003902 30841 net.cpp:113] Setting up inception_3b/relu_1x1
I0105 11:54:25.004207 30841 net.cpp:120] Top shape: 80 128 28 28 (8028160)
I0105 11:54:25.004223 30841 layer_factory.hpp:74] Creating layer inception_3b/3x3_reduce
I0105 11:54:25.004240 30841 net.cpp:84] Creating Layer inception_3b/3x3_reduce
I0105 11:54:25.004250 30841 net.cpp:380] inception_3b/3x3_reduce <- inception_3a/output_inception_3a/output_0_split_1
I0105 11:54:25.004264 30841 net.cpp:338] inception_3b/3x3_reduce -> inception_3b/3x3_reduce
I0105 11:54:25.004279 30841 net.cpp:113] Setting up inception_3b/3x3_reduce
I0105 11:54:25.005228 30841 net.cpp:120] Top shape: 80 128 28 28 (8028160)
I0105 11:54:25.005250 30841 layer_factory.hpp:74] Creating layer inception_3b/relu_3x3_reduce
I0105 11:54:25.005264 30841 net.cpp:84] Creating Layer inception_3b/relu_3x3_reduce
I0105 11:54:25.005272 30841 net.cpp:380] inception_3b/relu_3x3_reduce <- inception_3b/3x3_reduce
I0105 11:54:25.005283 30841 net.cpp:327] inception_3b/relu_3x3_reduce -> inception_3b/3x3_reduce (in-place)
I0105 11:54:25.005313 30841 net.cpp:113] Setting up inception_3b/relu_3x3_reduce
I0105 11:54:25.005434 30841 net.cpp:120] Top shape: 80 128 28 28 (8028160)
I0105 11:54:25.005462 30841 layer_factory.hpp:74] Creating layer inception_3b/3x3
I0105 11:54:25.005484 30841 net.cpp:84] Creating Layer inception_3b/3x3
I0105 11:54:25.005494 30841 net.cpp:380] inception_3b/3x3 <- inception_3b/3x3_reduce
I0105 11:54:25.005507 30841 net.cpp:338] inception_3b/3x3 -> inception_3b/3x3
I0105 11:54:25.005524 30841 net.cpp:113] Setting up inception_3b/3x3
I0105 11:54:25.008944 30841 net.cpp:120] Top shape: 80 192 28 28 (12042240)
I0105 11:54:25.008977 30841 layer_factory.hpp:74] Creating layer inception_3b/relu_3x3
I0105 11:54:25.008991 30841 net.cpp:84] Creating Layer inception_3b/relu_3x3
I0105 11:54:25.008999 30841 net.cpp:380] inception_3b/relu_3x3 <- inception_3b/3x3
I0105 11:54:25.009011 30841 net.cpp:327] inception_3b/relu_3x3 -> inception_3b/3x3 (in-place)
I0105 11:54:25.009033 30841 net.cpp:113] Setting up inception_3b/relu_3x3
I0105 11:54:25.009133 30841 net.cpp:120] Top shape: 80 192 28 28 (12042240)
I0105 11:54:25.009145 30841 layer_factory.hpp:74] Creating layer inception_3b/5x5_reduce
I0105 11:54:25.009160 30841 net.cpp:84] Creating Layer inception_3b/5x5_reduce
I0105 11:54:25.009169 30841 net.cpp:380] inception_3b/5x5_reduce <- inception_3a/output_inception_3a/output_0_split_2
I0105 11:54:25.009181 30841 net.cpp:338] inception_3b/5x5_reduce -> inception_3b/5x5_reduce
I0105 11:54:25.009196 30841 net.cpp:113] Setting up inception_3b/5x5_reduce
I0105 11:54:25.009856 30841 net.cpp:120] Top shape: 80 32 28 28 (2007040)
I0105 11:54:25.009878 30841 layer_factory.hpp:74] Creating layer inception_3b/relu_5x5_reduce
I0105 11:54:25.009891 30841 net.cpp:84] Creating Layer inception_3b/relu_5x5_reduce
I0105 11:54:25.009901 30841 net.cpp:380] inception_3b/relu_5x5_reduce <- inception_3b/5x5_reduce
I0105 11:54:25.009915 30841 net.cpp:327] inception_3b/relu_5x5_reduce -> inception_3b/5x5_reduce (in-place)
I0105 11:54:25.009928 30841 net.cpp:113] Setting up inception_3b/relu_5x5_reduce
I0105 11:54:25.010022 30841 net.cpp:120] Top shape: 80 32 28 28 (2007040)
I0105 11:54:25.010033 30841 layer_factory.hpp:74] Creating layer inception_3b/5x5
I0105 11:54:25.010049 30841 net.cpp:84] Creating Layer inception_3b/5x5
I0105 11:54:25.010058 30841 net.cpp:380] inception_3b/5x5 <- inception_3b/5x5_reduce
I0105 11:54:25.010071 30841 net.cpp:338] inception_3b/5x5 -> inception_3b/5x5
I0105 11:54:25.010092 30841 net.cpp:113] Setting up inception_3b/5x5
I0105 11:54:25.011576 30841 net.cpp:120] Top shape: 80 96 28 28 (6021120)
I0105 11:54:25.011598 30841 layer_factory.hpp:74] Creating layer inception_3b/relu_5x5
I0105 11:54:25.011610 30841 net.cpp:84] Creating Layer inception_3b/relu_5x5
I0105 11:54:25.011618 30841 net.cpp:380] inception_3b/relu_5x5 <- inception_3b/5x5
I0105 11:54:25.011629 30841 net.cpp:327] inception_3b/relu_5x5 -> inception_3b/5x5 (in-place)
I0105 11:54:25.011641 30841 net.cpp:113] Setting up inception_3b/relu_5x5
I0105 11:54:25.011932 30841 net.cpp:120] Top shape: 80 96 28 28 (6021120)
I0105 11:54:25.011948 30841 layer_factory.hpp:74] Creating layer inception_3b/pool
I0105 11:54:25.011960 30841 layer_factory.cpp:56] CUDNN does not support padding or multiple tops. Using Caffe's own pooling layer.
I0105 11:54:25.011973 30841 net.cpp:84] Creating Layer inception_3b/pool
I0105 11:54:25.011983 30841 net.cpp:380] inception_3b/pool <- inception_3a/output_inception_3a/output_0_split_3
I0105 11:54:25.011996 30841 net.cpp:338] inception_3b/pool -> inception_3b/pool
I0105 11:54:25.012008 30841 net.cpp:113] Setting up inception_3b/pool
I0105 11:54:25.012024 30841 net.cpp:120] Top shape: 80 256 28 28 (16056320)
I0105 11:54:25.012033 30841 layer_factory.hpp:74] Creating layer inception_3b/pool_proj
I0105 11:54:25.012048 30841 net.cpp:84] Creating Layer inception_3b/pool_proj
I0105 11:54:25.012058 30841 net.cpp:380] inception_3b/pool_proj <- inception_3b/pool
I0105 11:54:25.012069 30841 net.cpp:338] inception_3b/pool_proj -> inception_3b/pool_proj
I0105 11:54:25.012109 30841 net.cpp:113] Setting up inception_3b/pool_proj
I0105 11:54:25.012845 30841 net.cpp:120] Top shape: 80 64 28 28 (4014080)
I0105 11:54:25.012866 30841 layer_factory.hpp:74] Creating layer inception_3b/relu_pool_proj
I0105 11:54:25.012877 30841 net.cpp:84] Creating Layer inception_3b/relu_pool_proj
I0105 11:54:25.012887 30841 net.cpp:380] inception_3b/relu_pool_proj <- inception_3b/pool_proj
I0105 11:54:25.012900 30841 net.cpp:327] inception_3b/relu_pool_proj -> inception_3b/pool_proj (in-place)
I0105 11:54:25.012913 30841 net.cpp:113] Setting up inception_3b/relu_pool_proj
I0105 11:54:25.013012 30841 net.cpp:120] Top shape: 80 64 28 28 (4014080)
I0105 11:54:25.013064 30841 layer_factory.hpp:74] Creating layer inception_3b/output
I0105 11:54:25.013095 30841 net.cpp:84] Creating Layer inception_3b/output
I0105 11:54:25.013104 30841 net.cpp:380] inception_3b/output <- inception_3b/1x1
I0105 11:54:25.013114 30841 net.cpp:380] inception_3b/output <- inception_3b/3x3
I0105 11:54:25.013123 30841 net.cpp:380] inception_3b/output <- inception_3b/5x5
I0105 11:54:25.013133 30841 net.cpp:380] inception_3b/output <- inception_3b/pool_proj
I0105 11:54:25.013142 30841 net.cpp:338] inception_3b/output -> inception_3b/output
I0105 11:54:25.013155 30841 net.cpp:113] Setting up inception_3b/output
I0105 11:54:25.013170 30841 net.cpp:120] Top shape: 80 480 28 28 (30105600)
I0105 11:54:25.013178 30841 layer_factory.hpp:74] Creating layer pool3/3x3_s2
I0105 11:54:25.013197 30841 net.cpp:84] Creating Layer pool3/3x3_s2
I0105 11:54:25.013206 30841 net.cpp:380] pool3/3x3_s2 <- inception_3b/output
I0105 11:54:25.013217 30841 net.cpp:338] pool3/3x3_s2 -> pool3/3x3_s2
I0105 11:54:25.013228 30841 net.cpp:113] Setting up pool3/3x3_s2
I0105 11:54:25.013324 30841 net.cpp:120] Top shape: 80 480 14 14 (7526400)
I0105 11:54:25.013339 30841 layer_factory.hpp:74] Creating layer pool3/3x3_s2_pool3/3x3_s2_0_split
I0105 11:54:25.013352 30841 net.cpp:84] Creating Layer pool3/3x3_s2_pool3/3x3_s2_0_split
I0105 11:54:25.013360 30841 net.cpp:380] pool3/3x3_s2_pool3/3x3_s2_0_split <- pool3/3x3_s2
I0105 11:54:25.013371 30841 net.cpp:338] pool3/3x3_s2_pool3/3x3_s2_0_split -> pool3/3x3_s2_pool3/3x3_s2_0_split_0
I0105 11:54:25.013384 30841 net.cpp:338] pool3/3x3_s2_pool3/3x3_s2_0_split -> pool3/3x3_s2_pool3/3x3_s2_0_split_1
I0105 11:54:25.013396 30841 net.cpp:338] pool3/3x3_s2_pool3/3x3_s2_0_split -> pool3/3x3_s2_pool3/3x3_s2_0_split_2
I0105 11:54:25.013408 30841 net.cpp:338] pool3/3x3_s2_pool3/3x3_s2_0_split -> pool3/3x3_s2_pool3/3x3_s2_0_split_3
I0105 11:54:25.013419 30841 net.cpp:113] Setting up pool3/3x3_s2_pool3/3x3_s2_0_split
I0105 11:54:25.013432 30841 net.cpp:120] Top shape: 80 480 14 14 (7526400)
I0105 11:54:25.013442 30841 net.cpp:120] Top shape: 80 480 14 14 (7526400)
I0105 11:54:25.013452 30841 net.cpp:120] Top shape: 80 480 14 14 (7526400)
I0105 11:54:25.013460 30841 net.cpp:120] Top shape: 80 480 14 14 (7526400)
I0105 11:54:25.013468 30841 layer_factory.hpp:74] Creating layer inception_4a/1x1
I0105 11:54:25.013484 30841 net.cpp:84] Creating Layer inception_4a/1x1
I0105 11:54:25.013491 30841 net.cpp:380] inception_4a/1x1 <- pool3/3x3_s2_pool3/3x3_s2_0_split_0
I0105 11:54:25.013504 30841 net.cpp:338] inception_4a/1x1 -> inception_4a/1x1
I0105 11:54:25.013520 30841 net.cpp:113] Setting up inception_4a/1x1
I0105 11:54:25.015262 30841 net.cpp:120] Top shape: 80 192 14 14 (3010560)
I0105 11:54:25.015295 30841 layer_factory.hpp:74] Creating layer inception_4a/relu_1x1
I0105 11:54:25.015311 30841 net.cpp:84] Creating Layer inception_4a/relu_1x1
I0105 11:54:25.015321 30841 net.cpp:380] inception_4a/relu_1x1 <- inception_4a/1x1
I0105 11:54:25.015332 30841 net.cpp:327] inception_4a/relu_1x1 -> inception_4a/1x1 (in-place)
I0105 11:54:25.015344 30841 net.cpp:113] Setting up inception_4a/relu_1x1
I0105 11:54:25.015651 30841 net.cpp:120] Top shape: 80 192 14 14 (3010560)
I0105 11:54:25.015666 30841 layer_factory.hpp:74] Creating layer inception_4a/3x3_reduce
I0105 11:54:25.015684 30841 net.cpp:84] Creating Layer inception_4a/3x3_reduce
I0105 11:54:25.015707 30841 net.cpp:380] inception_4a/3x3_reduce <- pool3/3x3_s2_pool3/3x3_s2_0_split_1
I0105 11:54:25.015735 30841 net.cpp:338] inception_4a/3x3_reduce -> inception_4a/3x3_reduce
I0105 11:54:25.015751 30841 net.cpp:113] Setting up inception_4a/3x3_reduce
I0105 11:54:25.016906 30841 net.cpp:120] Top shape: 80 96 14 14 (1505280)
I0105 11:54:25.016939 30841 layer_factory.hpp:74] Creating layer inception_4a/relu_3x3_reduce
I0105 11:54:25.016954 30841 net.cpp:84] Creating Layer inception_4a/relu_3x3_reduce
I0105 11:54:25.016963 30841 net.cpp:380] inception_4a/relu_3x3_reduce <- inception_4a/3x3_reduce
I0105 11:54:25.016974 30841 net.cpp:327] inception_4a/relu_3x3_reduce -> inception_4a/3x3_reduce (in-place)
I0105 11:54:25.016988 30841 net.cpp:113] Setting up inception_4a/relu_3x3_reduce
I0105 11:54:25.017093 30841 net.cpp:120] Top shape: 80 96 14 14 (1505280)
I0105 11:54:25.017108 30841 layer_factory.hpp:74] Creating layer inception_4a/3x3
I0105 11:54:25.017123 30841 net.cpp:84] Creating Layer inception_4a/3x3
I0105 11:54:25.017132 30841 net.cpp:380] inception_4a/3x3 <- inception_4a/3x3_reduce
I0105 11:54:25.017144 30841 net.cpp:338] inception_4a/3x3 -> inception_4a/3x3
I0105 11:54:25.017158 30841 net.cpp:113] Setting up inception_4a/3x3
I0105 11:54:25.029716 30841 net.cpp:120] Top shape: 80 208 14 14 (3261440)
I0105 11:54:25.029764 30841 layer_factory.hpp:74] Creating layer inception_4a/relu_3x3
I0105 11:54:25.029798 30841 net.cpp:84] Creating Layer inception_4a/relu_3x3
I0105 11:54:25.029808 30841 net.cpp:380] inception_4a/relu_3x3 <- inception_4a/3x3
I0105 11:54:25.029824 30841 net.cpp:327] inception_4a/relu_3x3 -> inception_4a/3x3 (in-place)
I0105 11:54:25.029839 30841 net.cpp:113] Setting up inception_4a/relu_3x3
I0105 11:54:25.029928 30841 net.cpp:120] Top shape: 80 208 14 14 (3261440)
I0105 11:54:25.029938 30841 layer_factory.hpp:74] Creating layer inception_4a/5x5_reduce
I0105 11:54:25.029956 30841 net.cpp:84] Creating Layer inception_4a/5x5_reduce
I0105 11:54:25.029965 30841 net.cpp:380] inception_4a/5x5_reduce <- pool3/3x3_s2_pool3/3x3_s2_0_split_2
I0105 11:54:25.029978 30841 net.cpp:338] inception_4a/5x5_reduce -> inception_4a/5x5_reduce
I0105 11:54:25.029991 30841 net.cpp:113] Setting up inception_4a/5x5_reduce
I0105 11:54:25.030592 30841 net.cpp:120] Top shape: 80 16 14 14 (250880)
I0105 11:54:25.030612 30841 layer_factory.hpp:74] Creating layer inception_4a/relu_5x5_reduce
I0105 11:54:25.030623 30841 net.cpp:84] Creating Layer inception_4a/relu_5x5_reduce
I0105 11:54:25.030632 30841 net.cpp:380] inception_4a/relu_5x5_reduce <- inception_4a/5x5_reduce
I0105 11:54:25.030642 30841 net.cpp:327] inception_4a/relu_5x5_reduce -> inception_4a/5x5_reduce (in-place)
I0105 11:54:25.030652 30841 net.cpp:113] Setting up inception_4a/relu_5x5_reduce
I0105 11:54:25.030738 30841 net.cpp:120] Top shape: 80 16 14 14 (250880)
I0105 11:54:25.030747 30841 layer_factory.hpp:74] Creating layer inception_4a/5x5
I0105 11:54:25.030761 30841 net.cpp:84] Creating Layer inception_4a/5x5
I0105 11:54:25.030769 30841 net.cpp:380] inception_4a/5x5 <- inception_4a/5x5_reduce
I0105 11:54:25.030781 30841 net.cpp:338] inception_4a/5x5 -> inception_4a/5x5
I0105 11:54:25.030792 30841 net.cpp:113] Setting up inception_4a/5x5
I0105 11:54:25.031498 30841 net.cpp:120] Top shape: 80 48 14 14 (752640)
I0105 11:54:25.031518 30841 layer_factory.hpp:74] Creating layer inception_4a/relu_5x5
I0105 11:54:25.031538 30841 net.cpp:84] Creating Layer inception_4a/relu_5x5
I0105 11:54:25.031544 30841 net.cpp:380] inception_4a/relu_5x5 <- inception_4a/5x5
I0105 11:54:25.031556 30841 net.cpp:327] inception_4a/relu_5x5 -> inception_4a/5x5 (in-place)
I0105 11:54:25.031568 30841 net.cpp:113] Setting up inception_4a/relu_5x5
I0105 11:54:25.031834 30841 net.cpp:120] Top shape: 80 48 14 14 (752640)
I0105 11:54:25.031847 30841 layer_factory.hpp:74] Creating layer inception_4a/pool
I0105 11:54:25.031865 30841 layer_factory.cpp:56] CUDNN does not support padding or multiple tops. Using Caffe's own pooling layer.
I0105 11:54:25.031889 30841 net.cpp:84] Creating Layer inception_4a/pool
I0105 11:54:25.031919 30841 net.cpp:380] inception_4a/pool <- pool3/3x3_s2_pool3/3x3_s2_0_split_3
I0105 11:54:25.031934 30841 net.cpp:338] inception_4a/pool -> inception_4a/pool
I0105 11:54:25.031945 30841 net.cpp:113] Setting up inception_4a/pool
I0105 11:54:25.031958 30841 net.cpp:120] Top shape: 80 480 14 14 (7526400)
I0105 11:54:25.031965 30841 layer_factory.hpp:74] Creating layer inception_4a/pool_proj
I0105 11:54:25.031975 30841 net.cpp:84] Creating Layer inception_4a/pool_proj
I0105 11:54:25.031982 30841 net.cpp:380] inception_4a/pool_proj <- inception_4a/pool
I0105 11:54:25.031994 30841 net.cpp:338] inception_4a/pool_proj -> inception_4a/pool_proj
I0105 11:54:25.032006 30841 net.cpp:113] Setting up inception_4a/pool_proj
I0105 11:54:25.032847 30841 net.cpp:120] Top shape: 80 64 14 14 (1003520)
I0105 11:54:25.032866 30841 layer_factory.hpp:74] Creating layer inception_4a/relu_pool_proj
I0105 11:54:25.032886 30841 net.cpp:84] Creating Layer inception_4a/relu_pool_proj
I0105 11:54:25.032894 30841 net.cpp:380] inception_4a/relu_pool_proj <- inception_4a/pool_proj
I0105 11:54:25.032903 30841 net.cpp:327] inception_4a/relu_pool_proj -> inception_4a/pool_proj (in-place)
I0105 11:54:25.032914 30841 net.cpp:113] Setting up inception_4a/relu_pool_proj
I0105 11:54:25.033004 30841 net.cpp:120] Top shape: 80 64 14 14 (1003520)
I0105 11:54:25.033013 30841 layer_factory.hpp:74] Creating layer inception_4a/output
I0105 11:54:25.033033 30841 net.cpp:84] Creating Layer inception_4a/output
I0105 11:54:25.033041 30841 net.cpp:380] inception_4a/output <- inception_4a/1x1
I0105 11:54:25.033049 30841 net.cpp:380] inception_4a/output <- inception_4a/3x3
I0105 11:54:25.033057 30841 net.cpp:380] inception_4a/output <- inception_4a/5x5
I0105 11:54:25.033064 30841 net.cpp:380] inception_4a/output <- inception_4a/pool_proj
I0105 11:54:25.033076 30841 net.cpp:338] inception_4a/output -> inception_4a/output
I0105 11:54:25.033087 30841 net.cpp:113] Setting up inception_4a/output
I0105 11:54:25.033100 30841 net.cpp:120] Top shape: 80 512 14 14 (8028160)
I0105 11:54:25.033107 30841 layer_factory.hpp:74] Creating layer inception_4a/output_inception_4a/output_0_split
I0105 11:54:25.033125 30841 net.cpp:84] Creating Layer inception_4a/output_inception_4a/output_0_split
I0105 11:54:25.033134 30841 net.cpp:380] inception_4a/output_inception_4a/output_0_split <- inception_4a/output
I0105 11:54:25.033143 30841 net.cpp:338] inception_4a/output_inception_4a/output_0_split -> inception_4a/output_inception_4a/output_0_split_0
I0105 11:54:25.033154 30841 net.cpp:338] inception_4a/output_inception_4a/output_0_split -> inception_4a/output_inception_4a/output_0_split_1
I0105 11:54:25.033166 30841 net.cpp:338] inception_4a/output_inception_4a/output_0_split -> inception_4a/output_inception_4a/output_0_split_2
I0105 11:54:25.033179 30841 net.cpp:338] inception_4a/output_inception_4a/output_0_split -> inception_4a/output_inception_4a/output_0_split_3
I0105 11:54:25.033188 30841 net.cpp:338] inception_4a/output_inception_4a/output_0_split -> inception_4a/output_inception_4a/output_0_split_4
I0105 11:54:25.033197 30841 net.cpp:113] Setting up inception_4a/output_inception_4a/output_0_split
I0105 11:54:25.033210 30841 net.cpp:120] Top shape: 80 512 14 14 (8028160)
I0105 11:54:25.033218 30841 net.cpp:120] Top shape: 80 512 14 14 (8028160)
I0105 11:54:25.033226 30841 net.cpp:120] Top shape: 80 512 14 14 (8028160)
I0105 11:54:25.033233 30841 net.cpp:120] Top shape: 80 512 14 14 (8028160)
I0105 11:54:25.033241 30841 net.cpp:120] Top shape: 80 512 14 14 (8028160)
I0105 11:54:25.033253 30841 layer_factory.hpp:74] Creating layer loss1/ave_pool
I0105 11:54:25.033264 30841 net.cpp:84] Creating Layer loss1/ave_pool
I0105 11:54:25.033272 30841 net.cpp:380] loss1/ave_pool <- inception_4a/output_inception_4a/output_0_split_0
I0105 11:54:25.033280 30841 net.cpp:338] loss1/ave_pool -> loss1/ave_pool
I0105 11:54:25.033289 30841 net.cpp:113] Setting up loss1/ave_pool
I0105 11:54:25.033385 30841 net.cpp:120] Top shape: 80 512 4 4 (655360)
I0105 11:54:25.033401 30841 layer_factory.hpp:74] Creating layer loss1/conv
I0105 11:54:25.033421 30841 net.cpp:84] Creating Layer loss1/conv
I0105 11:54:25.033428 30841 net.cpp:380] loss1/conv <- loss1/ave_pool
I0105 11:54:25.033439 30841 net.cpp:338] loss1/conv -> loss1/conv
I0105 11:54:25.033450 30841 net.cpp:113] Setting up loss1/conv
I0105 11:54:25.034710 30841 net.cpp:120] Top shape: 80 128 4 4 (163840)
I0105 11:54:25.034729 30841 layer_factory.hpp:74] Creating layer loss1/relu_conv
I0105 11:54:25.034747 30841 net.cpp:84] Creating Layer loss1/relu_conv
I0105 11:54:25.034754 30841 net.cpp:380] loss1/relu_conv <- loss1/conv
I0105 11:54:25.034765 30841 net.cpp:327] loss1/relu_conv -> loss1/conv (in-place)
I0105 11:54:25.034773 30841 net.cpp:113] Setting up loss1/relu_conv
I0105 11:54:25.034862 30841 net.cpp:120] Top shape: 80 128 4 4 (163840)
I0105 11:54:25.034870 30841 layer_factory.hpp:74] Creating layer loss1/fc
I0105 11:54:25.034881 30841 net.cpp:84] Creating Layer loss1/fc
I0105 11:54:25.034888 30841 net.cpp:380] loss1/fc <- loss1/conv
I0105 11:54:25.034896 30841 net.cpp:338] loss1/fc -> loss1/fc
I0105 11:54:25.034910 30841 net.cpp:113] Setting up loss1/fc
I0105 11:54:25.088155 30841 net.cpp:120] Top shape: 80 1024 (81920)
I0105 11:54:25.088217 30841 layer_factory.hpp:74] Creating layer loss1/relu_fc
I0105 11:54:25.088235 30841 net.cpp:84] Creating Layer loss1/relu_fc
I0105 11:54:25.088244 30841 net.cpp:380] loss1/relu_fc <- loss1/fc
I0105 11:54:25.088260 30841 net.cpp:327] loss1/relu_fc -> loss1/fc (in-place)
I0105 11:54:25.088274 30841 net.cpp:113] Setting up loss1/relu_fc
I0105 11:54:25.088734 30841 net.cpp:120] Top shape: 80 1024 (81920)
I0105 11:54:25.088748 30841 layer_factory.hpp:74] Creating layer loss1/drop_fc
I0105 11:54:25.088783 30841 net.cpp:84] Creating Layer loss1/drop_fc
I0105 11:54:25.088793 30841 net.cpp:380] loss1/drop_fc <- loss1/fc
I0105 11:54:25.088801 30841 net.cpp:327] loss1/drop_fc -> loss1/fc (in-place)
I0105 11:54:25.088814 30841 net.cpp:113] Setting up loss1/drop_fc
I0105 11:54:25.088829 30841 net.cpp:120] Top shape: 80 1024 (81920)
I0105 11:54:25.088835 30841 layer_factory.hpp:74] Creating layer loss1/classifier_kaggle
I0105 11:54:25.088850 30841 net.cpp:84] Creating Layer loss1/classifier_kaggle
I0105 11:54:25.088856 30841 net.cpp:380] loss1/classifier_kaggle <- loss1/fc
I0105 11:54:25.088866 30841 net.cpp:338] loss1/classifier_kaggle -> loss1/classifier_kaggle
I0105 11:54:25.088879 30841 net.cpp:113] Setting up loss1/classifier_kaggle
I0105 11:54:25.094758 30841 net.cpp:120] Top shape: 80 447 (35760)
I0105 11:54:25.094781 30841 layer_factory.hpp:74] Creating layer loss1/loss
I0105 11:54:25.094792 30841 net.cpp:84] Creating Layer loss1/loss
I0105 11:54:25.094802 30841 net.cpp:380] loss1/loss <- loss1/classifier_kaggle
I0105 11:54:25.094811 30841 net.cpp:380] loss1/loss <- label_data_1_split_0
I0105 11:54:25.094820 30841 net.cpp:338] loss1/loss -> loss1/loss1
I0105 11:54:25.094830 30841 net.cpp:113] Setting up loss1/loss
I0105 11:54:25.094846 30841 layer_factory.hpp:74] Creating layer loss1/loss
I0105 11:54:25.095072 30841 net.cpp:120] Top shape: (1)
I0105 11:54:25.095082 30841 net.cpp:122]     with loss weight 0.3
I0105 11:54:25.095114 30841 layer_factory.hpp:74] Creating layer inception_4b/1x1
I0105 11:54:25.095141 30841 net.cpp:84] Creating Layer inception_4b/1x1
I0105 11:54:25.095151 30841 net.cpp:380] inception_4b/1x1 <- inception_4a/output_inception_4a/output_0_split_1
I0105 11:54:25.095161 30841 net.cpp:338] inception_4b/1x1 -> inception_4b/1x1
I0105 11:54:25.095172 30841 net.cpp:113] Setting up inception_4b/1x1
I0105 11:54:25.096671 30841 net.cpp:120] Top shape: 80 160 14 14 (2508800)
I0105 11:54:25.096690 30841 layer_factory.hpp:74] Creating layer inception_4b/relu_1x1
I0105 11:54:25.096699 30841 net.cpp:84] Creating Layer inception_4b/relu_1x1
I0105 11:54:25.096707 30841 net.cpp:380] inception_4b/relu_1x1 <- inception_4b/1x1
I0105 11:54:25.096719 30841 net.cpp:327] inception_4b/relu_1x1 -> inception_4b/1x1 (in-place)
I0105 11:54:25.096729 30841 net.cpp:113] Setting up inception_4b/relu_1x1
I0105 11:54:25.096825 30841 net.cpp:120] Top shape: 80 160 14 14 (2508800)
I0105 11:54:25.096846 30841 layer_factory.hpp:74] Creating layer inception_4b/3x3_reduce
I0105 11:54:25.096869 30841 net.cpp:84] Creating Layer inception_4b/3x3_reduce
I0105 11:54:25.096876 30841 net.cpp:380] inception_4b/3x3_reduce <- inception_4a/output_inception_4a/output_0_split_2
I0105 11:54:25.096889 30841 net.cpp:338] inception_4b/3x3_reduce -> inception_4b/3x3_reduce
I0105 11:54:25.096900 30841 net.cpp:113] Setting up inception_4b/3x3_reduce
I0105 11:54:25.099822 30841 net.cpp:120] Top shape: 80 112 14 14 (1756160)
I0105 11:54:25.099848 30841 layer_factory.hpp:74] Creating layer inception_4b/relu_3x3_reduce
I0105 11:54:25.099863 30841 net.cpp:84] Creating Layer inception_4b/relu_3x3_reduce
I0105 11:54:25.099870 30841 net.cpp:380] inception_4b/relu_3x3_reduce <- inception_4b/3x3_reduce
I0105 11:54:25.099880 30841 net.cpp:327] inception_4b/relu_3x3_reduce -> inception_4b/3x3_reduce (in-place)
I0105 11:54:25.099892 30841 net.cpp:113] Setting up inception_4b/relu_3x3_reduce
I0105 11:54:25.099982 30841 net.cpp:120] Top shape: 80 112 14 14 (1756160)
I0105 11:54:25.099992 30841 layer_factory.hpp:74] Creating layer inception_4b/3x3
I0105 11:54:25.100006 30841 net.cpp:84] Creating Layer inception_4b/3x3
I0105 11:54:25.100014 30841 net.cpp:380] inception_4b/3x3 <- inception_4b/3x3_reduce
I0105 11:54:25.100026 30841 net.cpp:338] inception_4b/3x3 -> inception_4b/3x3
I0105 11:54:25.100039 30841 net.cpp:113] Setting up inception_4b/3x3
I0105 11:54:25.103267 30841 net.cpp:120] Top shape: 80 224 14 14 (3512320)
I0105 11:54:25.103298 30841 layer_factory.hpp:74] Creating layer inception_4b/relu_3x3
I0105 11:54:25.103318 30841 net.cpp:84] Creating Layer inception_4b/relu_3x3
I0105 11:54:25.103327 30841 net.cpp:380] inception_4b/relu_3x3 <- inception_4b/3x3
I0105 11:54:25.103335 30841 net.cpp:327] inception_4b/relu_3x3 -> inception_4b/3x3 (in-place)
I0105 11:54:25.103345 30841 net.cpp:113] Setting up inception_4b/relu_3x3
I0105 11:54:25.103615 30841 net.cpp:120] Top shape: 80 224 14 14 (3512320)
I0105 11:54:25.103627 30841 layer_factory.hpp:74] Creating layer inception_4b/5x5_reduce
I0105 11:54:25.103637 30841 net.cpp:84] Creating Layer inception_4b/5x5_reduce
I0105 11:54:25.103644 30841 net.cpp:380] inception_4b/5x5_reduce <- inception_4a/output_inception_4a/output_0_split_3
I0105 11:54:25.103658 30841 net.cpp:338] inception_4b/5x5_reduce -> inception_4b/5x5_reduce
I0105 11:54:25.103672 30841 net.cpp:113] Setting up inception_4b/5x5_reduce
I0105 11:54:25.104418 30841 net.cpp:120] Top shape: 80 24 14 14 (376320)
I0105 11:54:25.104436 30841 layer_factory.hpp:74] Creating layer inception_4b/relu_5x5_reduce
I0105 11:54:25.104447 30841 net.cpp:84] Creating Layer inception_4b/relu_5x5_reduce
I0105 11:54:25.104455 30841 net.cpp:380] inception_4b/relu_5x5_reduce <- inception_4b/5x5_reduce
I0105 11:54:25.104465 30841 net.cpp:327] inception_4b/relu_5x5_reduce -> inception_4b/5x5_reduce (in-place)
I0105 11:54:25.104473 30841 net.cpp:113] Setting up inception_4b/relu_5x5_reduce
I0105 11:54:25.104559 30841 net.cpp:120] Top shape: 80 24 14 14 (376320)
I0105 11:54:25.104568 30841 layer_factory.hpp:74] Creating layer inception_4b/5x5
I0105 11:54:25.104593 30841 net.cpp:84] Creating Layer inception_4b/5x5
I0105 11:54:25.104600 30841 net.cpp:380] inception_4b/5x5 <- inception_4b/5x5_reduce
I0105 11:54:25.104611 30841 net.cpp:338] inception_4b/5x5 -> inception_4b/5x5
I0105 11:54:25.104622 30841 net.cpp:113] Setting up inception_4b/5x5
I0105 11:54:25.105581 30841 net.cpp:120] Top shape: 80 64 14 14 (1003520)
I0105 11:54:25.105600 30841 layer_factory.hpp:74] Creating layer inception_4b/relu_5x5
I0105 11:54:25.105612 30841 net.cpp:84] Creating Layer inception_4b/relu_5x5
I0105 11:54:25.105618 30841 net.cpp:380] inception_4b/relu_5x5 <- inception_4b/5x5
I0105 11:54:25.105628 30841 net.cpp:327] inception_4b/relu_5x5 -> inception_4b/5x5 (in-place)
I0105 11:54:25.105638 30841 net.cpp:113] Setting up inception_4b/relu_5x5
I0105 11:54:25.105720 30841 net.cpp:120] Top shape: 80 64 14 14 (1003520)
I0105 11:54:25.105757 30841 layer_factory.hpp:74] Creating layer inception_4b/pool
I0105 11:54:25.105767 30841 layer_factory.cpp:56] CUDNN does not support padding or multiple tops. Using Caffe's own pooling layer.
I0105 11:54:25.105775 30841 net.cpp:84] Creating Layer inception_4b/pool
I0105 11:54:25.105782 30841 net.cpp:380] inception_4b/pool <- inception_4a/output_inception_4a/output_0_split_4
I0105 11:54:25.105793 30841 net.cpp:338] inception_4b/pool -> inception_4b/pool
I0105 11:54:25.105816 30841 net.cpp:113] Setting up inception_4b/pool
I0105 11:54:25.105829 30841 net.cpp:120] Top shape: 80 512 14 14 (8028160)
I0105 11:54:25.105835 30841 layer_factory.hpp:74] Creating layer inception_4b/pool_proj
I0105 11:54:25.105846 30841 net.cpp:84] Creating Layer inception_4b/pool_proj
I0105 11:54:25.105854 30841 net.cpp:380] inception_4b/pool_proj <- inception_4b/pool
I0105 11:54:25.105865 30841 net.cpp:338] inception_4b/pool_proj -> inception_4b/pool_proj
I0105 11:54:25.105875 30841 net.cpp:113] Setting up inception_4b/pool_proj
I0105 11:54:25.106719 30841 net.cpp:120] Top shape: 80 64 14 14 (1003520)
I0105 11:54:25.106737 30841 layer_factory.hpp:74] Creating layer inception_4b/relu_pool_proj
I0105 11:54:25.106755 30841 net.cpp:84] Creating Layer inception_4b/relu_pool_proj
I0105 11:54:25.106763 30841 net.cpp:380] inception_4b/relu_pool_proj <- inception_4b/pool_proj
I0105 11:54:25.106772 30841 net.cpp:327] inception_4b/relu_pool_proj -> inception_4b/pool_proj (in-place)
I0105 11:54:25.106781 30841 net.cpp:113] Setting up inception_4b/relu_pool_proj
I0105 11:54:25.107043 30841 net.cpp:120] Top shape: 80 64 14 14 (1003520)
I0105 11:54:25.107056 30841 layer_factory.hpp:74] Creating layer inception_4b/output
I0105 11:54:25.107066 30841 net.cpp:84] Creating Layer inception_4b/output
I0105 11:54:25.107074 30841 net.cpp:380] inception_4b/output <- inception_4b/1x1
I0105 11:54:25.107082 30841 net.cpp:380] inception_4b/output <- inception_4b/3x3
I0105 11:54:25.107089 30841 net.cpp:380] inception_4b/output <- inception_4b/5x5
I0105 11:54:25.107095 30841 net.cpp:380] inception_4b/output <- inception_4b/pool_proj
I0105 11:54:25.107103 30841 net.cpp:338] inception_4b/output -> inception_4b/output
I0105 11:54:25.107113 30841 net.cpp:113] Setting up inception_4b/output
I0105 11:54:25.107125 30841 net.cpp:120] Top shape: 80 512 14 14 (8028160)
I0105 11:54:25.107139 30841 layer_factory.hpp:74] Creating layer inception_4b/output_inception_4b/output_0_split
I0105 11:54:25.107151 30841 net.cpp:84] Creating Layer inception_4b/output_inception_4b/output_0_split
I0105 11:54:25.107157 30841 net.cpp:380] inception_4b/output_inception_4b/output_0_split <- inception_4b/output
I0105 11:54:25.107167 30841 net.cpp:338] inception_4b/output_inception_4b/output_0_split -> inception_4b/output_inception_4b/output_0_split_0
I0105 11:54:25.107177 30841 net.cpp:338] inception_4b/output_inception_4b/output_0_split -> inception_4b/output_inception_4b/output_0_split_1
I0105 11:54:25.107185 30841 net.cpp:338] inception_4b/output_inception_4b/output_0_split -> inception_4b/output_inception_4b/output_0_split_2
I0105 11:54:25.107194 30841 net.cpp:338] inception_4b/output_inception_4b/output_0_split -> inception_4b/output_inception_4b/output_0_split_3
I0105 11:54:25.107203 30841 net.cpp:113] Setting up inception_4b/output_inception_4b/output_0_split
I0105 11:54:25.107213 30841 net.cpp:120] Top shape: 80 512 14 14 (8028160)
I0105 11:54:25.107219 30841 net.cpp:120] Top shape: 80 512 14 14 (8028160)
I0105 11:54:25.107226 30841 net.cpp:120] Top shape: 80 512 14 14 (8028160)
I0105 11:54:25.107233 30841 net.cpp:120] Top shape: 80 512 14 14 (8028160)
I0105 11:54:25.107239 30841 layer_factory.hpp:74] Creating layer inception_4c/1x1
I0105 11:54:25.107250 30841 net.cpp:84] Creating Layer inception_4c/1x1
I0105 11:54:25.107256 30841 net.cpp:380] inception_4c/1x1 <- inception_4b/output_inception_4b/output_0_split_0
I0105 11:54:25.107267 30841 net.cpp:338] inception_4c/1x1 -> inception_4c/1x1
I0105 11:54:25.107276 30841 net.cpp:113] Setting up inception_4c/1x1
I0105 11:54:25.108533 30841 net.cpp:120] Top shape: 80 128 14 14 (2007040)
I0105 11:54:25.108561 30841 layer_factory.hpp:74] Creating layer inception_4c/relu_1x1
I0105 11:54:25.108580 30841 net.cpp:84] Creating Layer inception_4c/relu_1x1
I0105 11:54:25.108588 30841 net.cpp:380] inception_4c/relu_1x1 <- inception_4c/1x1
I0105 11:54:25.108597 30841 net.cpp:327] inception_4c/relu_1x1 -> inception_4c/1x1 (in-place)
I0105 11:54:25.108606 30841 net.cpp:113] Setting up inception_4c/relu_1x1
I0105 11:54:25.108692 30841 net.cpp:120] Top shape: 80 128 14 14 (2007040)
I0105 11:54:25.108700 30841 layer_factory.hpp:74] Creating layer inception_4c/3x3_reduce
I0105 11:54:25.108712 30841 net.cpp:84] Creating Layer inception_4c/3x3_reduce
I0105 11:54:25.108719 30841 net.cpp:380] inception_4c/3x3_reduce <- inception_4b/output_inception_4b/output_0_split_1
I0105 11:54:25.108731 30841 net.cpp:338] inception_4c/3x3_reduce -> inception_4c/3x3_reduce
I0105 11:54:25.108741 30841 net.cpp:113] Setting up inception_4c/3x3_reduce
I0105 11:54:25.113246 30841 net.cpp:120] Top shape: 80 128 14 14 (2007040)
I0105 11:54:25.113309 30841 layer_factory.hpp:74] Creating layer inception_4c/relu_3x3_reduce
I0105 11:54:25.113330 30841 net.cpp:84] Creating Layer inception_4c/relu_3x3_reduce
I0105 11:54:25.113343 30841 net.cpp:380] inception_4c/relu_3x3_reduce <- inception_4c/3x3_reduce
I0105 11:54:25.113358 30841 net.cpp:327] inception_4c/relu_3x3_reduce -> inception_4c/3x3_reduce (in-place)
I0105 11:54:25.113380 30841 net.cpp:113] Setting up inception_4c/relu_3x3_reduce
I0105 11:54:25.113488 30841 net.cpp:120] Top shape: 80 128 14 14 (2007040)
I0105 11:54:25.113504 30841 layer_factory.hpp:74] Creating layer inception_4c/3x3
I0105 11:54:25.113525 30841 net.cpp:84] Creating Layer inception_4c/3x3
I0105 11:54:25.113536 30841 net.cpp:380] inception_4c/3x3 <- inception_4c/3x3_reduce
I0105 11:54:25.113551 30841 net.cpp:338] inception_4c/3x3 -> inception_4c/3x3
I0105 11:54:25.113567 30841 net.cpp:113] Setting up inception_4c/3x3
I0105 11:54:25.118206 30841 net.cpp:120] Top shape: 80 256 14 14 (4014080)
I0105 11:54:25.118263 30841 layer_factory.hpp:74] Creating layer inception_4c/relu_3x3
I0105 11:54:25.118280 30841 net.cpp:84] Creating Layer inception_4c/relu_3x3
I0105 11:54:25.118290 30841 net.cpp:380] inception_4c/relu_3x3 <- inception_4c/3x3
I0105 11:54:25.118304 30841 net.cpp:327] inception_4c/relu_3x3 -> inception_4c/3x3 (in-place)
I0105 11:54:25.118316 30841 net.cpp:113] Setting up inception_4c/relu_3x3
I0105 11:54:25.118419 30841 net.cpp:120] Top shape: 80 256 14 14 (4014080)
I0105 11:54:25.118437 30841 layer_factory.hpp:74] Creating layer inception_4c/5x5_reduce
I0105 11:54:25.118459 30841 net.cpp:84] Creating Layer inception_4c/5x5_reduce
I0105 11:54:25.118468 30841 net.cpp:380] inception_4c/5x5_reduce <- inception_4b/output_inception_4b/output_0_split_2
I0105 11:54:25.118486 30841 net.cpp:338] inception_4c/5x5_reduce -> inception_4c/5x5_reduce
I0105 11:54:25.118504 30841 net.cpp:113] Setting up inception_4c/5x5_reduce
I0105 11:54:25.119333 30841 net.cpp:120] Top shape: 80 24 14 14 (376320)
I0105 11:54:25.119356 30841 layer_factory.hpp:74] Creating layer inception_4c/relu_5x5_reduce
I0105 11:54:25.119369 30841 net.cpp:84] Creating Layer inception_4c/relu_5x5_reduce
I0105 11:54:25.119379 30841 net.cpp:380] inception_4c/relu_5x5_reduce <- inception_4c/5x5_reduce
I0105 11:54:25.119390 30841 net.cpp:327] inception_4c/relu_5x5_reduce -> inception_4c/5x5_reduce (in-place)
I0105 11:54:25.119401 30841 net.cpp:113] Setting up inception_4c/relu_5x5_reduce
I0105 11:54:25.122340 30841 net.cpp:120] Top shape: 80 24 14 14 (376320)
I0105 11:54:25.122361 30841 layer_factory.hpp:74] Creating layer inception_4c/5x5
I0105 11:54:25.122380 30841 net.cpp:84] Creating Layer inception_4c/5x5
I0105 11:54:25.122402 30841 net.cpp:380] inception_4c/5x5 <- inception_4c/5x5_reduce
I0105 11:54:25.122460 30841 net.cpp:338] inception_4c/5x5 -> inception_4c/5x5
I0105 11:54:25.122483 30841 net.cpp:113] Setting up inception_4c/5x5
I0105 11:54:25.123523 30841 net.cpp:120] Top shape: 80 64 14 14 (1003520)
I0105 11:54:25.123556 30841 layer_factory.hpp:74] Creating layer inception_4c/relu_5x5
I0105 11:54:25.123585 30841 net.cpp:84] Creating Layer inception_4c/relu_5x5
I0105 11:54:25.123594 30841 net.cpp:380] inception_4c/relu_5x5 <- inception_4c/5x5
I0105 11:54:25.123605 30841 net.cpp:327] inception_4c/relu_5x5 -> inception_4c/5x5 (in-place)
I0105 11:54:25.123617 30841 net.cpp:113] Setting up inception_4c/relu_5x5
I0105 11:54:25.123716 30841 net.cpp:120] Top shape: 80 64 14 14 (1003520)
I0105 11:54:25.123728 30841 layer_factory.hpp:74] Creating layer inception_4c/pool
I0105 11:54:25.123739 30841 layer_factory.cpp:56] CUDNN does not support padding or multiple tops. Using Caffe's own pooling layer.
I0105 11:54:25.123751 30841 net.cpp:84] Creating Layer inception_4c/pool
I0105 11:54:25.123761 30841 net.cpp:380] inception_4c/pool <- inception_4b/output_inception_4b/output_0_split_3
I0105 11:54:25.123772 30841 net.cpp:338] inception_4c/pool -> inception_4c/pool
I0105 11:54:25.123788 30841 net.cpp:113] Setting up inception_4c/pool
I0105 11:54:25.123805 30841 net.cpp:120] Top shape: 80 512 14 14 (8028160)
I0105 11:54:25.123813 30841 layer_factory.hpp:74] Creating layer inception_4c/pool_proj
I0105 11:54:25.123827 30841 net.cpp:84] Creating Layer inception_4c/pool_proj
I0105 11:54:25.123836 30841 net.cpp:380] inception_4c/pool_proj <- inception_4c/pool
I0105 11:54:25.123850 30841 net.cpp:338] inception_4c/pool_proj -> inception_4c/pool_proj
I0105 11:54:25.123864 30841 net.cpp:113] Setting up inception_4c/pool_proj
I0105 11:54:25.124869 30841 net.cpp:120] Top shape: 80 64 14 14 (1003520)
I0105 11:54:25.124893 30841 layer_factory.hpp:74] Creating layer inception_4c/relu_pool_proj
I0105 11:54:25.124908 30841 net.cpp:84] Creating Layer inception_4c/relu_pool_proj
I0105 11:54:25.124917 30841 net.cpp:380] inception_4c/relu_pool_proj <- inception_4c/pool_proj
I0105 11:54:25.124930 30841 net.cpp:327] inception_4c/relu_pool_proj -> inception_4c/pool_proj (in-place)
I0105 11:54:25.124943 30841 net.cpp:113] Setting up inception_4c/relu_pool_proj
I0105 11:54:25.125057 30841 net.cpp:120] Top shape: 80 64 14 14 (1003520)
I0105 11:54:25.125072 30841 layer_factory.hpp:74] Creating layer inception_4c/output
I0105 11:54:25.125084 30841 net.cpp:84] Creating Layer inception_4c/output
I0105 11:54:25.125092 30841 net.cpp:380] inception_4c/output <- inception_4c/1x1
I0105 11:54:25.125103 30841 net.cpp:380] inception_4c/output <- inception_4c/3x3
I0105 11:54:25.125113 30841 net.cpp:380] inception_4c/output <- inception_4c/5x5
I0105 11:54:25.125121 30841 net.cpp:380] inception_4c/output <- inception_4c/pool_proj
I0105 11:54:25.125131 30841 net.cpp:338] inception_4c/output -> inception_4c/output
I0105 11:54:25.125144 30841 net.cpp:113] Setting up inception_4c/output
I0105 11:54:25.125159 30841 net.cpp:120] Top shape: 80 512 14 14 (8028160)
I0105 11:54:25.125167 30841 layer_factory.hpp:74] Creating layer inception_4c/output_inception_4c/output_0_split
I0105 11:54:25.125179 30841 net.cpp:84] Creating Layer inception_4c/output_inception_4c/output_0_split
I0105 11:54:25.125186 30841 net.cpp:380] inception_4c/output_inception_4c/output_0_split <- inception_4c/output
I0105 11:54:25.125200 30841 net.cpp:338] inception_4c/output_inception_4c/output_0_split -> inception_4c/output_inception_4c/output_0_split_0
I0105 11:54:25.125213 30841 net.cpp:338] inception_4c/output_inception_4c/output_0_split -> inception_4c/output_inception_4c/output_0_split_1
I0105 11:54:25.125226 30841 net.cpp:338] inception_4c/output_inception_4c/output_0_split -> inception_4c/output_inception_4c/output_0_split_2
I0105 11:54:25.125237 30841 net.cpp:338] inception_4c/output_inception_4c/output_0_split -> inception_4c/output_inception_4c/output_0_split_3
I0105 11:54:25.125248 30841 net.cpp:113] Setting up inception_4c/output_inception_4c/output_0_split
I0105 11:54:25.125264 30841 net.cpp:120] Top shape: 80 512 14 14 (8028160)
I0105 11:54:25.125274 30841 net.cpp:120] Top shape: 80 512 14 14 (8028160)
I0105 11:54:25.125283 30841 net.cpp:120] Top shape: 80 512 14 14 (8028160)
I0105 11:54:25.125303 30841 net.cpp:120] Top shape: 80 512 14 14 (8028160)
I0105 11:54:25.125320 30841 layer_factory.hpp:74] Creating layer inception_4d/1x1
I0105 11:54:25.125334 30841 net.cpp:84] Creating Layer inception_4d/1x1
I0105 11:54:25.125341 30841 net.cpp:380] inception_4d/1x1 <- inception_4c/output_inception_4c/output_0_split_0
I0105 11:54:25.125355 30841 net.cpp:338] inception_4d/1x1 -> inception_4d/1x1
I0105 11:54:25.125368 30841 net.cpp:113] Setting up inception_4d/1x1
I0105 11:54:25.126641 30841 net.cpp:120] Top shape: 80 112 14 14 (1756160)
I0105 11:54:25.126664 30841 layer_factory.hpp:74] Creating layer inception_4d/relu_1x1
I0105 11:54:25.126677 30841 net.cpp:84] Creating Layer inception_4d/relu_1x1
I0105 11:54:25.126687 30841 net.cpp:380] inception_4d/relu_1x1 <- inception_4d/1x1
I0105 11:54:25.126698 30841 net.cpp:327] inception_4d/relu_1x1 -> inception_4d/1x1 (in-place)
I0105 11:54:25.126709 30841 net.cpp:113] Setting up inception_4d/relu_1x1
I0105 11:54:25.126806 30841 net.cpp:120] Top shape: 80 112 14 14 (1756160)
I0105 11:54:25.126817 30841 layer_factory.hpp:74] Creating layer inception_4d/3x3_reduce
I0105 11:54:25.126830 30841 net.cpp:84] Creating Layer inception_4d/3x3_reduce
I0105 11:54:25.126839 30841 net.cpp:380] inception_4d/3x3_reduce <- inception_4c/output_inception_4c/output_0_split_1
I0105 11:54:25.126853 30841 net.cpp:338] inception_4d/3x3_reduce -> inception_4d/3x3_reduce
I0105 11:54:25.126868 30841 net.cpp:113] Setting up inception_4d/3x3_reduce
I0105 11:54:25.128392 30841 net.cpp:120] Top shape: 80 144 14 14 (2257920)
I0105 11:54:25.128415 30841 layer_factory.hpp:74] Creating layer inception_4d/relu_3x3_reduce
I0105 11:54:25.128427 30841 net.cpp:84] Creating Layer inception_4d/relu_3x3_reduce
I0105 11:54:25.128435 30841 net.cpp:380] inception_4d/relu_3x3_reduce <- inception_4d/3x3_reduce
I0105 11:54:25.128446 30841 net.cpp:327] inception_4d/relu_3x3_reduce -> inception_4d/3x3_reduce (in-place)
I0105 11:54:25.128460 30841 net.cpp:113] Setting up inception_4d/relu_3x3_reduce
I0105 11:54:25.128839 30841 net.cpp:120] Top shape: 80 144 14 14 (2257920)
I0105 11:54:25.128859 30841 layer_factory.hpp:74] Creating layer inception_4d/3x3
I0105 11:54:25.128875 30841 net.cpp:84] Creating Layer inception_4d/3x3
I0105 11:54:25.128883 30841 net.cpp:380] inception_4d/3x3 <- inception_4d/3x3_reduce
I0105 11:54:25.128901 30841 net.cpp:338] inception_4d/3x3 -> inception_4d/3x3
I0105 11:54:25.128916 30841 net.cpp:113] Setting up inception_4d/3x3
I0105 11:54:25.134779 30841 net.cpp:120] Top shape: 80 288 14 14 (4515840)
I0105 11:54:25.134809 30841 layer_factory.hpp:74] Creating layer inception_4d/relu_3x3
I0105 11:54:25.134829 30841 net.cpp:84] Creating Layer inception_4d/relu_3x3
I0105 11:54:25.134840 30841 net.cpp:380] inception_4d/relu_3x3 <- inception_4d/3x3
I0105 11:54:25.134851 30841 net.cpp:327] inception_4d/relu_3x3 -> inception_4d/3x3 (in-place)
I0105 11:54:25.134865 30841 net.cpp:113] Setting up inception_4d/relu_3x3
I0105 11:54:25.134979 30841 net.cpp:120] Top shape: 80 288 14 14 (4515840)
I0105 11:54:25.134996 30841 layer_factory.hpp:74] Creating layer inception_4d/5x5_reduce
I0105 11:54:25.135012 30841 net.cpp:84] Creating Layer inception_4d/5x5_reduce
I0105 11:54:25.135022 30841 net.cpp:380] inception_4d/5x5_reduce <- inception_4c/output_inception_4c/output_0_split_2
I0105 11:54:25.135035 30841 net.cpp:338] inception_4d/5x5_reduce -> inception_4d/5x5_reduce
I0105 11:54:25.135048 30841 net.cpp:113] Setting up inception_4d/5x5_reduce
I0105 11:54:25.135792 30841 net.cpp:120] Top shape: 80 32 14 14 (501760)
I0105 11:54:25.135814 30841 layer_factory.hpp:74] Creating layer inception_4d/relu_5x5_reduce
I0105 11:54:25.135828 30841 net.cpp:84] Creating Layer inception_4d/relu_5x5_reduce
I0105 11:54:25.135838 30841 net.cpp:380] inception_4d/relu_5x5_reduce <- inception_4d/5x5_reduce
I0105 11:54:25.135853 30841 net.cpp:327] inception_4d/relu_5x5_reduce -> inception_4d/5x5_reduce (in-place)
I0105 11:54:25.135864 30841 net.cpp:113] Setting up inception_4d/relu_5x5_reduce
I0105 11:54:25.135975 30841 net.cpp:120] Top shape: 80 32 14 14 (501760)
I0105 11:54:25.136000 30841 layer_factory.hpp:74] Creating layer inception_4d/5x5
I0105 11:54:25.136016 30841 net.cpp:84] Creating Layer inception_4d/5x5
I0105 11:54:25.136025 30841 net.cpp:380] inception_4d/5x5 <- inception_4d/5x5_reduce
I0105 11:54:25.136037 30841 net.cpp:338] inception_4d/5x5 -> inception_4d/5x5
I0105 11:54:25.136050 30841 net.cpp:113] Setting up inception_4d/5x5
I0105 11:54:25.137286 30841 net.cpp:120] Top shape: 80 64 14 14 (1003520)
I0105 11:54:25.137311 30841 layer_factory.hpp:74] Creating layer inception_4d/relu_5x5
I0105 11:54:25.137322 30841 net.cpp:84] Creating Layer inception_4d/relu_5x5
I0105 11:54:25.137331 30841 net.cpp:380] inception_4d/relu_5x5 <- inception_4d/5x5
I0105 11:54:25.137346 30841 net.cpp:327] inception_4d/relu_5x5 -> inception_4d/5x5 (in-place)
I0105 11:54:25.137359 30841 net.cpp:113] Setting up inception_4d/relu_5x5
I0105 11:54:25.137456 30841 net.cpp:120] Top shape: 80 64 14 14 (1003520)
I0105 11:54:25.137467 30841 layer_factory.hpp:74] Creating layer inception_4d/pool
I0105 11:54:25.137476 30841 layer_factory.cpp:56] CUDNN does not support padding or multiple tops. Using Caffe's own pooling layer.
I0105 11:54:25.137490 30841 net.cpp:84] Creating Layer inception_4d/pool
I0105 11:54:25.137500 30841 net.cpp:380] inception_4d/pool <- inception_4c/output_inception_4c/output_0_split_3
I0105 11:54:25.137511 30841 net.cpp:338] inception_4d/pool -> inception_4d/pool
I0105 11:54:25.137523 30841 net.cpp:113] Setting up inception_4d/pool
I0105 11:54:25.137542 30841 net.cpp:120] Top shape: 80 512 14 14 (8028160)
I0105 11:54:25.137552 30841 layer_factory.hpp:74] Creating layer inception_4d/pool_proj
I0105 11:54:25.137567 30841 net.cpp:84] Creating Layer inception_4d/pool_proj
I0105 11:54:25.137575 30841 net.cpp:380] inception_4d/pool_proj <- inception_4d/pool
I0105 11:54:25.137588 30841 net.cpp:338] inception_4d/pool_proj -> inception_4d/pool_proj
I0105 11:54:25.137600 30841 net.cpp:113] Setting up inception_4d/pool_proj
I0105 11:54:25.138550 30841 net.cpp:120] Top shape: 80 64 14 14 (1003520)
I0105 11:54:25.138572 30841 layer_factory.hpp:74] Creating layer inception_4d/relu_pool_proj
I0105 11:54:25.138586 30841 net.cpp:84] Creating Layer inception_4d/relu_pool_proj
I0105 11:54:25.138599 30841 net.cpp:380] inception_4d/relu_pool_proj <- inception_4d/pool_proj
I0105 11:54:25.138631 30841 net.cpp:327] inception_4d/relu_pool_proj -> inception_4d/pool_proj (in-place)
I0105 11:54:25.138684 30841 net.cpp:113] Setting up inception_4d/relu_pool_proj
I0105 11:54:25.138998 30841 net.cpp:120] Top shape: 80 64 14 14 (1003520)
I0105 11:54:25.139014 30841 layer_factory.hpp:74] Creating layer inception_4d/output
I0105 11:54:25.139025 30841 net.cpp:84] Creating Layer inception_4d/output
I0105 11:54:25.139034 30841 net.cpp:380] inception_4d/output <- inception_4d/1x1
I0105 11:54:25.139045 30841 net.cpp:380] inception_4d/output <- inception_4d/3x3
I0105 11:54:25.139055 30841 net.cpp:380] inception_4d/output <- inception_4d/5x5
I0105 11:54:25.139063 30841 net.cpp:380] inception_4d/output <- inception_4d/pool_proj
I0105 11:54:25.139076 30841 net.cpp:338] inception_4d/output -> inception_4d/output
I0105 11:54:25.139089 30841 net.cpp:113] Setting up inception_4d/output
I0105 11:54:25.139104 30841 net.cpp:120] Top shape: 80 528 14 14 (8279040)
I0105 11:54:25.139112 30841 layer_factory.hpp:74] Creating layer inception_4d/output_inception_4d/output_0_split
I0105 11:54:25.139124 30841 net.cpp:84] Creating Layer inception_4d/output_inception_4d/output_0_split
I0105 11:54:25.139132 30841 net.cpp:380] inception_4d/output_inception_4d/output_0_split <- inception_4d/output
I0105 11:54:25.139143 30841 net.cpp:338] inception_4d/output_inception_4d/output_0_split -> inception_4d/output_inception_4d/output_0_split_0
I0105 11:54:25.139159 30841 net.cpp:338] inception_4d/output_inception_4d/output_0_split -> inception_4d/output_inception_4d/output_0_split_1
I0105 11:54:25.139173 30841 net.cpp:338] inception_4d/output_inception_4d/output_0_split -> inception_4d/output_inception_4d/output_0_split_2
I0105 11:54:25.139194 30841 net.cpp:338] inception_4d/output_inception_4d/output_0_split -> inception_4d/output_inception_4d/output_0_split_3
I0105 11:54:25.139216 30841 net.cpp:338] inception_4d/output_inception_4d/output_0_split -> inception_4d/output_inception_4d/output_0_split_4
I0105 11:54:25.139228 30841 net.cpp:113] Setting up inception_4d/output_inception_4d/output_0_split
I0105 11:54:25.139242 30841 net.cpp:120] Top shape: 80 528 14 14 (8279040)
I0105 11:54:25.139252 30841 net.cpp:120] Top shape: 80 528 14 14 (8279040)
I0105 11:54:25.139261 30841 net.cpp:120] Top shape: 80 528 14 14 (8279040)
I0105 11:54:25.139271 30841 net.cpp:120] Top shape: 80 528 14 14 (8279040)
I0105 11:54:25.139281 30841 net.cpp:120] Top shape: 80 528 14 14 (8279040)
I0105 11:54:25.139288 30841 layer_factory.hpp:74] Creating layer loss2/ave_pool
I0105 11:54:25.139302 30841 net.cpp:84] Creating Layer loss2/ave_pool
I0105 11:54:25.139309 30841 net.cpp:380] loss2/ave_pool <- inception_4d/output_inception_4d/output_0_split_0
I0105 11:54:25.139324 30841 net.cpp:338] loss2/ave_pool -> loss2/ave_pool
I0105 11:54:25.139336 30841 net.cpp:113] Setting up loss2/ave_pool
I0105 11:54:25.139447 30841 net.cpp:120] Top shape: 80 528 4 4 (675840)
I0105 11:54:25.139459 30841 layer_factory.hpp:74] Creating layer loss2/conv
I0105 11:54:25.139474 30841 net.cpp:84] Creating Layer loss2/conv
I0105 11:54:25.139483 30841 net.cpp:380] loss2/conv <- loss2/ave_pool
I0105 11:54:25.139495 30841 net.cpp:338] loss2/conv -> loss2/conv
I0105 11:54:25.139508 30841 net.cpp:113] Setting up loss2/conv
I0105 11:54:25.141046 30841 net.cpp:120] Top shape: 80 128 4 4 (163840)
I0105 11:54:25.141072 30841 layer_factory.hpp:74] Creating layer loss2/relu_conv
I0105 11:54:25.141083 30841 net.cpp:84] Creating Layer loss2/relu_conv
I0105 11:54:25.141093 30841 net.cpp:380] loss2/relu_conv <- loss2/conv
I0105 11:54:25.141103 30841 net.cpp:327] loss2/relu_conv -> loss2/conv (in-place)
I0105 11:54:25.141118 30841 net.cpp:113] Setting up loss2/relu_conv
I0105 11:54:25.141222 30841 net.cpp:120] Top shape: 80 128 4 4 (163840)
I0105 11:54:25.141234 30841 layer_factory.hpp:74] Creating layer loss2/fc
I0105 11:54:25.141248 30841 net.cpp:84] Creating Layer loss2/fc
I0105 11:54:25.141258 30841 net.cpp:380] loss2/fc <- loss2/conv
I0105 11:54:25.141273 30841 net.cpp:338] loss2/fc -> loss2/fc
I0105 11:54:25.141288 30841 net.cpp:113] Setting up loss2/fc
I0105 11:54:25.316110 30841 net.cpp:120] Top shape: 80 1024 (81920)
I0105 11:54:25.316165 30841 layer_factory.hpp:74] Creating layer loss2/relu_fc
I0105 11:54:25.316189 30841 net.cpp:84] Creating Layer loss2/relu_fc
I0105 11:54:25.316200 30841 net.cpp:380] loss2/relu_fc <- loss2/fc
I0105 11:54:25.316215 30841 net.cpp:327] loss2/relu_fc -> loss2/fc (in-place)
I0105 11:54:25.316231 30841 net.cpp:113] Setting up loss2/relu_fc
I0105 11:54:25.316728 30841 net.cpp:120] Top shape: 80 1024 (81920)
I0105 11:54:25.316746 30841 layer_factory.hpp:74] Creating layer loss2/drop_fc
I0105 11:54:25.316761 30841 net.cpp:84] Creating Layer loss2/drop_fc
I0105 11:54:25.316769 30841 net.cpp:380] loss2/drop_fc <- loss2/fc
I0105 11:54:25.316781 30841 net.cpp:327] loss2/drop_fc -> loss2/fc (in-place)
I0105 11:54:25.316793 30841 net.cpp:113] Setting up loss2/drop_fc
I0105 11:54:25.316807 30841 net.cpp:120] Top shape: 80 1024 (81920)
I0105 11:54:25.316815 30841 layer_factory.hpp:74] Creating layer loss2/classifier_kaggle
I0105 11:54:25.316833 30841 net.cpp:84] Creating Layer loss2/classifier_kaggle
I0105 11:54:25.316843 30841 net.cpp:380] loss2/classifier_kaggle <- loss2/fc
I0105 11:54:25.316854 30841 net.cpp:338] loss2/classifier_kaggle -> loss2/classifier_kaggle
I0105 11:54:25.316869 30841 net.cpp:113] Setting up loss2/classifier_kaggle
I0105 11:54:25.322693 30841 net.cpp:120] Top shape: 80 447 (35760)
I0105 11:54:25.322721 30841 layer_factory.hpp:74] Creating layer loss2/loss
I0105 11:54:25.322737 30841 net.cpp:84] Creating Layer loss2/loss
I0105 11:54:25.322749 30841 net.cpp:380] loss2/loss <- loss2/classifier_kaggle
I0105 11:54:25.322762 30841 net.cpp:380] loss2/loss <- label_data_1_split_1
I0105 11:54:25.322803 30841 net.cpp:338] loss2/loss -> loss2/loss1
I0105 11:54:25.322818 30841 net.cpp:113] Setting up loss2/loss
I0105 11:54:25.322829 30841 layer_factory.hpp:74] Creating layer loss2/loss
I0105 11:54:25.323087 30841 net.cpp:120] Top shape: (1)
I0105 11:54:25.323101 30841 net.cpp:122]     with loss weight 0.3
I0105 11:54:25.323119 30841 layer_factory.hpp:74] Creating layer inception_4e/1x1
I0105 11:54:25.323137 30841 net.cpp:84] Creating Layer inception_4e/1x1
I0105 11:54:25.323146 30841 net.cpp:380] inception_4e/1x1 <- inception_4d/output_inception_4d/output_0_split_1
I0105 11:54:25.323161 30841 net.cpp:338] inception_4e/1x1 -> inception_4e/1x1
I0105 11:54:25.323175 30841 net.cpp:113] Setting up inception_4e/1x1
I0105 11:54:25.329206 30841 net.cpp:120] Top shape: 80 256 14 14 (4014080)
I0105 11:54:25.329234 30841 layer_factory.hpp:74] Creating layer inception_4e/relu_1x1
I0105 11:54:25.329249 30841 net.cpp:84] Creating Layer inception_4e/relu_1x1
I0105 11:54:25.329258 30841 net.cpp:380] inception_4e/relu_1x1 <- inception_4e/1x1
I0105 11:54:25.329272 30841 net.cpp:327] inception_4e/relu_1x1 -> inception_4e/1x1 (in-place)
I0105 11:54:25.329284 30841 net.cpp:113] Setting up inception_4e/relu_1x1
I0105 11:54:25.329382 30841 net.cpp:120] Top shape: 80 256 14 14 (4014080)
I0105 11:54:25.329397 30841 layer_factory.hpp:74] Creating layer inception_4e/3x3_reduce
I0105 11:54:25.329413 30841 net.cpp:84] Creating Layer inception_4e/3x3_reduce
I0105 11:54:25.329422 30841 net.cpp:380] inception_4e/3x3_reduce <- inception_4d/output_inception_4d/output_0_split_2
I0105 11:54:25.329435 30841 net.cpp:338] inception_4e/3x3_reduce -> inception_4e/3x3_reduce
I0105 11:54:25.329449 30841 net.cpp:113] Setting up inception_4e/3x3_reduce
I0105 11:54:25.331074 30841 net.cpp:120] Top shape: 80 160 14 14 (2508800)
I0105 11:54:25.331096 30841 layer_factory.hpp:74] Creating layer inception_4e/relu_3x3_reduce
I0105 11:54:25.331107 30841 net.cpp:84] Creating Layer inception_4e/relu_3x3_reduce
I0105 11:54:25.331117 30841 net.cpp:380] inception_4e/relu_3x3_reduce <- inception_4e/3x3_reduce
I0105 11:54:25.331130 30841 net.cpp:327] inception_4e/relu_3x3_reduce -> inception_4e/3x3_reduce (in-place)
I0105 11:54:25.331143 30841 net.cpp:113] Setting up inception_4e/relu_3x3_reduce
I0105 11:54:25.331245 30841 net.cpp:120] Top shape: 80 160 14 14 (2508800)
I0105 11:54:25.331256 30841 layer_factory.hpp:74] Creating layer inception_4e/3x3
I0105 11:54:25.331271 30841 net.cpp:84] Creating Layer inception_4e/3x3
I0105 11:54:25.331279 30841 net.cpp:380] inception_4e/3x3 <- inception_4e/3x3_reduce
I0105 11:54:25.331293 30841 net.cpp:338] inception_4e/3x3 -> inception_4e/3x3
I0105 11:54:25.331308 30841 net.cpp:113] Setting up inception_4e/3x3
I0105 11:54:25.337748 30841 net.cpp:120] Top shape: 80 320 14 14 (5017600)
I0105 11:54:25.337771 30841 layer_factory.hpp:74] Creating layer inception_4e/relu_3x3
I0105 11:54:25.337784 30841 net.cpp:84] Creating Layer inception_4e/relu_3x3
I0105 11:54:25.337792 30841 net.cpp:380] inception_4e/relu_3x3 <- inception_4e/3x3
I0105 11:54:25.337803 30841 net.cpp:327] inception_4e/relu_3x3 -> inception_4e/3x3 (in-place)
I0105 11:54:25.337815 30841 net.cpp:113] Setting up inception_4e/relu_3x3
I0105 11:54:25.338119 30841 net.cpp:120] Top shape: 80 320 14 14 (5017600)
I0105 11:54:25.338136 30841 layer_factory.hpp:74] Creating layer inception_4e/5x5_reduce
I0105 11:54:25.338152 30841 net.cpp:84] Creating Layer inception_4e/5x5_reduce
I0105 11:54:25.338162 30841 net.cpp:380] inception_4e/5x5_reduce <- inception_4d/output_inception_4d/output_0_split_3
I0105 11:54:25.338177 30841 net.cpp:338] inception_4e/5x5_reduce -> inception_4e/5x5_reduce
I0105 11:54:25.338191 30841 net.cpp:113] Setting up inception_4e/5x5_reduce
I0105 11:54:25.338948 30841 net.cpp:120] Top shape: 80 32 14 14 (501760)
I0105 11:54:25.338973 30841 layer_factory.hpp:74] Creating layer inception_4e/relu_5x5_reduce
I0105 11:54:25.338985 30841 net.cpp:84] Creating Layer inception_4e/relu_5x5_reduce
I0105 11:54:25.339010 30841 net.cpp:380] inception_4e/relu_5x5_reduce <- inception_4e/5x5_reduce
I0105 11:54:25.339033 30841 net.cpp:327] inception_4e/relu_5x5_reduce -> inception_4e/5x5_reduce (in-place)
I0105 11:54:25.339046 30841 net.cpp:113] Setting up inception_4e/relu_5x5_reduce
I0105 11:54:25.339146 30841 net.cpp:120] Top shape: 80 32 14 14 (501760)
I0105 11:54:25.339159 30841 layer_factory.hpp:74] Creating layer inception_4e/5x5
I0105 11:54:25.339202 30841 net.cpp:84] Creating Layer inception_4e/5x5
I0105 11:54:25.339212 30841 net.cpp:380] inception_4e/5x5 <- inception_4e/5x5_reduce
I0105 11:54:25.339226 30841 net.cpp:338] inception_4e/5x5 -> inception_4e/5x5
I0105 11:54:25.339238 30841 net.cpp:113] Setting up inception_4e/5x5
I0105 11:54:25.341080 30841 net.cpp:120] Top shape: 80 128 14 14 (2007040)
I0105 11:54:25.341104 30841 layer_factory.hpp:74] Creating layer inception_4e/relu_5x5
I0105 11:54:25.341114 30841 net.cpp:84] Creating Layer inception_4e/relu_5x5
I0105 11:54:25.341123 30841 net.cpp:380] inception_4e/relu_5x5 <- inception_4e/5x5
I0105 11:54:25.341136 30841 net.cpp:327] inception_4e/relu_5x5 -> inception_4e/5x5 (in-place)
I0105 11:54:25.341150 30841 net.cpp:113] Setting up inception_4e/relu_5x5
I0105 11:54:25.341249 30841 net.cpp:120] Top shape: 80 128 14 14 (2007040)
I0105 11:54:25.341261 30841 layer_factory.hpp:74] Creating layer inception_4e/pool
I0105 11:54:25.341271 30841 layer_factory.cpp:56] CUDNN does not support padding or multiple tops. Using Caffe's own pooling layer.
I0105 11:54:25.341284 30841 net.cpp:84] Creating Layer inception_4e/pool
I0105 11:54:25.341295 30841 net.cpp:380] inception_4e/pool <- inception_4d/output_inception_4d/output_0_split_4
I0105 11:54:25.341305 30841 net.cpp:338] inception_4e/pool -> inception_4e/pool
I0105 11:54:25.341318 30841 net.cpp:113] Setting up inception_4e/pool
I0105 11:54:25.341336 30841 net.cpp:120] Top shape: 80 528 14 14 (8279040)
I0105 11:54:25.341346 30841 layer_factory.hpp:74] Creating layer inception_4e/pool_proj
I0105 11:54:25.341358 30841 net.cpp:84] Creating Layer inception_4e/pool_proj
I0105 11:54:25.341367 30841 net.cpp:380] inception_4e/pool_proj <- inception_4e/pool
I0105 11:54:25.341382 30841 net.cpp:338] inception_4e/pool_proj -> inception_4e/pool_proj
I0105 11:54:25.341394 30841 net.cpp:113] Setting up inception_4e/pool_proj
I0105 11:54:25.342787 30841 net.cpp:120] Top shape: 80 128 14 14 (2007040)
I0105 11:54:25.342809 30841 layer_factory.hpp:74] Creating layer inception_4e/relu_pool_proj
I0105 11:54:25.342823 30841 net.cpp:84] Creating Layer inception_4e/relu_pool_proj
I0105 11:54:25.342831 30841 net.cpp:380] inception_4e/relu_pool_proj <- inception_4e/pool_proj
I0105 11:54:25.342842 30841 net.cpp:327] inception_4e/relu_pool_proj -> inception_4e/pool_proj (in-place)
I0105 11:54:25.342854 30841 net.cpp:113] Setting up inception_4e/relu_pool_proj
I0105 11:54:25.342955 30841 net.cpp:120] Top shape: 80 128 14 14 (2007040)
I0105 11:54:25.342967 30841 layer_factory.hpp:74] Creating layer inception_4e/output
I0105 11:54:25.342979 30841 net.cpp:84] Creating Layer inception_4e/output
I0105 11:54:25.342989 30841 net.cpp:380] inception_4e/output <- inception_4e/1x1
I0105 11:54:25.342998 30841 net.cpp:380] inception_4e/output <- inception_4e/3x3
I0105 11:54:25.343008 30841 net.cpp:380] inception_4e/output <- inception_4e/5x5
I0105 11:54:25.343017 30841 net.cpp:380] inception_4e/output <- inception_4e/pool_proj
I0105 11:54:25.343027 30841 net.cpp:338] inception_4e/output -> inception_4e/output
I0105 11:54:25.343040 30841 net.cpp:113] Setting up inception_4e/output
I0105 11:54:25.343055 30841 net.cpp:120] Top shape: 80 832 14 14 (13045760)
I0105 11:54:25.343063 30841 layer_factory.hpp:74] Creating layer pool4/3x3_s2
I0105 11:54:25.343076 30841 net.cpp:84] Creating Layer pool4/3x3_s2
I0105 11:54:25.343085 30841 net.cpp:380] pool4/3x3_s2 <- inception_4e/output
I0105 11:54:25.343098 30841 net.cpp:338] pool4/3x3_s2 -> pool4/3x3_s2
I0105 11:54:25.343111 30841 net.cpp:113] Setting up pool4/3x3_s2
I0105 11:54:25.343420 30841 net.cpp:120] Top shape: 80 832 7 7 (3261440)
I0105 11:54:25.343444 30841 layer_factory.hpp:74] Creating layer pool4/3x3_s2_pool4/3x3_s2_0_split
I0105 11:54:25.343466 30841 net.cpp:84] Creating Layer pool4/3x3_s2_pool4/3x3_s2_0_split
I0105 11:54:25.343474 30841 net.cpp:380] pool4/3x3_s2_pool4/3x3_s2_0_split <- pool4/3x3_s2
I0105 11:54:25.343487 30841 net.cpp:338] pool4/3x3_s2_pool4/3x3_s2_0_split -> pool4/3x3_s2_pool4/3x3_s2_0_split_0
I0105 11:54:25.343502 30841 net.cpp:338] pool4/3x3_s2_pool4/3x3_s2_0_split -> pool4/3x3_s2_pool4/3x3_s2_0_split_1
I0105 11:54:25.343515 30841 net.cpp:338] pool4/3x3_s2_pool4/3x3_s2_0_split -> pool4/3x3_s2_pool4/3x3_s2_0_split_2
I0105 11:54:25.343528 30841 net.cpp:338] pool4/3x3_s2_pool4/3x3_s2_0_split -> pool4/3x3_s2_pool4/3x3_s2_0_split_3
I0105 11:54:25.343538 30841 net.cpp:113] Setting up pool4/3x3_s2_pool4/3x3_s2_0_split
I0105 11:54:25.343551 30841 net.cpp:120] Top shape: 80 832 7 7 (3261440)
I0105 11:54:25.343561 30841 net.cpp:120] Top shape: 80 832 7 7 (3261440)
I0105 11:54:25.343570 30841 net.cpp:120] Top shape: 80 832 7 7 (3261440)
I0105 11:54:25.343580 30841 net.cpp:120] Top shape: 80 832 7 7 (3261440)
I0105 11:54:25.343587 30841 layer_factory.hpp:74] Creating layer inception_5a/1x1
I0105 11:54:25.343602 30841 net.cpp:84] Creating Layer inception_5a/1x1
I0105 11:54:25.343611 30841 net.cpp:380] inception_5a/1x1 <- pool4/3x3_s2_pool4/3x3_s2_0_split_0
I0105 11:54:25.343623 30841 net.cpp:338] inception_5a/1x1 -> inception_5a/1x1
I0105 11:54:25.343636 30841 net.cpp:113] Setting up inception_5a/1x1
I0105 11:54:25.352243 30841 net.cpp:120] Top shape: 80 256 7 7 (1003520)
I0105 11:54:25.352277 30841 layer_factory.hpp:74] Creating layer inception_5a/relu_1x1
I0105 11:54:25.352290 30841 net.cpp:84] Creating Layer inception_5a/relu_1x1
I0105 11:54:25.352299 30841 net.cpp:380] inception_5a/relu_1x1 <- inception_5a/1x1
I0105 11:54:25.352314 30841 net.cpp:327] inception_5a/relu_1x1 -> inception_5a/1x1 (in-place)
I0105 11:54:25.352329 30841 net.cpp:113] Setting up inception_5a/relu_1x1
I0105 11:54:25.352427 30841 net.cpp:120] Top shape: 80 256 7 7 (1003520)
I0105 11:54:25.352437 30841 layer_factory.hpp:74] Creating layer inception_5a/3x3_reduce
I0105 11:54:25.352454 30841 net.cpp:84] Creating Layer inception_5a/3x3_reduce
I0105 11:54:25.352463 30841 net.cpp:380] inception_5a/3x3_reduce <- pool4/3x3_s2_pool4/3x3_s2_0_split_1
I0105 11:54:25.352476 30841 net.cpp:338] inception_5a/3x3_reduce -> inception_5a/3x3_reduce
I0105 11:54:25.352490 30841 net.cpp:113] Setting up inception_5a/3x3_reduce
I0105 11:54:25.354787 30841 net.cpp:120] Top shape: 80 160 7 7 (627200)
I0105 11:54:25.354811 30841 layer_factory.hpp:74] Creating layer inception_5a/relu_3x3_reduce
I0105 11:54:25.354823 30841 net.cpp:84] Creating Layer inception_5a/relu_3x3_reduce
I0105 11:54:25.354832 30841 net.cpp:380] inception_5a/relu_3x3_reduce <- inception_5a/3x3_reduce
I0105 11:54:25.354847 30841 net.cpp:327] inception_5a/relu_3x3_reduce -> inception_5a/3x3_reduce (in-place)
I0105 11:54:25.354861 30841 net.cpp:113] Setting up inception_5a/relu_3x3_reduce
I0105 11:54:25.354967 30841 net.cpp:120] Top shape: 80 160 7 7 (627200)
I0105 11:54:25.354979 30841 layer_factory.hpp:74] Creating layer inception_5a/3x3
I0105 11:54:25.354992 30841 net.cpp:84] Creating Layer inception_5a/3x3
I0105 11:54:25.355000 30841 net.cpp:380] inception_5a/3x3 <- inception_5a/3x3_reduce
I0105 11:54:25.355015 30841 net.cpp:338] inception_5a/3x3 -> inception_5a/3x3
I0105 11:54:25.355029 30841 net.cpp:113] Setting up inception_5a/3x3
I0105 11:54:25.367756 30841 net.cpp:120] Top shape: 80 320 7 7 (1254400)
I0105 11:54:25.367784 30841 layer_factory.hpp:74] Creating layer inception_5a/relu_3x3
I0105 11:54:25.367801 30841 net.cpp:84] Creating Layer inception_5a/relu_3x3
I0105 11:54:25.367811 30841 net.cpp:380] inception_5a/relu_3x3 <- inception_5a/3x3
I0105 11:54:25.367825 30841 net.cpp:327] inception_5a/relu_3x3 -> inception_5a/3x3 (in-place)
I0105 11:54:25.367840 30841 net.cpp:113] Setting up inception_5a/relu_3x3
I0105 11:54:25.367941 30841 net.cpp:120] Top shape: 80 320 7 7 (1254400)
I0105 11:54:25.367952 30841 layer_factory.hpp:74] Creating layer inception_5a/5x5_reduce
I0105 11:54:25.367991 30841 net.cpp:84] Creating Layer inception_5a/5x5_reduce
I0105 11:54:25.368002 30841 net.cpp:380] inception_5a/5x5_reduce <- pool4/3x3_s2_pool4/3x3_s2_0_split_2
I0105 11:54:25.368017 30841 net.cpp:338] inception_5a/5x5_reduce -> inception_5a/5x5_reduce
I0105 11:54:25.368032 30841 net.cpp:113] Setting up inception_5a/5x5_reduce
I0105 11:54:25.368921 30841 net.cpp:120] Top shape: 80 32 7 7 (125440)
I0105 11:54:25.368943 30841 layer_factory.hpp:74] Creating layer inception_5a/relu_5x5_reduce
I0105 11:54:25.368958 30841 net.cpp:84] Creating Layer inception_5a/relu_5x5_reduce
I0105 11:54:25.368968 30841 net.cpp:380] inception_5a/relu_5x5_reduce <- inception_5a/5x5_reduce
I0105 11:54:25.368979 30841 net.cpp:327] inception_5a/relu_5x5_reduce -> inception_5a/5x5_reduce (in-place)
I0105 11:54:25.368991 30841 net.cpp:113] Setting up inception_5a/relu_5x5_reduce
I0105 11:54:25.369303 30841 net.cpp:120] Top shape: 80 32 7 7 (125440)
I0105 11:54:25.369320 30841 layer_factory.hpp:74] Creating layer inception_5a/5x5
I0105 11:54:25.369333 30841 net.cpp:84] Creating Layer inception_5a/5x5
I0105 11:54:25.369343 30841 net.cpp:380] inception_5a/5x5 <- inception_5a/5x5_reduce
I0105 11:54:25.369357 30841 net.cpp:338] inception_5a/5x5 -> inception_5a/5x5
I0105 11:54:25.369372 30841 net.cpp:113] Setting up inception_5a/5x5
I0105 11:54:25.371251 30841 net.cpp:120] Top shape: 80 128 7 7 (501760)
I0105 11:54:25.371273 30841 layer_factory.hpp:74] Creating layer inception_5a/relu_5x5
I0105 11:54:25.371285 30841 net.cpp:84] Creating Layer inception_5a/relu_5x5
I0105 11:54:25.371294 30841 net.cpp:380] inception_5a/relu_5x5 <- inception_5a/5x5
I0105 11:54:25.371305 30841 net.cpp:327] inception_5a/relu_5x5 -> inception_5a/5x5 (in-place)
I0105 11:54:25.371317 30841 net.cpp:113] Setting up inception_5a/relu_5x5
I0105 11:54:25.371415 30841 net.cpp:120] Top shape: 80 128 7 7 (501760)
I0105 11:54:25.371426 30841 layer_factory.hpp:74] Creating layer inception_5a/pool
I0105 11:54:25.371436 30841 layer_factory.cpp:56] CUDNN does not support padding or multiple tops. Using Caffe's own pooling layer.
I0105 11:54:25.371449 30841 net.cpp:84] Creating Layer inception_5a/pool
I0105 11:54:25.371459 30841 net.cpp:380] inception_5a/pool <- pool4/3x3_s2_pool4/3x3_s2_0_split_3
I0105 11:54:25.371469 30841 net.cpp:338] inception_5a/pool -> inception_5a/pool
I0105 11:54:25.371482 30841 net.cpp:113] Setting up inception_5a/pool
I0105 11:54:25.371497 30841 net.cpp:120] Top shape: 80 832 7 7 (3261440)
I0105 11:54:25.371506 30841 layer_factory.hpp:74] Creating layer inception_5a/pool_proj
I0105 11:54:25.371525 30841 net.cpp:84] Creating Layer inception_5a/pool_proj
I0105 11:54:25.371534 30841 net.cpp:380] inception_5a/pool_proj <- inception_5a/pool
I0105 11:54:25.371546 30841 net.cpp:338] inception_5a/pool_proj -> inception_5a/pool_proj
I0105 11:54:25.371559 30841 net.cpp:113] Setting up inception_5a/pool_proj
I0105 11:54:25.373445 30841 net.cpp:120] Top shape: 80 128 7 7 (501760)
I0105 11:54:25.373467 30841 layer_factory.hpp:74] Creating layer inception_5a/relu_pool_proj
I0105 11:54:25.373481 30841 net.cpp:84] Creating Layer inception_5a/relu_pool_proj
I0105 11:54:25.373491 30841 net.cpp:380] inception_5a/relu_pool_proj <- inception_5a/pool_proj
I0105 11:54:25.373502 30841 net.cpp:327] inception_5a/relu_pool_proj -> inception_5a/pool_proj (in-place)
I0105 11:54:25.373514 30841 net.cpp:113] Setting up inception_5a/relu_pool_proj
I0105 11:54:25.373612 30841 net.cpp:120] Top shape: 80 128 7 7 (501760)
I0105 11:54:25.373623 30841 layer_factory.hpp:74] Creating layer inception_5a/output
I0105 11:54:25.373636 30841 net.cpp:84] Creating Layer inception_5a/output
I0105 11:54:25.373643 30841 net.cpp:380] inception_5a/output <- inception_5a/1x1
I0105 11:54:25.373654 30841 net.cpp:380] inception_5a/output <- inception_5a/3x3
I0105 11:54:25.373663 30841 net.cpp:380] inception_5a/output <- inception_5a/5x5
I0105 11:54:25.373672 30841 net.cpp:380] inception_5a/output <- inception_5a/pool_proj
I0105 11:54:25.373692 30841 net.cpp:338] inception_5a/output -> inception_5a/output
I0105 11:54:25.373713 30841 net.cpp:113] Setting up inception_5a/output
I0105 11:54:25.373728 30841 net.cpp:120] Top shape: 80 832 7 7 (3261440)
I0105 11:54:25.373738 30841 layer_factory.hpp:74] Creating layer inception_5a/output_inception_5a/output_0_split
I0105 11:54:25.373751 30841 net.cpp:84] Creating Layer inception_5a/output_inception_5a/output_0_split
I0105 11:54:25.373759 30841 net.cpp:380] inception_5a/output_inception_5a/output_0_split <- inception_5a/output
I0105 11:54:25.373770 30841 net.cpp:338] inception_5a/output_inception_5a/output_0_split -> inception_5a/output_inception_5a/output_0_split_0
I0105 11:54:25.373783 30841 net.cpp:338] inception_5a/output_inception_5a/output_0_split -> inception_5a/output_inception_5a/output_0_split_1
I0105 11:54:25.373796 30841 net.cpp:338] inception_5a/output_inception_5a/output_0_split -> inception_5a/output_inception_5a/output_0_split_2
I0105 11:54:25.373811 30841 net.cpp:338] inception_5a/output_inception_5a/output_0_split -> inception_5a/output_inception_5a/output_0_split_3
I0105 11:54:25.373822 30841 net.cpp:113] Setting up inception_5a/output_inception_5a/output_0_split
I0105 11:54:25.373836 30841 net.cpp:120] Top shape: 80 832 7 7 (3261440)
I0105 11:54:25.373845 30841 net.cpp:120] Top shape: 80 832 7 7 (3261440)
I0105 11:54:25.373854 30841 net.cpp:120] Top shape: 80 832 7 7 (3261440)
I0105 11:54:25.373864 30841 net.cpp:120] Top shape: 80 832 7 7 (3261440)
I0105 11:54:25.373872 30841 layer_factory.hpp:74] Creating layer inception_5b/1x1
I0105 11:54:25.373884 30841 net.cpp:84] Creating Layer inception_5b/1x1
I0105 11:54:25.373893 30841 net.cpp:380] inception_5b/1x1 <- inception_5a/output_inception_5a/output_0_split_0
I0105 11:54:25.373905 30841 net.cpp:338] inception_5b/1x1 -> inception_5b/1x1
I0105 11:54:25.373919 30841 net.cpp:113] Setting up inception_5b/1x1
I0105 11:54:25.378463 30841 net.cpp:120] Top shape: 80 384 7 7 (1505280)
I0105 11:54:25.378487 30841 layer_factory.hpp:74] Creating layer inception_5b/relu_1x1
I0105 11:54:25.378501 30841 net.cpp:84] Creating Layer inception_5b/relu_1x1
I0105 11:54:25.378510 30841 net.cpp:380] inception_5b/relu_1x1 <- inception_5b/1x1
I0105 11:54:25.378523 30841 net.cpp:327] inception_5b/relu_1x1 -> inception_5b/1x1 (in-place)
I0105 11:54:25.378535 30841 net.cpp:113] Setting up inception_5b/relu_1x1
I0105 11:54:25.378844 30841 net.cpp:120] Top shape: 80 384 7 7 (1505280)
I0105 11:54:25.378860 30841 layer_factory.hpp:74] Creating layer inception_5b/3x3_reduce
I0105 11:54:25.378875 30841 net.cpp:84] Creating Layer inception_5b/3x3_reduce
I0105 11:54:25.378885 30841 net.cpp:380] inception_5b/3x3_reduce <- inception_5a/output_inception_5a/output_0_split_1
I0105 11:54:25.378900 30841 net.cpp:338] inception_5b/3x3_reduce -> inception_5b/3x3_reduce
I0105 11:54:25.378914 30841 net.cpp:113] Setting up inception_5b/3x3_reduce
I0105 11:54:25.381762 30841 net.cpp:120] Top shape: 80 192 7 7 (752640)
I0105 11:54:25.381784 30841 layer_factory.hpp:74] Creating layer inception_5b/relu_3x3_reduce
I0105 11:54:25.381798 30841 net.cpp:84] Creating Layer inception_5b/relu_3x3_reduce
I0105 11:54:25.381806 30841 net.cpp:380] inception_5b/relu_3x3_reduce <- inception_5b/3x3_reduce
I0105 11:54:25.381819 30841 net.cpp:327] inception_5b/relu_3x3_reduce -> inception_5b/3x3_reduce (in-place)
I0105 11:54:25.381830 30841 net.cpp:113] Setting up inception_5b/relu_3x3_reduce
I0105 11:54:25.381933 30841 net.cpp:120] Top shape: 80 192 7 7 (752640)
I0105 11:54:25.381945 30841 layer_factory.hpp:74] Creating layer inception_5b/3x3
I0105 11:54:25.381959 30841 net.cpp:84] Creating Layer inception_5b/3x3
I0105 11:54:25.381968 30841 net.cpp:380] inception_5b/3x3 <- inception_5b/3x3_reduce
I0105 11:54:25.381980 30841 net.cpp:338] inception_5b/3x3 -> inception_5b/3x3
I0105 11:54:25.382020 30841 net.cpp:113] Setting up inception_5b/3x3
I0105 11:54:25.390871 30841 net.cpp:120] Top shape: 80 384 7 7 (1505280)
I0105 11:54:25.390897 30841 layer_factory.hpp:74] Creating layer inception_5b/relu_3x3
I0105 11:54:25.390920 30841 net.cpp:84] Creating Layer inception_5b/relu_3x3
I0105 11:54:25.390943 30841 net.cpp:380] inception_5b/relu_3x3 <- inception_5b/3x3
I0105 11:54:25.390956 30841 net.cpp:327] inception_5b/relu_3x3 -> inception_5b/3x3 (in-place)
I0105 11:54:25.390969 30841 net.cpp:113] Setting up inception_5b/relu_3x3
I0105 11:54:25.391067 30841 net.cpp:120] Top shape: 80 384 7 7 (1505280)
I0105 11:54:25.391078 30841 layer_factory.hpp:74] Creating layer inception_5b/5x5_reduce
I0105 11:54:25.391093 30841 net.cpp:84] Creating Layer inception_5b/5x5_reduce
I0105 11:54:25.391103 30841 net.cpp:380] inception_5b/5x5_reduce <- inception_5a/output_inception_5a/output_0_split_2
I0105 11:54:25.391114 30841 net.cpp:338] inception_5b/5x5_reduce -> inception_5b/5x5_reduce
I0105 11:54:25.391129 30841 net.cpp:113] Setting up inception_5b/5x5_reduce
I0105 11:54:25.392163 30841 net.cpp:120] Top shape: 80 48 7 7 (188160)
I0105 11:54:25.392184 30841 layer_factory.hpp:74] Creating layer inception_5b/relu_5x5_reduce
I0105 11:54:25.392195 30841 net.cpp:84] Creating Layer inception_5b/relu_5x5_reduce
I0105 11:54:25.392204 30841 net.cpp:380] inception_5b/relu_5x5_reduce <- inception_5b/5x5_reduce
I0105 11:54:25.392216 30841 net.cpp:327] inception_5b/relu_5x5_reduce -> inception_5b/5x5_reduce (in-place)
I0105 11:54:25.392228 30841 net.cpp:113] Setting up inception_5b/relu_5x5_reduce
I0105 11:54:25.392324 30841 net.cpp:120] Top shape: 80 48 7 7 (188160)
I0105 11:54:25.392335 30841 layer_factory.hpp:74] Creating layer inception_5b/5x5
I0105 11:54:25.392352 30841 net.cpp:84] Creating Layer inception_5b/5x5
I0105 11:54:25.392361 30841 net.cpp:380] inception_5b/5x5 <- inception_5b/5x5_reduce
I0105 11:54:25.392374 30841 net.cpp:338] inception_5b/5x5 -> inception_5b/5x5
I0105 11:54:25.392386 30841 net.cpp:113] Setting up inception_5b/5x5
I0105 11:54:25.394665 30841 net.cpp:120] Top shape: 80 128 7 7 (501760)
I0105 11:54:25.394683 30841 layer_factory.hpp:74] Creating layer inception_5b/relu_5x5
I0105 11:54:25.394691 30841 net.cpp:84] Creating Layer inception_5b/relu_5x5
I0105 11:54:25.394697 30841 net.cpp:380] inception_5b/relu_5x5 <- inception_5b/5x5
I0105 11:54:25.394703 30841 net.cpp:327] inception_5b/relu_5x5 -> inception_5b/5x5 (in-place)
I0105 11:54:25.394711 30841 net.cpp:113] Setting up inception_5b/relu_5x5
I0105 11:54:25.394956 30841 net.cpp:120] Top shape: 80 128 7 7 (501760)
I0105 11:54:25.394968 30841 layer_factory.hpp:74] Creating layer inception_5b/pool
I0105 11:54:25.394974 30841 layer_factory.cpp:56] CUDNN does not support padding or multiple tops. Using Caffe's own pooling layer.
I0105 11:54:25.394981 30841 net.cpp:84] Creating Layer inception_5b/pool
I0105 11:54:25.394986 30841 net.cpp:380] inception_5b/pool <- inception_5a/output_inception_5a/output_0_split_3
I0105 11:54:25.394994 30841 net.cpp:338] inception_5b/pool -> inception_5b/pool
I0105 11:54:25.395002 30841 net.cpp:113] Setting up inception_5b/pool
I0105 11:54:25.395012 30841 net.cpp:120] Top shape: 80 832 7 7 (3261440)
I0105 11:54:25.395016 30841 layer_factory.hpp:74] Creating layer inception_5b/pool_proj
I0105 11:54:25.395027 30841 net.cpp:84] Creating Layer inception_5b/pool_proj
I0105 11:54:25.395032 30841 net.cpp:380] inception_5b/pool_proj <- inception_5b/pool
I0105 11:54:25.395041 30841 net.cpp:338] inception_5b/pool_proj -> inception_5b/pool_proj
I0105 11:54:25.395051 30841 net.cpp:113] Setting up inception_5b/pool_proj
I0105 11:54:25.396611 30841 net.cpp:120] Top shape: 80 128 7 7 (501760)
I0105 11:54:25.396630 30841 layer_factory.hpp:74] Creating layer inception_5b/relu_pool_proj
I0105 11:54:25.396641 30841 net.cpp:84] Creating Layer inception_5b/relu_pool_proj
I0105 11:54:25.396648 30841 net.cpp:380] inception_5b/relu_pool_proj <- inception_5b/pool_proj
I0105 11:54:25.396654 30841 net.cpp:327] inception_5b/relu_pool_proj -> inception_5b/pool_proj (in-place)
I0105 11:54:25.396662 30841 net.cpp:113] Setting up inception_5b/relu_pool_proj
I0105 11:54:25.396729 30841 net.cpp:120] Top shape: 80 128 7 7 (501760)
I0105 11:54:25.396736 30841 layer_factory.hpp:74] Creating layer inception_5b/output
I0105 11:54:25.396754 30841 net.cpp:84] Creating Layer inception_5b/output
I0105 11:54:25.396767 30841 net.cpp:380] inception_5b/output <- inception_5b/1x1
I0105 11:54:25.396775 30841 net.cpp:380] inception_5b/output <- inception_5b/3x3
I0105 11:54:25.396780 30841 net.cpp:380] inception_5b/output <- inception_5b/5x5
I0105 11:54:25.396785 30841 net.cpp:380] inception_5b/output <- inception_5b/pool_proj
I0105 11:54:25.396790 30841 net.cpp:338] inception_5b/output -> inception_5b/output
I0105 11:54:25.396798 30841 net.cpp:113] Setting up inception_5b/output
I0105 11:54:25.396806 30841 net.cpp:120] Top shape: 80 1024 7 7 (4014080)
I0105 11:54:25.396811 30841 layer_factory.hpp:74] Creating layer pool5/7x7_s1
I0105 11:54:25.396819 30841 net.cpp:84] Creating Layer pool5/7x7_s1
I0105 11:54:25.396824 30841 net.cpp:380] pool5/7x7_s1 <- inception_5b/output
I0105 11:54:25.396831 30841 net.cpp:338] pool5/7x7_s1 -> pool5/7x7_s1
I0105 11:54:25.396838 30841 net.cpp:113] Setting up pool5/7x7_s1
I0105 11:54:25.396906 30841 net.cpp:120] Top shape: 80 1024 1 1 (81920)
I0105 11:54:25.396914 30841 layer_factory.hpp:74] Creating layer pool5/drop_7x7_s1
I0105 11:54:25.396924 30841 net.cpp:84] Creating Layer pool5/drop_7x7_s1
I0105 11:54:25.396929 30841 net.cpp:380] pool5/drop_7x7_s1 <- pool5/7x7_s1
I0105 11:54:25.396934 30841 net.cpp:327] pool5/drop_7x7_s1 -> pool5/7x7_s1 (in-place)
I0105 11:54:25.396941 30841 net.cpp:113] Setting up pool5/drop_7x7_s1
I0105 11:54:25.396950 30841 net.cpp:120] Top shape: 80 1024 1 1 (81920)
I0105 11:54:25.396953 30841 layer_factory.hpp:74] Creating layer loss3/classifier_kaggle
I0105 11:54:25.396962 30841 net.cpp:84] Creating Layer loss3/classifier_kaggle
I0105 11:54:25.396967 30841 net.cpp:380] loss3/classifier_kaggle <- pool5/7x7_s1
I0105 11:54:25.396973 30841 net.cpp:338] loss3/classifier_kaggle -> loss3/classifier_kaggle
I0105 11:54:25.396981 30841 net.cpp:113] Setting up loss3/classifier_kaggle
I0105 11:54:25.401916 30841 net.cpp:120] Top shape: 80 447 (35760)
I0105 11:54:25.401931 30841 layer_factory.hpp:74] Creating layer loss3/loss3
I0105 11:54:25.401939 30841 net.cpp:84] Creating Layer loss3/loss3
I0105 11:54:25.401944 30841 net.cpp:380] loss3/loss3 <- loss3/classifier_kaggle
I0105 11:54:25.401952 30841 net.cpp:380] loss3/loss3 <- label_data_1_split_2
I0105 11:54:25.401959 30841 net.cpp:338] loss3/loss3 -> loss3/loss3
I0105 11:54:25.401968 30841 net.cpp:113] Setting up loss3/loss3
…
I0105 11:54:25.407027 30841 net.cpp:257] The NetState phase (1) differed from the phase (0) specified by a rule in layer data
I0105 11:54:25.408365 30841 net.cpp:42] Initializing net from parameters: 
name: "MYNET"
state {
  phase: TEST
}
layer {
  name: "data"
  type: "ImageData"
  top: "data"
  top: "label"
  include {
    phase: TEST
  }
  transform_param {
    mirror: false
    crop_size: 224
    mean_value: 129
    mean_value: 129
    mean_value: 129
  }
  image_data_param {
    source: "/home/coldmanck/kaggle/label_val_full_resize_rotated.txt"
    batch_size: 50
    shuffle: true
  }
}
layer {
  name: "conv1/7x7_s2"
  type: "Convolution"
  bottom: "data"
  top: "conv1/7x7_s2"
  param {
    lr_mult: 1
    decay_mult: 1
  }
  param {
    lr_mult: 2
    decay_mult: 0
  }
  convolution_param {
    num_output: 64
    pad: 3
    kernel_size: 7
    stride: 2
    weight_filler {
      type: "xavier"
    }
    bias_filler {
      type: "constant"
      value: 0.2
    }
  }
}
layer {
  name: "conv1/relu_7x7"
  type: "ReLU"
  bottom: "conv1/7x7_s2"
  top: "conv1/7x7_s2"
}
layer {
  name: "pool1/3x3_s2"
  type: "Pooling"
  bottom: "conv1/7x7_s2"
  top: "pool1/3x3_s2"
  pooling_param {
    pool: MAX
    kernel_size: 3
    stride: 2
  }
}
layer {
  name: "pool1/norm1"
  type: "LRN"
  bottom: "pool1/3x3_s2"
  top: "pool1/norm1"
  lrn_param {
    local_size: 5
    alpha: 0.0001
    beta: 0.75
  }
}
layer {
  name: "conv2/3x3_reduce"
  type: "Convolution"
  bottom: "pool1/norm1"
  top: "conv2/3x3_reduce"
  param {
    lr_mult: 1
    decay_mult: 1
  }
  param {
    lr_mult: 2
    decay_mult: 0
  }
  convolution_param {
    num_output: 64
    kernel_size: 1
    weight_filler {
      type: "xavier"
    }
    bias_filler {
      type: "constant"
      value: 0.2
    }
  }
}
layer {
  name: "conv2/relu_3x3_reduce"
  type: "ReLU"
  bottom: "conv2/3x3_reduce"
  top: "conv2/3x3_reduce"
}
layer {
  name: "conv2/3x3"
  type: "Convolution"
  bottom: "conv2/3x3_reduce"
  top: "conv2/3x3"
  param {
    lr_mult: 1
    decay_mult: 1
  }
  param {
    lr_mult: 2
    decay_mult: 0
  }
  convolution_param {
    num_output: 192
    pad: 1
    kernel_size: 3
    weight_filler {
      type: "xavier"
    }
    bias_filler {
      type: "constant"
      value: 0.2
    }
  }
}
layer {
  name: "conv2/relu_3x3"
  type: "ReLU"
  bottom: "conv2/3x3"
  top: "conv2/3x3"
}
layer {
  name: "conv2/norm2"
  type: "LRN"
  bottom: "conv2/3x3"
  top: "conv2/norm2"
  lrn_param {
    local_size: 5
    alpha: 0.0001
    beta: 0.75
  }
}
layer {
  name: "pool2/3x3_s2"
  type: "Pooling"
  bottom: "conv2/norm2"
  top: "pool2/3x3_s2"
  pooling_param {
    pool: MAX
    kernel_size: 3
    stride: 2
  }
}
layer {
  name: "inception_3a/1x1"
  type: "Convolution"
  bottom: "pool2/3x3_s2"
  top: "inception_3a/1x1"
  param {
    lr_mult: 1
    decay_mult: 1
  }
  param {
    lr_mult: 2
    decay_mult: 0
  }
  convolution_param {
    num_output: 64
    kernel_size: 1
    weight_filler {
      type: "xavier"
    }
    bias_filler {
      type: "constant"
      value: 0.2
    }
  }
}
layer {
  name: "inception_3a/relu_1x1"
  type: "ReLU"
  bottom: "inception_3a/1x1"
  top: "inception_3a/1x1"
}
layer {
  name: "inception_3a/3x3_reduce"
  type: "Convolution"
  bottom: "pool2/3x3_s2"
  top: "inception_3a/3x3_reduce"
  param {
    lr_mult: 1
    decay_mult: 1
  }
  param {
    lr_mult: 2
    decay_mult: 0
  }
  convolution_param {
    num_output: 96
    kernel_size: 1
    weight_filler {
      type: "xavier"
    }
    bias_filler {
      type: "constant"
      value: 0.2
    }
  }
}
layer {
  name: "inception_3a/relu_3x3_reduce"
  type: "ReLU"
  bottom: "inception_3a/3x3_reduce"
  top: "inception_3a/3x3_reduce"
}
layer {
  name: "inception_3a/3x3"
  type: "Convolution"
  bottom: "inception_3a/3x3_reduce"
  top: "inception_3a/3x3"
  param {
    lr_mult: 1
    decay_mult: 1
  }
  param {
    lr_mult: 2
    decay_mult: 0
  }
  convolution_param {
    num_output: 128
    pad: 1
    kernel_size: 3
    weight_filler {
      type: "xavier"
    }
    bias_filler {
      type: "constant"
      value: 0.2
    }
  }
}
layer {
  name: "inception_3a/relu_3x3"
  type: "ReLU"
  bottom: "inception_3a/3x3"
  top: "inception_3a/3x3"
}
layer {
  name: "inception_3a/5x5_reduce"
  type: "Convolution"
  bottom: "pool2/3x3_s2"
  top: "inception_3a/5x5_reduce"
  param {
    lr_mult: 1
    decay_mult: 1
  }
  param {
    lr_mult: 2
    decay_mult: 0
  }
  convolution_param {
    num_output: 16
    kernel_size: 1
    weight_filler {
      type: "xavier"
    }
    bias_filler {
      type: "constant"
      value: 0.2
    }
  }
}
layer {
  name: "inception_3a/relu_5x5_reduce"
  type: "ReLU"
  bottom: "inception_3a/5x5_reduce"
  top: "inception_3a/5x5_reduce"
}
layer {
  name: "inception_3a/5x5"
  type: "Convolution"
  bottom: "inception_3a/5x5_reduce"
  top: "inception_3a/5x5"
  param {
    lr_mult: 1
    decay_mult: 1
  }
  param {
    lr_mult: 2
    decay_mult: 0
  }
  convolution_param {
    num_output: 32
    pad: 2
    kernel_size: 5
    weight_filler {
      type: "xavier"
    }
    bias_filler {
      type: "constant"
      value: 0.2
    }
  }
}
layer {
  name: "inception_3a/relu_5x5"
  type: "ReLU"
  bottom: "inception_3a/5x5"
  top: "inception_3a/5x5"
}
layer {
  name: "inception_3a/pool"
  type: "Pooling"
  bottom: "pool2/3x3_s2"
  top: "inception_3a/pool"
  pooling_param {
    pool: MAX
    kernel_size: 3
    stride: 1
    pad: 1
  }
}
layer {
  name: "inception_3a/pool_proj"
  type: "Convolution"
  bottom: "inception_3a/pool"
  top: "inception_3a/pool_proj"
  param {
    lr_mult: 1
    decay_mult: 1
  }
  param {
    lr_mult: 2
    decay_mult: 0
  }
  convolution_param {
    num_output: 32
    kernel_size: 1
    weight_filler {
      type: "xavier"
    }
    bias_filler {
      type: "constant"
      value: 0.2
    }
  }
}
layer {
  name: "inception_3a/relu_pool_proj"
  type: "ReLU"
  bottom: "inception_3a/pool_proj"
  top: "inception_3a/pool_proj"
}
layer {
  name: "inception_3a/output"
  type: "Concat"
  bottom: "inception_3a/1x1"
  bottom: "inception_3a/3x3"
  bottom: "inception_3a/5x5"
  bottom: "inception_3a/pool_proj"
  top: "inception_3a/output"
}
layer {
  name: "inception_3b/1x1"
  type: "Convolution"
  bottom: "inception_3a/output"
  top: "inception_3b/1x1"
  param {
    lr_mult: 1
    decay_mult: 1
  }
  param {
    lr_mult: 2
    decay_mult: 0
  }
  convolution_param {
    num_output: 128
    kernel_size: 1
    weight_filler {
      type: "xavier"
    }
    bias_filler {
      type: "constant"
      value: 0.2
    }
  }
}
layer {
  name: "inception_3b/relu_1x1"
  type: "ReLU"
  bottom: "inception_3b/1x1"
  top: "inception_3b/1x1"
}
layer {
  name: "inception_3b/3x3_reduce"
  type: "Convolution"
  bottom: "inception_3a/output"
  top: "inception_3b/3x3_reduce"
  param {
    lr_mult: 1
    decay_mult: 1
  }
  param {
    lr_mult: 2
    decay_mult: 0
  }
  convolution_param {
    num_output: 128
    kernel_size: 1
    weight_filler {
      type: "xavier"
    }
    bias_filler {
      type: "constant"
      value: 0.2
    }
  }
}
layer {
  name: "inception_3b/relu_3x3_reduce"
  type: "ReLU"
  bottom: "inception_3b/3x3_reduce"
  top: "inception_3b/3x3_reduce"
}
layer {
  name: "inception_3b/3x3"
  type: "Convolution"
  bottom: "inception_3b/3x3_reduce"
  top: "inception_3b/3x3"
  param {
    lr_mult: 1
    decay_mult: 1
  }
  param {
    lr_mult: 2
    decay_mult: 0
  }
  convolution_param {
    num_output: 192
    pad: 1
    kernel_size: 3
    weight_filler {
      type: "xavier"
    }
    bias_filler {
      type: "constant"
      value: 0.2
    }
  }
}
layer {
  name: "inception_3b/relu_3x3"
  type: "ReLU"
  bottom: "inception_3b/3x3"
  top: "inception_3b/3x3"
}
layer {
  name: "inception_3b/5x5_reduce"
  type: "Convolution"
  bottom: "inception_3a/output"
  top: "inception_3b/5x5_reduce"
  param {
    lr_mult: 1
    decay_mult: 1
  }
  param {
    lr_mult: 2
    decay_mult: 0
  }
  convolution_param {
    num_output: 32
    kernel_size: 1
    weight_filler {
      type: "xavier"
    }
    bias_filler {
      type: "constant"
      value: 0.2
    }
  }
}
layer {
  name: "inception_3b/relu_5x5_reduce"
  type: "ReLU"
  bottom: "inception_3b/5x5_reduce"
  top: "inception_3b/5x5_reduce"
}
layer {
  name: "inception_3b/5x5"
  type: "Convolution"
  bottom: "inception_3b/5x5_reduce"
  top: "inception_3b/5x5"
  param {
    lr_mult: 1
    decay_mult: 1
  }
  param {
    lr_mult: 2
    decay_mult: 0
  }
  convolution_param {
    num_output: 96
    pad: 2
    kernel_size: 5
    weight_filler {
      type: "xavier"
    }
    bias_filler {
      type: "constant"
      value: 0.2
    }
  }
}
layer {
  name: "inception_3b/relu_5x5"
  type: "ReLU"
  bottom: "inception_3b/5x5"
  top: "inception_3b/5x5"
}
layer {
  name: "inception_3b/pool"
  type: "Pooling"
  bottom: "inception_3a/output"
  top: "inception_3b/pool"
  pooling_param {
    pool: MAX
    kernel_size: 3
    stride: 1
    pad: 1
  }
}
layer {
  name: "inception_3b/pool_proj"
  type: "Convolution"
  bottom: "inception_3b/pool"
  top: "inception_3b/pool_proj"
  param {
    lr_mult: 1
    decay_mult: 1
  }
  param {
    lr_mult: 2
    decay_mult: 0
  }
  convolution_param {
    num_output: 64
    kernel_size: 1
    weight_filler {
      type: "xavier"
    }
    bias_filler {
      type: "constant"
      value: 0.2
    }
  }
}
layer {
  name: "inception_3b/relu_pool_proj"
  type: "ReLU"
  bottom: "inception_3b/pool_proj"
  top: "inception_3b/pool_proj"
}
layer {
  name: "inception_3b/output"
  type: "Concat"
  bottom: "inception_3b/1x1"
  bottom: "inception_3b/3x3"
  bottom: "inception_3b/5x5"
  bottom: "inception_3b/pool_proj"
  top: "inception_3b/output"
}
layer {
  name: "pool3/3x3_s2"
  type: "Pooling"
  bottom: "inception_3b/output"
  top: "pool3/3x3_s2"
  pooling_param {
    pool: MAX
    kernel_size: 3
    stride: 2
  }
}
layer {
  name: "inception_4a/1x1"
  type: "Convolution"
  bottom: "pool3/3x3_s2"
  top: "inception_4a/1x1"
  param {
    lr_mult: 1
    decay_mult: 1
  }
  param {
    lr_mult: 2
    decay_mult: 0
  }
  convolution_param {
    num_output: 192
    kernel_size: 1
    weight_filler {
      type: "xavier"
    }
    bias_filler {
      type: "constant"
      value: 0.2
    }
  }
}
layer {
  name: "inception_4a/relu_1x1"
  type: "ReLU"
  bottom: "inception_4a/1x1"
  top: "inception_4a/1x1"
}
layer {
  name: "inception_4a/3x3_reduce"
  type: "Convolution"
  bottom: "pool3/3x3_s2"
  top: "inception_4a/3x3_reduce"
  param {
    lr_mult: 1
    decay_mult: 1
  }
  param {
    lr_mult: 2
    decay_mult: 0
  }
  convolution_param {
    num_output: 96
    kernel_size: 1
    weight_filler {
      type: "xavier"
    }
    bias_filler {
      type: "constant"
      value: 0.2
    }
  }
}
layer {
  name: "inception_4a/relu_3x3_reduce"
  type: "ReLU"
  bottom: "inception_4a/3x3_reduce"
  top: "inception_4a/3x3_reduce"
}
layer {
  name: "inception_4a/3x3"
  type: "Convolution"
  bottom: "inception_4a/3x3_reduce"
  top: "inception_4a/3x3"
  param {
    lr_mult: 1
    decay_mult: 1
  }
  param {
    lr_mult: 2
    decay_mult: 0
  }
  convolution_param {
    num_output: 208
    pad: 1
    kernel_size: 3
    weight_filler {
      type: "xavier"
    }
    bias_filler {
      type: "constant"
      value: 0.2
    }
  }
}
layer {
  name: "inception_4a/relu_3x3"
  type: "ReLU"
  bottom: "inception_4a/3x3"
  top: "inception_4a/3x3"
}
layer {
  name: "inception_4a/5x5_reduce"
  type: "Convolution"
  bottom: "pool3/3x3_s2"
  top: "inception_4a/5x5_reduce"
  param {
    lr_mult: 1
    decay_mult: 1
  }
  param {
    lr_mult: 2
    decay_mult: 0
  }
  convolution_param {
    num_output: 16
    kernel_size: 1
    weight_filler {
      type: "xavier"
    }
    bias_filler {
      type: "constant"
      value: 0.2
    }
  }
}
layer {
  name: "inception_4a/relu_5x5_reduce"
  type: "ReLU"
  bottom: "inception_4a/5x5_reduce"
  top: "inception_4a/5x5_reduce"
}
layer {
  name: "inception_4a/5x5"
  type: "Convolution"
  bottom: "inception_4a/5x5_reduce"
  top: "inception_4a/5x5"
  param {
    lr_mult: 1
    decay_mult: 1
  }
  param {
    lr_mult: 2
    decay_mult: 0
  }
  convolution_param {
    num_output: 48
    pad: 2
    kernel_size: 5
    weight_filler {
      type: "xavier"
    }
    bias_filler {
      type: "constant"
      value: 0.2
    }
  }
}
layer {
  name: "inception_4a/relu_5x5"
  type: "ReLU"
  bottom: "inception_4a/5x5"
  top: "inception_4a/5x5"
}
layer {
  name: "inception_4a/pool"
  type: "Pooling"
  bottom: "pool3/3x3_s2"
  top: "inception_4a/pool"
  pooling_param {
    pool: MAX
    kernel_size: 3
    stride: 1
    pad: 1
  }
}
layer {
  name: "inception_4a/pool_proj"
  type: "Convolution"
  bottom: "inception_4a/pool"
  top: "inception_4a/pool_proj"
  param {
    lr_mult: 1
    decay_mult: 1
  }
  param {
    lr_mult: 2
    decay_mult: 0
  }
  convolution_param {
    num_output: 64
    kernel_size: 1
    weight_filler {
      type: "xavier"
    }
    bias_filler {
      type: "constant"
      value: 0.2
    }
  }
}
layer {
  name: "inception_4a/relu_pool_proj"
  type: "ReLU"
  bottom: "inception_4a/pool_proj"
  top: "inception_4a/pool_proj"
}
layer {
  name: "inception_4a/output"
  type: "Concat"
  bottom: "inception_4a/1x1"
  bottom: "inception_4a/3x3"
  bottom: "inception_4a/5x5"
  bottom: "inception_4a/pool_proj"
  top: "inception_4a/output"
}
layer {
  name: "loss1/ave_pool"
  type: "Pooling"
  bottom: "inception_4a/output"
  top: "loss1/ave_pool"
  pooling_param {
    pool: AVE
    kernel_size: 5
    stride: 3
  }
}
layer {
  name: "loss1/conv"
  type: "Convolution"
  bottom: "loss1/ave_pool"
  top: "loss1/conv"
  param {
    lr_mult: 1
    decay_mult: 1
  }
  param {
    lr_mult: 2
    decay_mult: 0
  }
  convolution_param {
    num_output: 128
    kernel_size: 1
    weight_filler {
      type: "xavier"
    }
    bias_filler {
      type: "constant"
      value: 0.2
    }
  }
}
layer {
  name: "loss1/relu_conv"
  type: "ReLU"
  bottom: "loss1/conv"
  top: "loss1/conv"
}
layer {
  name: "loss1/fc"
  type: "InnerProduct"
  bottom: "loss1/conv"
  top: "loss1/fc"
  param {
    lr_mult: 1
    decay_mult: 1
  }
  param {
    lr_mult: 2
    decay_mult: 0
  }
  inner_product_param {
    num_output: 1024
    weight_filler {
      type: "xavier"
    }
    bias_filler {
      type: "constant"
      value: 0.2
    }
  }
}
layer {
  name: "loss1/relu_fc"
  type: "ReLU"
  bottom: "loss1/fc"
  top: "loss1/fc"
}
layer {
  name: "loss1/drop_fc"
  type: "Dropout"
  bottom: "loss1/fc"
  top: "loss1/fc"
  dropout_param {
    dropout_ratio: 0.7
  }
}
layer {
  name: "loss1/classifier_kaggle"
  type: "InnerProduct"
  bottom: "loss1/fc"
  top: "loss1/classifier_kaggle"
  param {
    lr_mult: 1
    decay_mult: 1
  }
  param {
    lr_mult: 2
    decay_mult: 0
  }
  inner_product_param {
    num_output: 447
    weight_filler {
      type: "xavier"
    }
    bias_filler {
      type: "constant"
      value: 0
    }
  }
}
layer {
  name: "loss1/loss"
  type: "SoftmaxWithLoss"
  bottom: "loss1/classifier_kaggle"
  bottom: "label"
  top: "loss1/loss1"
  loss_weight: 0.3
}
layer {
  name: "loss1/top-1"
  type: "Accuracy"
  bottom: "loss1/classifier_kaggle"
  bottom: "label"
  top: "loss1/top-1"
  include {
    phase: TEST
  }
}
layer {
  name: "loss1/top-5"
  type: "Accuracy"
  bottom: "loss1/classifier_kaggle"
  bottom: "label"
  top: "loss1/top-5"
  include {
    phase: TEST
  }
  accuracy_param {
    top_k: 5
  }
}
layer {
  name: "inception_4b/1x1"
  type: "Convolution"
  bottom: "inception_4a/output"
  top: "inception_4b/1x1"
  param {
    lr_mult: 1
    decay_mult: 1
  }
  param {
    lr_mult: 2
    decay_mult: 0
  }
  convolution_param {
    num_output: 160
    kernel_size: 1
    weight_filler {
      type: "xavier"
    }
    bias_filler {
      type: "constant"
      value: 0.2
    }
  }
}
layer {
  name: "inception_4b/relu_1x1"
  type: "ReLU"
  bottom: "inception_4b/1x1"
  top: "inception_4b/1x1"
}
layer {
  name: "inception_4b/3x3_reduce"
  type: "Convolution"
  bottom: "inception_4a/output"
  top: "inception_4b/3x3_reduce"
  param {
    lr_mult: 1
    decay_mult: 1
  }
  param {
    lr_mult: 2
    decay_mult: 0
  }
  convolution_param {
    num_output: 112
    kernel_size: 1
    weight_filler {
      type: "xavier"
    }
    bias_filler {
      type: "constant"
      value: 0.2
    }
  }
}
layer {
  name: "inception_4b/relu_3x3_reduce"
  type: "ReLU"
  bottom: "inception_4b/3x3_reduce"
  top: "inception_4b/3x3_reduce"
}
layer {
  name: "inception_4b/3x3"
  type: "Convolution"
  bottom: "inception_4b/3x3_reduce"
  top: "inception_4b/3x3"
  param {
    lr_mult: 1
    decay_mult: 1
  }
  param {
    lr_mult: 2
    decay_mult: 0
  }
  convolution_param {
    num_output: 224
    pad: 1
    kernel_size: 3
    weight_filler {
      type: "xavier"
    }
    bias_filler {
      type: "constant"
      value: 0.2
    }
  }
}
layer {
  name: "inception_4b/relu_3x3"
  type: "ReLU"
  bottom: "inception_4b/3x3"
  top: "inception_4b/3x3"
}
layer {
  name: "inception_4b/5x5_reduce"
  type: "Convolution"
  bottom: "inception_4a/output"
  top: "inception_4b/5x5_reduce"
  param {
    lr_mult: 1
    decay_mult: 1
  }
  param {
    lr_mult: 2
    decay_mult: 0
  }
  convolution_param {
    num_output: 24
    kernel_size: 1
    weight_filler {
      type: "xavier"
    }
    bias_filler {
      type: "constant"
      value: 0.2
    }
  }
}
layer {
  name: "inception_4b/relu_5x5_reduce"
  type: "ReLU"
  bottom: "inception_4b/5x5_reduce"
  top: "inception_4b/5x5_reduce"
}
layer {
  name: "inception_4b/5x5"
  type: "Convolution"
  bottom: "inception_4b/5x5_reduce"
  top: "inception_4b/5x5"
  param {
    lr_mult: 1
    decay_mult: 1
  }
  param {
    lr_mult: 2
    decay_mult: 0
  }
  convolution_param {
    num_output: 64
    pad: 2
    kernel_size: 5
    weight_filler {
      type: "xavier"
    }
    bias_filler {
      type: "constant"
      value: 0.2
    }
  }
}
layer {
  name: "inception_4b/relu_5x5"
  type: "ReLU"
  bottom: "inception_4b/5x5"
  top: "inception_4b/5x5"
}
layer {
  name: "inception_4b/pool"
  type: "Pooling"
  bottom: "inception_4a/output"
  top: "inception_4b/pool"
  pooling_param {
    pool: MAX
    kernel_size: 3
    stride: 1
    pad: 1
  }
}
layer {
  name: "inception_4b/pool_proj"
  type: "Convolution"
  bottom: "inception_4b/pool"
  top: "inception_4b/pool_proj"
  param {
    lr_mult: 1
    decay_mult: 1
  }
  param {
    lr_mult: 2
    decay_mult: 0
  }
  convolution_param {
    num_output: 64
    kernel_size: 1
    weight_filler {
      type: "xavier"
    }
    bias_filler {
      type: "constant"
      value: 0.2
    }
  }
}
layer {
  name: "inception_4b/relu_pool_proj"
  type: "ReLU"
  bottom: "inception_4b/pool_proj"
  top: "inception_4b/pool_proj"
}
layer {
  name: "inception_4b/output"
  type: "Concat"
  bottom: "inception_4b/1x1"
  bottom: "inception_4b/3x3"
  bottom: "inception_4b/5x5"
  bottom: "inception_4b/pool_proj"
  top: "inception_4b/output"
}
layer {
  name: "inception_4c/1x1"
  type: "Convolution"
  bottom: "inception_4b/output"
  top: "inception_4c/1x1"
  param {
    lr_mult: 1
    decay_mult: 1
  }
  param {
    lr_mult: 2
    decay_mult: 0
  }
  convolution_param {
    num_output: 128
    kernel_size: 1
    weight_filler {
      type: "xavier"
    }
    bias_filler {
      type: "constant"
      value: 0.2
    }
  }
}
layer {
  name: "inception_4c/relu_1x1"
  type: "ReLU"
  bottom: "inception_4c/1x1"
  top: "inception_4c/1x1"
}
layer {
  name: "inception_4c/3x3_reduce"
  type: "Convolution"
  bottom: "inception_4b/output"
  top: "inception_4c/3x3_reduce"
  param {
    lr_mult: 1
    decay_mult: 1
  }
  param {
    lr_mult: 2
    decay_mult: 0
  }
  convolution_param {
    num_output: 128
    kernel_size: 1
    weight_filler {
      type: "xavier"
    }
    bias_filler {
      type: "constant"
      value: 0.2
    }
  }
}
layer {
  name: "inception_4c/relu_3x3_reduce"
  type: "ReLU"
  bottom: "inception_4c/3x3_reduce"
  top: "inception_4c/3x3_reduce"
}
layer {
  name: "inception_4c/3x3"
  type: "Convolution"
  bottom: "inception_4c/3x3_reduce"
  top: "inception_4c/3x3"
  param {
    lr_mult: 1
    decay_mult: 1
  }
  param {
    lr_mult: 2
    decay_mult: 0
  }
  convolution_param {
    num_output: 256
    pad: 1
    kernel_size: 3
    weight_filler {
      type: "xavier"
    }
    bias_filler {
      type: "constant"
      value: 0.2
    }
  }
}
layer {
  name: "inception_4c/relu_3x3"
  type: "ReLU"
  bottom: "inception_4c/3x3"
  top: "inception_4c/3x3"
}
layer {
  name: "inception_4c/5x5_reduce"
  type: "Convolution"
  bottom: "inception_4b/output"
  top: "inception_4c/5x5_reduce"
  param {
    lr_mult: 1
    decay_mult: 1
  }
  param {
    lr_mult: 2
    decay_mult: 0
  }
  convolution_param {
    num_output: 24
    kernel_size: 1
    weight_filler {
      type: "xavier"
    }
    bias_filler {
      type: "constant"
      value: 0.2
    }
  }
}
layer {
  name: "inception_4c/relu_5x5_reduce"
  type: "ReLU"
  bottom: "inception_4c/5x5_reduce"
  top: "inception_4c/5x5_reduce"
}
layer {
  name: "inception_4c/5x5"
  type: "Convolution"
  bottom: "inception_4c/5x5_reduce"
  top: "inception_4c/5x5"
  param {
    lr_mult: 1
    decay_mult: 1
  }
  param {
    lr_mult: 2
    decay_mult: 0
  }
  convolution_param {
    num_output: 64
    pad: 2
    kernel_size: 5
    weight_filler {
      type: "xavier"
    }
    bias_filler {
      type: "constant"
      value: 0.2
    }
  }
}
layer {
  name: "inception_4c/relu_5x5"
  type: "ReLU"
  bottom: "inception_4c/5x5"
  top: "inception_4c/5x5"
}
layer {
  name: "inception_4c/pool"
  type: "Pooling"
  bottom: "inception_4b/output"
  top: "inception_4c/pool"
  pooling_param {
    pool: MAX
    kernel_size: 3
    stride: 1
    pad: 1
  }
}
layer {
  name: "inception_4c/pool_proj"
  type: "Convolution"
  bottom: "inception_4c/pool"
  top: "inception_4c/pool_proj"
  param {
    lr_mult: 1
    decay_mult: 1
  }
  param {
    lr_mult: 2
    decay_mult: 0
  }
  convolution_param {
    num_output: 64
    kernel_size: 1
    weight_filler {
      type: "xavier"
    }
    bias_filler {
      type: "constant"
      value: 0.2
    }
  }
}
layer {
  name: "inception_4c/relu_pool_proj"
  type: "ReLU"
  bottom: "inception_4c/pool_proj"
  top: "inception_4c/pool_proj"
}
layer {
  name: "inception_4c/output"
  type: "Concat"
  bottom: "inception_4c/1x1"
  bottom: "inception_4c/3x3"
  bottom: "inception_4c/5x5"
  bottom: "inception_4c/pool_proj"
  top: "inception_4c/output"
}
layer {
  name: "inception_4d/1x1"
  type: "Convolution"
  bottom: "inception_4c/output"
  top: "inception_4d/1x1"
  param {
    lr_mult: 1
    decay_mult: 1
  }
  param {
    lr_mult: 2
    decay_mult: 0
  }
  convolution_param {
    num_output: 112
    kernel_size: 1
    weight_filler {
      type: "xavier"
    }
    bias_filler {
      type: "constant"
      value: 0.2
    }
  }
}
layer {
  name: "inception_4d/relu_1x1"
  type: "ReLU"
  bottom: "inception_4d/1x1"
  top: "inception_4d/1x1"
}
layer {
  name: "inception_4d/3x3_reduce"
  type: "Convolution"
  bottom: "inception_4c/output"
  top: "inception_4d/3x3_reduce"
  param {
    lr_mult: 1
    decay_mult: 1
  }
  param {
    lr_mult: 2
    decay_mult: 0
  }
  convolution_param {
    num_output: 144
    kernel_size: 1
    weight_filler {
      type: "xavier"
    }
    bias_filler {
      type: "constant"
      value: 0.2
    }
  }
}
layer {
  name: "inception_4d/relu_3x3_reduce"
  type: "ReLU"
  bottom: "inception_4d/3x3_reduce"
  top: "inception_4d/3x3_reduce"
}
layer {
  name: "inception_4d/3x3"
  type: "Convolution"
  bottom: "inception_4d/3x3_reduce"
  top: "inception_4d/3x3"
  param {
    lr_mult: 1
    decay_mult: 1
  }
  param {
    lr_mult: 2
    decay_mult: 0
  }
  convolution_param {
    num_output: 288
    pad: 1
    kernel_size: 3
    weight_filler {
      type: "xavier"
    }
    bias_filler {
      type: "constant"
      value: 0.2
    }
  }
}
layer {
  name: "inception_4d/relu_3x3"
  type: "ReLU"
  bottom: "inception_4d/3x3"
  top: "inception_4d/3x3"
}
layer {
  name: "inception_4d/5x5_reduce"
  type: "Convolution"
  bottom: "inception_4c/output"
  top: "inception_4d/5x5_reduce"
  param {
    lr_mult: 1
    decay_mult: 1
  }
  param {
    lr_mult: 2
    decay_mult: 0
  }
  convolution_param {
    num_output: 32
    kernel_size: 1
    weight_filler {
      type: "xavier"
    }
    bias_filler {
      type: "constant"
      value: 0.2
    }
  }
}
layer {
  name: "inception_4d/relu_5x5_reduce"
  type: "ReLU"
  bottom: "inception_4d/5x5_reduce"
  top: "inception_4d/5x5_reduce"
}
layer {
  name: "inception_4d/5x5"
  type: "Convolution"
  bottom: "inception_4d/5x5_reduce"
  top: "inception_4d/5x5"
  param {
    lr_mult: 1
    decay_mult: 1
  }
  param {
    lr_mult: 2
    decay_mult: 0
  }
  convolution_param {
    num_output: 64
    pad: 2
    kernel_size: 5
    weight_filler {
      type: "xavier"
    }
    bias_filler {
      type: "constant"
      value: 0.2
    }
  }
}
layer {
  name: "inception_4d/relu_5x5"
  type: "ReLU"
  bottom: "inception_4d/5x5"
  top: "inception_4d/5x5"
}
layer {
  name: "inception_4d/pool"
  type: "Pooling"
  bottom: "inception_4c/output"
  top: "inception_4d/pool"
  pooling_param {
    pool: MAX
    kernel_size: 3
    stride: 1
    pad: 1
  }
}
layer {
  name: "inception_4d/pool_proj"
  type: "Convolution"
  bottom: "inception_4d/pool"
  top: "inception_4d/pool_proj"
  param {
    lr_mult: 1
    decay_mult: 1
  }
  param {
    lr_mult: 2
    decay_mult: 0
  }
  convolution_param {
    num_output: 64
    kernel_size: 1
    weight_filler {
      type: "xavier"
    }
    bias_filler {
      type: "constant"
      value: 0.2
    }
  }
}
layer {
  name: "inception_4d/relu_pool_proj"
  type: "ReLU"
  bottom: "inception_4d/pool_proj"
  top: "inception_4d/pool_proj"
}
layer {
  name: "inception_4d/output"
  type: "Concat"
  bottom: "inception_4d/1x1"
  bottom: "inception_4d/3x3"
  bottom: "inception_4d/5x5"
  bottom: "inception_4d/pool_proj"
  top: "inception_4d/output"
}
layer {
  name: "loss2/ave_pool"
  type: "Pooling"
  bottom: "inception_4d/output"
  top: "loss2/ave_pool"
  pooling_param {
    pool: AVE
    kernel_size: 5
    stride: 3
  }
}
layer {
…
I0105 11:54:26.163897 30841 net.cpp:84] Creating Layer inception_4c/1x1
I0105 11:54:26.163905 30841 net.cpp:380] inception_4c/1x1 <- inception_4b/output_inception_4b/output_0_split_0
I0105 11:54:26.163929 30841 net.cpp:338] inception_4c/1x1 -> inception_4c/1x1
I0105 11:54:26.163943 30841 net.cpp:113] Setting up inception_4c/1x1
I0105 11:54:26.165386 30841 net.cpp:120] Top shape: 50 128 14 14 (1254400)
I0105 11:54:26.165408 30841 layer_factory.hpp:74] Creating layer inception_4c/relu_1x1
I0105 11:54:26.165422 30841 net.cpp:84] Creating Layer inception_4c/relu_1x1
I0105 11:54:26.165432 30841 net.cpp:380] inception_4c/relu_1x1 <- inception_4c/1x1
I0105 11:54:26.165451 30841 net.cpp:327] inception_4c/relu_1x1 -> inception_4c/1x1 (in-place)
I0105 11:54:26.165474 30841 net.cpp:113] Setting up inception_4c/relu_1x1
I0105 11:54:26.165807 30841 net.cpp:120] Top shape: 50 128 14 14 (1254400)
I0105 11:54:26.165823 30841 layer_factory.hpp:74] Creating layer inception_4c/3x3_reduce
I0105 11:54:26.165840 30841 net.cpp:84] Creating Layer inception_4c/3x3_reduce
I0105 11:54:26.165851 30841 net.cpp:380] inception_4c/3x3_reduce <- inception_4b/output_inception_4b/output_0_split_1
I0105 11:54:26.165869 30841 net.cpp:338] inception_4c/3x3_reduce -> inception_4c/3x3_reduce
I0105 11:54:26.165884 30841 net.cpp:113] Setting up inception_4c/3x3_reduce
I0105 11:54:26.167362 30841 net.cpp:120] Top shape: 50 128 14 14 (1254400)
I0105 11:54:26.167384 30841 layer_factory.hpp:74] Creating layer inception_4c/relu_3x3_reduce
I0105 11:54:26.167398 30841 net.cpp:84] Creating Layer inception_4c/relu_3x3_reduce
I0105 11:54:26.167408 30841 net.cpp:380] inception_4c/relu_3x3_reduce <- inception_4c/3x3_reduce
I0105 11:54:26.167429 30841 net.cpp:327] inception_4c/relu_3x3_reduce -> inception_4c/3x3_reduce (in-place)
I0105 11:54:26.167441 30841 net.cpp:113] Setting up inception_4c/relu_3x3_reduce
I0105 11:54:26.167549 30841 net.cpp:120] Top shape: 50 128 14 14 (1254400)
I0105 11:54:26.167560 30841 layer_factory.hpp:74] Creating layer inception_4c/3x3
I0105 11:54:26.167575 30841 net.cpp:84] Creating Layer inception_4c/3x3
I0105 11:54:26.167583 30841 net.cpp:380] inception_4c/3x3 <- inception_4c/3x3_reduce
I0105 11:54:26.167598 30841 net.cpp:338] inception_4c/3x3 -> inception_4c/3x3
I0105 11:54:26.167611 30841 net.cpp:113] Setting up inception_4c/3x3
I0105 11:54:26.172224 30841 net.cpp:120] Top shape: 50 256 14 14 (2508800)
I0105 11:54:26.172273 30841 layer_factory.hpp:74] Creating layer inception_4c/relu_3x3
I0105 11:54:26.172287 30841 net.cpp:84] Creating Layer inception_4c/relu_3x3
I0105 11:54:26.172298 30841 net.cpp:380] inception_4c/relu_3x3 <- inception_4c/3x3
I0105 11:54:26.172312 30841 net.cpp:327] inception_4c/relu_3x3 -> inception_4c/3x3 (in-place)
I0105 11:54:26.172323 30841 net.cpp:113] Setting up inception_4c/relu_3x3
I0105 11:54:26.172442 30841 net.cpp:120] Top shape: 50 256 14 14 (2508800)
I0105 11:54:26.172456 30841 layer_factory.hpp:74] Creating layer inception_4c/5x5_reduce
I0105 11:54:26.172472 30841 net.cpp:84] Creating Layer inception_4c/5x5_reduce
I0105 11:54:26.172482 30841 net.cpp:380] inception_4c/5x5_reduce <- inception_4b/output_inception_4b/output_0_split_2
I0105 11:54:26.172497 30841 net.cpp:338] inception_4c/5x5_reduce -> inception_4c/5x5_reduce
I0105 11:54:26.172510 30841 net.cpp:113] Setting up inception_4c/5x5_reduce
I0105 11:54:26.173272 30841 net.cpp:120] Top shape: 50 24 14 14 (235200)
I0105 11:54:26.173296 30841 layer_factory.hpp:74] Creating layer inception_4c/relu_5x5_reduce
I0105 11:54:26.173310 30841 net.cpp:84] Creating Layer inception_4c/relu_5x5_reduce
I0105 11:54:26.173321 30841 net.cpp:380] inception_4c/relu_5x5_reduce <- inception_4c/5x5_reduce
I0105 11:54:26.173332 30841 net.cpp:327] inception_4c/relu_5x5_reduce -> inception_4c/5x5_reduce (in-place)
I0105 11:54:26.173346 30841 net.cpp:113] Setting up inception_4c/relu_5x5_reduce
I0105 11:54:26.173689 30841 net.cpp:120] Top shape: 50 24 14 14 (235200)
I0105 11:54:26.173704 30841 layer_factory.hpp:74] Creating layer inception_4c/5x5
I0105 11:54:26.173718 30841 net.cpp:84] Creating Layer inception_4c/5x5
I0105 11:54:26.173727 30841 net.cpp:380] inception_4c/5x5 <- inception_4c/5x5_reduce
I0105 11:54:26.173741 30841 net.cpp:338] inception_4c/5x5 -> inception_4c/5x5
I0105 11:54:26.173756 30841 net.cpp:113] Setting up inception_4c/5x5
I0105 11:54:26.174870 30841 net.cpp:120] Top shape: 50 64 14 14 (627200)
I0105 11:54:26.174893 30841 layer_factory.hpp:74] Creating layer inception_4c/relu_5x5
I0105 11:54:26.174913 30841 net.cpp:84] Creating Layer inception_4c/relu_5x5
I0105 11:54:26.174923 30841 net.cpp:380] inception_4c/relu_5x5 <- inception_4c/5x5
I0105 11:54:26.174934 30841 net.cpp:327] inception_4c/relu_5x5 -> inception_4c/5x5 (in-place)
I0105 11:54:26.174955 30841 net.cpp:113] Setting up inception_4c/relu_5x5
I0105 11:54:26.175081 30841 net.cpp:120] Top shape: 50 64 14 14 (627200)
I0105 11:54:26.175092 30841 layer_factory.hpp:74] Creating layer inception_4c/pool
I0105 11:54:26.175101 30841 layer_factory.cpp:56] CUDNN does not support padding or multiple tops. Using Caffe's own pooling layer.
I0105 11:54:26.175113 30841 net.cpp:84] Creating Layer inception_4c/pool
I0105 11:54:26.175124 30841 net.cpp:380] inception_4c/pool <- inception_4b/output_inception_4b/output_0_split_3
I0105 11:54:26.175138 30841 net.cpp:338] inception_4c/pool -> inception_4c/pool
I0105 11:54:26.175153 30841 net.cpp:113] Setting up inception_4c/pool
I0105 11:54:26.175169 30841 net.cpp:120] Top shape: 50 512 14 14 (5017600)
I0105 11:54:26.175179 30841 layer_factory.hpp:74] Creating layer inception_4c/pool_proj
I0105 11:54:26.175196 30841 net.cpp:84] Creating Layer inception_4c/pool_proj
I0105 11:54:26.175205 30841 net.cpp:380] inception_4c/pool_proj <- inception_4c/pool
I0105 11:54:26.175216 30841 net.cpp:338] inception_4c/pool_proj -> inception_4c/pool_proj
I0105 11:54:26.175231 30841 net.cpp:113] Setting up inception_4c/pool_proj
I0105 11:54:26.176259 30841 net.cpp:120] Top shape: 50 64 14 14 (627200)
I0105 11:54:26.176280 30841 layer_factory.hpp:74] Creating layer inception_4c/relu_pool_proj
I0105 11:54:26.176302 30841 net.cpp:84] Creating Layer inception_4c/relu_pool_proj
I0105 11:54:26.176311 30841 net.cpp:380] inception_4c/relu_pool_proj <- inception_4c/pool_proj
I0105 11:54:26.176324 30841 net.cpp:327] inception_4c/relu_pool_proj -> inception_4c/pool_proj (in-place)
I0105 11:54:26.176337 30841 net.cpp:113] Setting up inception_4c/relu_pool_proj
I0105 11:54:26.176430 30841 net.cpp:120] Top shape: 50 64 14 14 (627200)
I0105 11:54:26.176441 30841 layer_factory.hpp:74] Creating layer inception_4c/output
I0105 11:54:26.176452 30841 net.cpp:84] Creating Layer inception_4c/output
I0105 11:54:26.176460 30841 net.cpp:380] inception_4c/output <- inception_4c/1x1
I0105 11:54:26.176470 30841 net.cpp:380] inception_4c/output <- inception_4c/3x3
I0105 11:54:26.176479 30841 net.cpp:380] inception_4c/output <- inception_4c/5x5
I0105 11:54:26.176501 30841 net.cpp:380] inception_4c/output <- inception_4c/pool_proj
I0105 11:54:26.176512 30841 net.cpp:338] inception_4c/output -> inception_4c/output
I0105 11:54:26.176525 30841 net.cpp:113] Setting up inception_4c/output
I0105 11:54:26.176538 30841 net.cpp:120] Top shape: 50 512 14 14 (5017600)
I0105 11:54:26.176547 30841 layer_factory.hpp:74] Creating layer inception_4c/output_inception_4c/output_0_split
I0105 11:54:26.176558 30841 net.cpp:84] Creating Layer inception_4c/output_inception_4c/output_0_split
I0105 11:54:26.176565 30841 net.cpp:380] inception_4c/output_inception_4c/output_0_split <- inception_4c/output
I0105 11:54:26.176575 30841 net.cpp:338] inception_4c/output_inception_4c/output_0_split -> inception_4c/output_inception_4c/output_0_split_0
I0105 11:54:26.176589 30841 net.cpp:338] inception_4c/output_inception_4c/output_0_split -> inception_4c/output_inception_4c/output_0_split_1
I0105 11:54:26.176604 30841 net.cpp:338] inception_4c/output_inception_4c/output_0_split -> inception_4c/output_inception_4c/output_0_split_2
I0105 11:54:26.176617 30841 net.cpp:338] inception_4c/output_inception_4c/output_0_split -> inception_4c/output_inception_4c/output_0_split_3
I0105 11:54:26.176628 30841 net.cpp:113] Setting up inception_4c/output_inception_4c/output_0_split
I0105 11:54:26.176641 30841 net.cpp:120] Top shape: 50 512 14 14 (5017600)
I0105 11:54:26.176651 30841 net.cpp:120] Top shape: 50 512 14 14 (5017600)
I0105 11:54:26.176661 30841 net.cpp:120] Top shape: 50 512 14 14 (5017600)
I0105 11:54:26.176669 30841 net.cpp:120] Top shape: 50 512 14 14 (5017600)
I0105 11:54:26.176677 30841 layer_factory.hpp:74] Creating layer inception_4d/1x1
I0105 11:54:26.176692 30841 net.cpp:84] Creating Layer inception_4d/1x1
I0105 11:54:26.176702 30841 net.cpp:380] inception_4d/1x1 <- inception_4c/output_inception_4c/output_0_split_0
I0105 11:54:26.176719 30841 net.cpp:338] inception_4d/1x1 -> inception_4d/1x1
I0105 11:54:26.176740 30841 net.cpp:113] Setting up inception_4d/1x1
I0105 11:54:26.178014 30841 net.cpp:120] Top shape: 50 112 14 14 (1097600)
I0105 11:54:26.178036 30841 layer_factory.hpp:74] Creating layer inception_4d/relu_1x1
I0105 11:54:26.178048 30841 net.cpp:84] Creating Layer inception_4d/relu_1x1
I0105 11:54:26.178057 30841 net.cpp:380] inception_4d/relu_1x1 <- inception_4d/1x1
I0105 11:54:26.178072 30841 net.cpp:327] inception_4d/relu_1x1 -> inception_4d/1x1 (in-place)
I0105 11:54:26.178084 30841 net.cpp:113] Setting up inception_4d/relu_1x1
I0105 11:54:26.178179 30841 net.cpp:120] Top shape: 50 112 14 14 (1097600)
I0105 11:54:26.178190 30841 layer_factory.hpp:74] Creating layer inception_4d/3x3_reduce
I0105 11:54:26.178207 30841 net.cpp:84] Creating Layer inception_4d/3x3_reduce
I0105 11:54:26.178216 30841 net.cpp:380] inception_4d/3x3_reduce <- inception_4c/output_inception_4c/output_0_split_1
I0105 11:54:26.178228 30841 net.cpp:338] inception_4d/3x3_reduce -> inception_4d/3x3_reduce
I0105 11:54:26.178241 30841 net.cpp:113] Setting up inception_4d/3x3_reduce
I0105 11:54:26.179658 30841 net.cpp:120] Top shape: 50 144 14 14 (1411200)
I0105 11:54:26.179679 30841 layer_factory.hpp:74] Creating layer inception_4d/relu_3x3_reduce
I0105 11:54:26.179693 30841 net.cpp:84] Creating Layer inception_4d/relu_3x3_reduce
I0105 11:54:26.179702 30841 net.cpp:380] inception_4d/relu_3x3_reduce <- inception_4d/3x3_reduce
I0105 11:54:26.179713 30841 net.cpp:327] inception_4d/relu_3x3_reduce -> inception_4d/3x3_reduce (in-place)
I0105 11:54:26.179724 30841 net.cpp:113] Setting up inception_4d/relu_3x3_reduce
I0105 11:54:26.180025 30841 net.cpp:120] Top shape: 50 144 14 14 (1411200)
I0105 11:54:26.180040 30841 layer_factory.hpp:74] Creating layer inception_4d/3x3
I0105 11:54:26.180057 30841 net.cpp:84] Creating Layer inception_4d/3x3
I0105 11:54:26.180065 30841 net.cpp:380] inception_4d/3x3 <- inception_4d/3x3_reduce
I0105 11:54:26.180078 30841 net.cpp:338] inception_4d/3x3 -> inception_4d/3x3
I0105 11:54:26.180090 30841 net.cpp:113] Setting up inception_4d/3x3
I0105 11:54:26.192477 30841 net.cpp:120] Top shape: 50 288 14 14 (2822400)
I0105 11:54:26.192524 30841 layer_factory.hpp:74] Creating layer inception_4d/relu_3x3
I0105 11:54:26.192548 30841 net.cpp:84] Creating Layer inception_4d/relu_3x3
I0105 11:54:26.192560 30841 net.cpp:380] inception_4d/relu_3x3 <- inception_4d/3x3
I0105 11:54:26.192576 30841 net.cpp:327] inception_4d/relu_3x3 -> inception_4d/3x3 (in-place)
I0105 11:54:26.192595 30841 net.cpp:113] Setting up inception_4d/relu_3x3
I0105 11:54:26.192747 30841 net.cpp:120] Top shape: 50 288 14 14 (2822400)
I0105 11:54:26.192762 30841 layer_factory.hpp:74] Creating layer inception_4d/5x5_reduce
I0105 11:54:26.192782 30841 net.cpp:84] Creating Layer inception_4d/5x5_reduce
I0105 11:54:26.192793 30841 net.cpp:380] inception_4d/5x5_reduce <- inception_4c/output_inception_4c/output_0_split_2
I0105 11:54:26.192812 30841 net.cpp:338] inception_4d/5x5_reduce -> inception_4d/5x5_reduce
I0105 11:54:26.192831 30841 net.cpp:113] Setting up inception_4d/5x5_reduce
I0105 11:54:26.194049 30841 net.cpp:120] Top shape: 50 32 14 14 (313600)
I0105 11:54:26.194083 30841 layer_factory.hpp:74] Creating layer inception_4d/relu_5x5_reduce
I0105 11:54:26.194104 30841 net.cpp:84] Creating Layer inception_4d/relu_5x5_reduce
I0105 11:54:26.194116 30841 net.cpp:380] inception_4d/relu_5x5_reduce <- inception_4d/5x5_reduce
I0105 11:54:26.194133 30841 net.cpp:327] inception_4d/relu_5x5_reduce -> inception_4d/5x5_reduce (in-place)
I0105 11:54:26.194149 30841 net.cpp:113] Setting up inception_4d/relu_5x5_reduce
I0105 11:54:26.194293 30841 net.cpp:120] Top shape: 50 32 14 14 (313600)
I0105 11:54:26.194306 30841 layer_factory.hpp:74] Creating layer inception_4d/5x5
I0105 11:54:26.194325 30841 net.cpp:84] Creating Layer inception_4d/5x5
I0105 11:54:26.194335 30841 net.cpp:380] inception_4d/5x5 <- inception_4d/5x5_reduce
I0105 11:54:26.194350 30841 net.cpp:338] inception_4d/5x5 -> inception_4d/5x5
I0105 11:54:26.194382 30841 net.cpp:113] Setting up inception_4d/5x5
I0105 11:54:26.196305 30841 net.cpp:120] Top shape: 50 64 14 14 (627200)
I0105 11:54:26.196333 30841 layer_factory.hpp:74] Creating layer inception_4d/relu_5x5
I0105 11:54:26.196352 30841 net.cpp:84] Creating Layer inception_4d/relu_5x5
I0105 11:54:26.196364 30841 net.cpp:380] inception_4d/relu_5x5 <- inception_4d/5x5
I0105 11:54:26.196378 30841 net.cpp:327] inception_4d/relu_5x5 -> inception_4d/5x5 (in-place)
I0105 11:54:26.196393 30841 net.cpp:113] Setting up inception_4d/relu_5x5
I0105 11:54:26.196534 30841 net.cpp:120] Top shape: 50 64 14 14 (627200)
I0105 11:54:26.196547 30841 layer_factory.hpp:74] Creating layer inception_4d/pool
I0105 11:54:26.196558 30841 layer_factory.cpp:56] CUDNN does not support padding or multiple tops. Using Caffe's own pooling layer.
I0105 11:54:26.196570 30841 net.cpp:84] Creating Layer inception_4d/pool
I0105 11:54:26.196580 30841 net.cpp:380] inception_4d/pool <- inception_4c/output_inception_4c/output_0_split_3
I0105 11:54:26.196599 30841 net.cpp:338] inception_4d/pool -> inception_4d/pool
I0105 11:54:26.196614 30841 net.cpp:113] Setting up inception_4d/pool
I0105 11:54:26.196631 30841 net.cpp:120] Top shape: 50 512 14 14 (5017600)
I0105 11:54:26.196640 30841 layer_factory.hpp:74] Creating layer inception_4d/pool_proj
I0105 11:54:26.196658 30841 net.cpp:84] Creating Layer inception_4d/pool_proj
I0105 11:54:26.196669 30841 net.cpp:380] inception_4d/pool_proj <- inception_4d/pool
I0105 11:54:26.196683 30841 net.cpp:338] inception_4d/pool_proj -> inception_4d/pool_proj
I0105 11:54:26.196698 30841 net.cpp:113] Setting up inception_4d/pool_proj
I0105 11:54:26.198232 30841 net.cpp:120] Top shape: 50 64 14 14 (627200)
I0105 11:54:26.198271 30841 layer_factory.hpp:74] Creating layer inception_4d/relu_pool_proj
I0105 11:54:26.198287 30841 net.cpp:84] Creating Layer inception_4d/relu_pool_proj
I0105 11:54:26.198302 30841 net.cpp:380] inception_4d/relu_pool_proj <- inception_4d/pool_proj
I0105 11:54:26.198319 30841 net.cpp:327] inception_4d/relu_pool_proj -> inception_4d/pool_proj (in-place)
I0105 11:54:26.198339 30841 net.cpp:113] Setting up inception_4d/relu_pool_proj
I0105 11:54:26.198815 30841 net.cpp:120] Top shape: 50 64 14 14 (627200)
I0105 11:54:26.198839 30841 layer_factory.hpp:74] Creating layer inception_4d/output
I0105 11:54:26.198855 30841 net.cpp:84] Creating Layer inception_4d/output
I0105 11:54:26.198869 30841 net.cpp:380] inception_4d/output <- inception_4d/1x1
I0105 11:54:26.198884 30841 net.cpp:380] inception_4d/output <- inception_4d/3x3
I0105 11:54:26.198897 30841 net.cpp:380] inception_4d/output <- inception_4d/5x5
I0105 11:54:26.198910 30841 net.cpp:380] inception_4d/output <- inception_4d/pool_proj
I0105 11:54:26.198923 30841 net.cpp:338] inception_4d/output -> inception_4d/output
I0105 11:54:26.198942 30841 net.cpp:113] Setting up inception_4d/output
I0105 11:54:26.198959 30841 net.cpp:120] Top shape: 50 528 14 14 (5174400)
I0105 11:54:26.198969 30841 layer_factory.hpp:74] Creating layer inception_4d/output_inception_4d/output_0_split
I0105 11:54:26.198986 30841 net.cpp:84] Creating Layer inception_4d/output_inception_4d/output_0_split
I0105 11:54:26.198994 30841 net.cpp:380] inception_4d/output_inception_4d/output_0_split <- inception_4d/output
I0105 11:54:26.199014 30841 net.cpp:338] inception_4d/output_inception_4d/output_0_split -> inception_4d/output_inception_4d/output_0_split_0
I0105 11:54:26.199033 30841 net.cpp:338] inception_4d/output_inception_4d/output_0_split -> inception_4d/output_inception_4d/output_0_split_1
I0105 11:54:26.199050 30841 net.cpp:338] inception_4d/output_inception_4d/output_0_split -> inception_4d/output_inception_4d/output_0_split_2
I0105 11:54:26.199066 30841 net.cpp:338] inception_4d/output_inception_4d/output_0_split -> inception_4d/output_inception_4d/output_0_split_3
I0105 11:54:26.199079 30841 net.cpp:338] inception_4d/output_inception_4d/output_0_split -> inception_4d/output_inception_4d/output_0_split_4
I0105 11:54:26.199100 30841 net.cpp:113] Setting up inception_4d/output_inception_4d/output_0_split
I0105 11:54:26.199141 30841 net.cpp:120] Top shape: 50 528 14 14 (5174400)
I0105 11:54:26.199156 30841 net.cpp:120] Top shape: 50 528 14 14 (5174400)
I0105 11:54:26.199167 30841 net.cpp:120] Top shape: 50 528 14 14 (5174400)
I0105 11:54:26.199178 30841 net.cpp:120] Top shape: 50 528 14 14 (5174400)
I0105 11:54:26.199192 30841 net.cpp:120] Top shape: 50 528 14 14 (5174400)
I0105 11:54:26.199200 30841 layer_factory.hpp:74] Creating layer loss2/ave_pool
I0105 11:54:26.199216 30841 net.cpp:84] Creating Layer loss2/ave_pool
I0105 11:54:26.199229 30841 net.cpp:380] loss2/ave_pool <- inception_4d/output_inception_4d/output_0_split_0
I0105 11:54:26.199244 30841 net.cpp:338] loss2/ave_pool -> loss2/ave_pool
I0105 11:54:26.199261 30841 net.cpp:113] Setting up loss2/ave_pool
I0105 11:54:26.199434 30841 net.cpp:120] Top shape: 50 528 4 4 (422400)
I0105 11:54:26.199450 30841 layer_factory.hpp:74] Creating layer loss2/conv
I0105 11:54:26.199470 30841 net.cpp:84] Creating Layer loss2/conv
I0105 11:54:26.199481 30841 net.cpp:380] loss2/conv <- loss2/ave_pool
I0105 11:54:26.199501 30841 net.cpp:338] loss2/conv -> loss2/conv
I0105 11:54:26.199522 30841 net.cpp:113] Setting up loss2/conv
I0105 11:54:26.200978 30841 net.cpp:120] Top shape: 50 128 4 4 (102400)
I0105 11:54:26.200996 30841 layer_factory.hpp:74] Creating layer loss2/relu_conv
I0105 11:54:26.201007 30841 net.cpp:84] Creating Layer loss2/relu_conv
I0105 11:54:26.201014 30841 net.cpp:380] loss2/relu_conv <- loss2/conv
I0105 11:54:26.201030 30841 net.cpp:327] loss2/relu_conv -> loss2/conv (in-place)
I0105 11:54:26.201037 30841 net.cpp:113] Setting up loss2/relu_conv
I0105 11:54:26.201202 30841 net.cpp:120] Top shape: 50 128 4 4 (102400)
I0105 11:54:26.201210 30841 layer_factory.hpp:74] Creating layer loss2/fc
I0105 11:54:26.201222 30841 net.cpp:84] Creating Layer loss2/fc
I0105 11:54:26.201227 30841 net.cpp:380] loss2/fc <- loss2/conv
I0105 11:54:26.201234 30841 net.cpp:338] loss2/fc -> loss2/fc
I0105 11:54:26.201243 30841 net.cpp:113] Setting up loss2/fc
I0105 11:54:26.366902 30841 net.cpp:120] Top shape: 50 1024 (51200)
I0105 11:54:26.366941 30841 layer_factory.hpp:74] Creating layer loss2/relu_fc
I0105 11:54:26.366955 30841 net.cpp:84] Creating Layer loss2/relu_fc
I0105 11:54:26.366961 30841 net.cpp:380] loss2/relu_fc <- loss2/fc
I0105 11:54:26.366974 30841 net.cpp:327] loss2/relu_fc -> loss2/fc (in-place)
I0105 11:54:26.366986 30841 net.cpp:113] Setting up loss2/relu_fc
I0105 11:54:26.367112 30841 net.cpp:120] Top shape: 50 1024 (51200)
I0105 11:54:26.367120 30841 layer_factory.hpp:74] Creating layer loss2/drop_fc
I0105 11:54:26.367135 30841 net.cpp:84] Creating Layer loss2/drop_fc
I0105 11:54:26.367139 30841 net.cpp:380] loss2/drop_fc <- loss2/fc
I0105 11:54:26.367146 30841 net.cpp:327] loss2/drop_fc -> loss2/fc (in-place)
I0105 11:54:26.367152 30841 net.cpp:113] Setting up loss2/drop_fc
I0105 11:54:26.367161 30841 net.cpp:120] Top shape: 50 1024 (51200)
I0105 11:54:26.367166 30841 layer_factory.hpp:74] Creating layer loss2/classifier_kaggle
I0105 11:54:26.367177 30841 net.cpp:84] Creating Layer loss2/classifier_kaggle
I0105 11:54:26.367182 30841 net.cpp:380] loss2/classifier_kaggle <- loss2/fc
I0105 11:54:26.367188 30841 net.cpp:338] loss2/classifier_kaggle -> loss2/classifier_kaggle
I0105 11:54:26.367197 30841 net.cpp:113] Setting up loss2/classifier_kaggle
I0105 11:54:26.372189 30841 net.cpp:120] Top shape: 50 447 (22350)
I0105 11:54:26.372210 30841 layer_factory.hpp:74] Creating layer loss2/classifier_kaggle_loss2/classifier_kaggle_0_split
I0105 11:54:26.372218 30841 net.cpp:84] Creating Layer loss2/classifier_kaggle_loss2/classifier_kaggle_0_split
I0105 11:54:26.372225 30841 net.cpp:380] loss2/classifier_kaggle_loss2/classifier_kaggle_0_split <- loss2/classifier_kaggle
I0105 11:54:26.372231 30841 net.cpp:338] loss2/classifier_kaggle_loss2/classifier_kaggle_0_split -> loss2/classifier_kaggle_loss2/classifier_kaggle_0_split_0
I0105 11:54:26.372241 30841 net.cpp:338] loss2/classifier_kaggle_loss2/classifier_kaggle_0_split -> loss2/classifier_kaggle_loss2/classifier_kaggle_0_split_1
I0105 11:54:26.372272 30841 net.cpp:338] loss2/classifier_kaggle_loss2/classifier_kaggle_0_split -> loss2/classifier_kaggle_loss2/classifier_kaggle_0_split_2
I0105 11:54:26.372278 30841 net.cpp:113] Setting up loss2/classifier_kaggle_loss2/classifier_kaggle_0_split
I0105 11:54:26.372285 30841 net.cpp:120] Top shape: 50 447 (22350)
I0105 11:54:26.372290 30841 net.cpp:120] Top shape: 50 447 (22350)
I0105 11:54:26.372295 30841 net.cpp:120] Top shape: 50 447 (22350)
I0105 11:54:26.372299 30841 layer_factory.hpp:74] Creating layer loss2/loss
I0105 11:54:26.372309 30841 net.cpp:84] Creating Layer loss2/loss
I0105 11:54:26.372314 30841 net.cpp:380] loss2/loss <- loss2/classifier_kaggle_loss2/classifier_kaggle_0_split_0
I0105 11:54:26.372320 30841 net.cpp:380] loss2/loss <- label_data_1_split_3
I0105 11:54:26.372328 30841 net.cpp:338] loss2/loss -> loss2/loss1
…
I0105 11:54:26.372946 30841 net.cpp:338] loss2/top-5 -> loss2/top-5
I0105 11:54:26.372951 30841 net.cpp:113] Setting up loss2/top-5
I0105 11:54:26.372957 30841 net.cpp:120] Top shape: (1)
I0105 11:54:26.372961 30841 layer_factory.hpp:74] Creating layer inception_4e/1x1
I0105 11:54:26.372972 30841 net.cpp:84] Creating Layer inception_4e/1x1
I0105 11:54:26.372978 30841 net.cpp:380] inception_4e/1x1 <- inception_4d/output_inception_4d/output_0_split_1
I0105 11:54:26.372987 30841 net.cpp:338] inception_4e/1x1 -> inception_4e/1x1
I0105 11:54:26.372995 30841 net.cpp:113] Setting up inception_4e/1x1
I0105 11:54:26.374905 30841 net.cpp:120] Top shape: 50 256 14 14 (2508800)
I0105 11:54:26.374922 30841 layer_factory.hpp:74] Creating layer inception_4e/relu_1x1
I0105 11:54:26.374932 30841 net.cpp:84] Creating Layer inception_4e/relu_1x1
I0105 11:54:26.374936 30841 net.cpp:380] inception_4e/relu_1x1 <- inception_4e/1x1
I0105 11:54:26.374943 30841 net.cpp:327] inception_4e/relu_1x1 -> inception_4e/1x1 (in-place)
I0105 11:54:26.374950 30841 net.cpp:113] Setting up inception_4e/relu_1x1
I0105 11:54:26.375022 30841 net.cpp:120] Top shape: 50 256 14 14 (2508800)
I0105 11:54:26.375028 30841 layer_factory.hpp:74] Creating layer inception_4e/3x3_reduce
I0105 11:54:26.375056 30841 net.cpp:84] Creating Layer inception_4e/3x3_reduce
I0105 11:54:26.375062 30841 net.cpp:380] inception_4e/3x3_reduce <- inception_4d/output_inception_4d/output_0_split_2
I0105 11:54:26.375072 30841 net.cpp:338] inception_4e/3x3_reduce -> inception_4e/3x3_reduce
I0105 11:54:26.375080 30841 net.cpp:113] Setting up inception_4e/3x3_reduce
I0105 11:54:26.376407 30841 net.cpp:120] Top shape: 50 160 14 14 (1568000)
I0105 11:54:26.376422 30841 layer_factory.hpp:74] Creating layer inception_4e/relu_3x3_reduce
I0105 11:54:26.376433 30841 net.cpp:84] Creating Layer inception_4e/relu_3x3_reduce
I0105 11:54:26.376438 30841 net.cpp:380] inception_4e/relu_3x3_reduce <- inception_4e/3x3_reduce
I0105 11:54:26.376446 30841 net.cpp:327] inception_4e/relu_3x3_reduce -> inception_4e/3x3_reduce (in-place)
I0105 11:54:26.376457 30841 net.cpp:113] Setting up inception_4e/relu_3x3_reduce
I0105 11:54:26.376535 30841 net.cpp:120] Top shape: 50 160 14 14 (1568000)
I0105 11:54:26.376544 30841 layer_factory.hpp:74] Creating layer inception_4e/3x3
I0105 11:54:26.376552 30841 net.cpp:84] Creating Layer inception_4e/3x3
I0105 11:54:26.376559 30841 net.cpp:380] inception_4e/3x3 <- inception_4e/3x3_reduce
I0105 11:54:26.376566 30841 net.cpp:338] inception_4e/3x3 -> inception_4e/3x3
I0105 11:54:26.376574 30841 net.cpp:113] Setting up inception_4e/3x3
I0105 11:54:26.382140 30841 net.cpp:120] Top shape: 50 320 14 14 (3136000)
I0105 11:54:26.382160 30841 layer_factory.hpp:74] Creating layer inception_4e/relu_3x3
I0105 11:54:26.382169 30841 net.cpp:84] Creating Layer inception_4e/relu_3x3
I0105 11:54:26.382174 30841 net.cpp:380] inception_4e/relu_3x3 <- inception_4e/3x3
I0105 11:54:26.382182 30841 net.cpp:327] inception_4e/relu_3x3 -> inception_4e/3x3 (in-place)
I0105 11:54:26.382190 30841 net.cpp:113] Setting up inception_4e/relu_3x3
I0105 11:54:26.382428 30841 net.cpp:120] Top shape: 50 320 14 14 (3136000)
I0105 11:54:26.382439 30841 layer_factory.hpp:74] Creating layer inception_4e/5x5_reduce
I0105 11:54:26.382447 30841 net.cpp:84] Creating Layer inception_4e/5x5_reduce
I0105 11:54:26.382453 30841 net.cpp:380] inception_4e/5x5_reduce <- inception_4d/output_inception_4d/output_0_split_3
I0105 11:54:26.382462 30841 net.cpp:338] inception_4e/5x5_reduce -> inception_4e/5x5_reduce
I0105 11:54:26.382469 30841 net.cpp:113] Setting up inception_4e/5x5_reduce
I0105 11:54:26.383043 30841 net.cpp:120] Top shape: 50 32 14 14 (313600)
I0105 11:54:26.383056 30841 layer_factory.hpp:74] Creating layer inception_4e/relu_5x5_reduce
I0105 11:54:26.383065 30841 net.cpp:84] Creating Layer inception_4e/relu_5x5_reduce
I0105 11:54:26.383071 30841 net.cpp:380] inception_4e/relu_5x5_reduce <- inception_4e/5x5_reduce
I0105 11:54:26.383079 30841 net.cpp:327] inception_4e/relu_5x5_reduce -> inception_4e/5x5_reduce (in-place)
I0105 11:54:26.383087 30841 net.cpp:113] Setting up inception_4e/relu_5x5_reduce
I0105 11:54:26.383158 30841 net.cpp:120] Top shape: 50 32 14 14 (313600)
I0105 11:54:26.383165 30841 layer_factory.hpp:74] Creating layer inception_4e/5x5
I0105 11:54:26.383175 30841 net.cpp:84] Creating Layer inception_4e/5x5
I0105 11:54:26.383180 30841 net.cpp:380] inception_4e/5x5 <- inception_4e/5x5_reduce
I0105 11:54:26.383188 30841 net.cpp:338] inception_4e/5x5 -> inception_4e/5x5
I0105 11:54:26.383196 30841 net.cpp:113] Setting up inception_4e/5x5
I0105 11:54:26.384737 30841 net.cpp:120] Top shape: 50 128 14 14 (1254400)
I0105 11:54:26.384752 30841 layer_factory.hpp:74] Creating layer inception_4e/relu_5x5
I0105 11:54:26.384758 30841 net.cpp:84] Creating Layer inception_4e/relu_5x5
I0105 11:54:26.384764 30841 net.cpp:380] inception_4e/relu_5x5 <- inception_4e/5x5
I0105 11:54:26.384773 30841 net.cpp:327] inception_4e/relu_5x5 -> inception_4e/5x5 (in-place)
I0105 11:54:26.384779 30841 net.cpp:113] Setting up inception_4e/relu_5x5
I0105 11:54:26.384852 30841 net.cpp:120] Top shape: 50 128 14 14 (1254400)
I0105 11:54:26.384858 30841 layer_factory.hpp:74] Creating layer inception_4e/pool
I0105 11:54:26.384865 30841 layer_factory.cpp:56] CUDNN does not support padding or multiple tops. Using Caffe's own pooling layer.
I0105 11:54:26.384872 30841 net.cpp:84] Creating Layer inception_4e/pool
I0105 11:54:26.384878 30841 net.cpp:380] inception_4e/pool <- inception_4d/output_inception_4d/output_0_split_4
I0105 11:54:26.384884 30841 net.cpp:338] inception_4e/pool -> inception_4e/pool
I0105 11:54:26.384891 30841 net.cpp:113] Setting up inception_4e/pool
I0105 11:54:26.384902 30841 net.cpp:120] Top shape: 50 528 14 14 (5174400)
I0105 11:54:26.384905 30841 layer_factory.hpp:74] Creating layer inception_4e/pool_proj
I0105 11:54:26.384917 30841 net.cpp:84] Creating Layer inception_4e/pool_proj
I0105 11:54:26.384922 30841 net.cpp:380] inception_4e/pool_proj <- inception_4e/pool
I0105 11:54:26.384927 30841 net.cpp:338] inception_4e/pool_proj -> inception_4e/pool_proj
I0105 11:54:26.384940 30841 net.cpp:113] Setting up inception_4e/pool_proj
I0105 11:54:26.386178 30841 net.cpp:120] Top shape: 50 128 14 14 (1254400)
I0105 11:54:26.386194 30841 layer_factory.hpp:74] Creating layer inception_4e/relu_pool_proj
I0105 11:54:26.386204 30841 net.cpp:84] Creating Layer inception_4e/relu_pool_proj
I0105 11:54:26.386209 30841 net.cpp:380] inception_4e/relu_pool_proj <- inception_4e/pool_proj
I0105 11:54:26.386215 30841 net.cpp:327] inception_4e/relu_pool_proj -> inception_4e/pool_proj (in-place)
I0105 11:54:26.386222 30841 net.cpp:113] Setting up inception_4e/relu_pool_proj
I0105 11:54:26.386288 30841 net.cpp:120] Top shape: 50 128 14 14 (1254400)
I0105 11:54:26.386294 30841 layer_factory.hpp:74] Creating layer inception_4e/output
I0105 11:54:26.386303 30841 net.cpp:84] Creating Layer inception_4e/output
I0105 11:54:26.386308 30841 net.cpp:380] inception_4e/output <- inception_4e/1x1
I0105 11:54:26.386313 30841 net.cpp:380] inception_4e/output <- inception_4e/3x3
I0105 11:54:26.386319 30841 net.cpp:380] inception_4e/output <- inception_4e/5x5
I0105 11:54:26.386324 30841 net.cpp:380] inception_4e/output <- inception_4e/pool_proj
I0105 11:54:26.386332 30841 net.cpp:338] inception_4e/output -> inception_4e/output
I0105 11:54:26.386338 30841 net.cpp:113] Setting up inception_4e/output
I0105 11:54:26.386345 30841 net.cpp:120] Top shape: 50 832 14 14 (8153600)
I0105 11:54:26.386350 30841 layer_factory.hpp:74] Creating layer pool4/3x3_s2
I0105 11:54:26.386356 30841 net.cpp:84] Creating Layer pool4/3x3_s2
I0105 11:54:26.386361 30841 net.cpp:380] pool4/3x3_s2 <- inception_4e/output
I0105 11:54:26.386369 30841 net.cpp:338] pool4/3x3_s2 -> pool4/3x3_s2
I0105 11:54:26.386376 30841 net.cpp:113] Setting up pool4/3x3_s2
I0105 11:54:26.386632 30841 net.cpp:120] Top shape: 50 832 7 7 (2038400)
I0105 11:54:26.386643 30841 layer_factory.hpp:74] Creating layer pool4/3x3_s2_pool4/3x3_s2_0_split
I0105 11:54:26.386654 30841 net.cpp:84] Creating Layer pool4/3x3_s2_pool4/3x3_s2_0_split
I0105 11:54:26.386659 30841 net.cpp:380] pool4/3x3_s2_pool4/3x3_s2_0_split <- pool4/3x3_s2
I0105 11:54:26.386667 30841 net.cpp:338] pool4/3x3_s2_pool4/3x3_s2_0_split -> pool4/3x3_s2_pool4/3x3_s2_0_split_0
I0105 11:54:26.386674 30841 net.cpp:338] pool4/3x3_s2_pool4/3x3_s2_0_split -> pool4/3x3_s2_pool4/3x3_s2_0_split_1
I0105 11:54:26.386683 30841 net.cpp:338] pool4/3x3_s2_pool4/3x3_s2_0_split -> pool4/3x3_s2_pool4/3x3_s2_0_split_2
I0105 11:54:26.386708 30841 net.cpp:338] pool4/3x3_s2_pool4/3x3_s2_0_split -> pool4/3x3_s2_pool4/3x3_s2_0_split_3
I0105 11:54:26.386718 30841 net.cpp:113] Setting up pool4/3x3_s2_pool4/3x3_s2_0_split
I0105 11:54:26.386724 30841 net.cpp:120] Top shape: 50 832 7 7 (2038400)
I0105 11:54:26.386729 30841 net.cpp:120] Top shape: 50 832 7 7 (2038400)
I0105 11:54:26.386735 30841 net.cpp:120] Top shape: 50 832 7 7 (2038400)
I0105 11:54:26.386740 30841 net.cpp:120] Top shape: 50 832 7 7 (2038400)
I0105 11:54:26.386744 30841 layer_factory.hpp:74] Creating layer inception_5a/1x1
I0105 11:54:26.386754 30841 net.cpp:84] Creating Layer inception_5a/1x1
I0105 11:54:26.386759 30841 net.cpp:380] inception_5a/1x1 <- pool4/3x3_s2_pool4/3x3_s2_0_split_0
I0105 11:54:26.386767 30841 net.cpp:338] inception_5a/1x1 -> inception_5a/1x1
I0105 11:54:26.386775 30841 net.cpp:113] Setting up inception_5a/1x1
I0105 11:54:26.389420 30841 net.cpp:120] Top shape: 50 256 7 7 (627200)
I0105 11:54:26.389436 30841 layer_factory.hpp:74] Creating layer inception_5a/relu_1x1
I0105 11:54:26.389443 30841 net.cpp:84] Creating Layer inception_5a/relu_1x1
I0105 11:54:26.389448 30841 net.cpp:380] inception_5a/relu_1x1 <- inception_5a/1x1
I0105 11:54:26.389454 30841 net.cpp:327] inception_5a/relu_1x1 -> inception_5a/1x1 (in-place)
I0105 11:54:26.389462 30841 net.cpp:113] Setting up inception_5a/relu_1x1
I0105 11:54:26.389529 30841 net.cpp:120] Top shape: 50 256 7 7 (627200)
I0105 11:54:26.389535 30841 layer_factory.hpp:74] Creating layer inception_5a/3x3_reduce
I0105 11:54:26.389544 30841 net.cpp:84] Creating Layer inception_5a/3x3_reduce
I0105 11:54:26.389554 30841 net.cpp:380] inception_5a/3x3_reduce <- pool4/3x3_s2_pool4/3x3_s2_0_split_1
I0105 11:54:26.389571 30841 net.cpp:338] inception_5a/3x3_reduce -> inception_5a/3x3_reduce
I0105 11:54:26.389581 30841 net.cpp:113] Setting up inception_5a/3x3_reduce
I0105 11:54:26.391401 30841 net.cpp:120] Top shape: 50 160 7 7 (392000)
I0105 11:54:26.391415 30841 layer_factory.hpp:74] Creating layer inception_5a/relu_3x3_reduce
I0105 11:54:26.391422 30841 net.cpp:84] Creating Layer inception_5a/relu_3x3_reduce
I0105 11:54:26.391427 30841 net.cpp:380] inception_5a/relu_3x3_reduce <- inception_5a/3x3_reduce
I0105 11:54:26.391433 30841 net.cpp:327] inception_5a/relu_3x3_reduce -> inception_5a/3x3_reduce (in-place)
I0105 11:54:26.391440 30841 net.cpp:113] Setting up inception_5a/relu_3x3_reduce
I0105 11:54:26.391510 30841 net.cpp:120] Top shape: 50 160 7 7 (392000)
I0105 11:54:26.391516 30841 layer_factory.hpp:74] Creating layer inception_5a/3x3
I0105 11:54:26.391526 30841 net.cpp:84] Creating Layer inception_5a/3x3
I0105 11:54:26.391531 30841 net.cpp:380] inception_5a/3x3 <- inception_5a/3x3_reduce
I0105 11:54:26.391537 30841 net.cpp:338] inception_5a/3x3 -> inception_5a/3x3
I0105 11:54:26.391546 30841 net.cpp:113] Setting up inception_5a/3x3
I0105 11:54:26.396878 30841 net.cpp:120] Top shape: 50 320 7 7 (784000)
I0105 11:54:26.396893 30841 layer_factory.hpp:74] Creating layer inception_5a/relu_3x3
I0105 11:54:26.396900 30841 net.cpp:84] Creating Layer inception_5a/relu_3x3
I0105 11:54:26.396909 30841 net.cpp:380] inception_5a/relu_3x3 <- inception_5a/3x3
I0105 11:54:26.396915 30841 net.cpp:327] inception_5a/relu_3x3 -> inception_5a/3x3 (in-place)
I0105 11:54:26.396922 30841 net.cpp:113] Setting up inception_5a/relu_3x3
I0105 11:54:26.396988 30841 net.cpp:120] Top shape: 50 320 7 7 (784000)
I0105 11:54:26.396994 30841 layer_factory.hpp:74] Creating layer inception_5a/5x5_reduce
I0105 11:54:26.397006 30841 net.cpp:84] Creating Layer inception_5a/5x5_reduce
I0105 11:54:26.397011 30841 net.cpp:380] inception_5a/5x5_reduce <- pool4/3x3_s2_pool4/3x3_s2_0_split_2
I0105 11:54:26.397025 30841 net.cpp:338] inception_5a/5x5_reduce -> inception_5a/5x5_reduce
I0105 11:54:26.397034 30841 net.cpp:113] Setting up inception_5a/5x5_reduce
I0105 11:54:26.397737 30841 net.cpp:120] Top shape: 50 32 7 7 (78400)
I0105 11:54:26.397752 30841 layer_factory.hpp:74] Creating layer inception_5a/relu_5x5_reduce
I0105 11:54:26.397761 30841 net.cpp:84] Creating Layer inception_5a/relu_5x5_reduce
I0105 11:54:26.397768 30841 net.cpp:380] inception_5a/relu_5x5_reduce <- inception_5a/5x5_reduce
I0105 11:54:26.397773 30841 net.cpp:327] inception_5a/relu_5x5_reduce -> inception_5a/5x5_reduce (in-place)
I0105 11:54:26.397780 30841 net.cpp:113] Setting up inception_5a/relu_5x5_reduce
I0105 11:54:26.398027 30841 net.cpp:120] Top shape: 50 32 7 7 (78400)
I0105 11:54:26.398039 30841 layer_factory.hpp:74] Creating layer inception_5a/5x5
I0105 11:54:26.398048 30841 net.cpp:84] Creating Layer inception_5a/5x5
I0105 11:54:26.398054 30841 net.cpp:380] inception_5a/5x5 <- inception_5a/5x5_reduce
I0105 11:54:26.398063 30841 net.cpp:338] inception_5a/5x5 -> inception_5a/5x5
I0105 11:54:26.398072 30841 net.cpp:113] Setting up inception_5a/5x5
I0105 11:54:26.399577 30841 net.cpp:120] Top shape: 50 128 7 7 (313600)
I0105 11:54:26.399592 30841 layer_factory.hpp:74] Creating layer inception_5a/relu_5x5
I0105 11:54:26.399601 30841 net.cpp:84] Creating Layer inception_5a/relu_5x5
I0105 11:54:26.399606 30841 net.cpp:380] inception_5a/relu_5x5 <- inception_5a/5x5
I0105 11:54:26.399613 30841 net.cpp:327] inception_5a/relu_5x5 -> inception_5a/5x5 (in-place)
I0105 11:54:26.399621 30841 net.cpp:113] Setting up inception_5a/relu_5x5
I0105 11:54:26.399691 30841 net.cpp:120] Top shape: 50 128 7 7 (313600)
I0105 11:54:26.399698 30841 layer_factory.hpp:74] Creating layer inception_5a/pool
I0105 11:54:26.399703 30841 layer_factory.cpp:56] CUDNN does not support padding or multiple tops. Using Caffe's own pooling layer.
I0105 11:54:26.399710 30841 net.cpp:84] Creating Layer inception_5a/pool
I0105 11:54:26.399720 30841 net.cpp:380] inception_5a/pool <- pool4/3x3_s2_pool4/3x3_s2_0_split_3
I0105 11:54:26.399734 30841 net.cpp:338] inception_5a/pool -> inception_5a/pool
I0105 11:54:26.399745 30841 net.cpp:113] Setting up inception_5a/pool
I0105 11:54:26.399754 30841 net.cpp:120] Top shape: 50 832 7 7 (2038400)
I0105 11:54:26.399757 30841 layer_factory.hpp:74] Creating layer inception_5a/pool_proj
I0105 11:54:26.399765 30841 net.cpp:84] Creating Layer inception_5a/pool_proj
I0105 11:54:26.399770 30841 net.cpp:380] inception_5a/pool_proj <- inception_5a/pool
I0105 11:54:26.399778 30841 net.cpp:338] inception_5a/pool_proj -> inception_5a/pool_proj
I0105 11:54:26.399785 30841 net.cpp:113] Setting up inception_5a/pool_proj
I0105 11:54:26.401362 30841 net.cpp:120] Top shape: 50 128 7 7 (313600)
I0105 11:54:26.401381 30841 layer_factory.hpp:74] Creating layer inception_5a/relu_pool_proj
I0105 11:54:26.401391 30841 net.cpp:84] Creating Layer inception_5a/relu_pool_proj
I0105 11:54:26.401396 30841 net.cpp:380] inception_5a/relu_pool_proj <- inception_5a/pool_proj
I0105 11:54:26.401403 30841 net.cpp:327] inception_5a/relu_pool_proj -> inception_5a/pool_proj (in-place)
I0105 11:54:26.401410 30841 net.cpp:113] Setting up inception_5a/relu_pool_proj
I0105 11:54:26.401478 30841 net.cpp:120] Top shape: 50 128 7 7 (313600)
I0105 11:54:26.401484 30841 layer_factory.hpp:74] Creating layer inception_5a/output
I0105 11:54:26.401494 30841 net.cpp:84] Creating Layer inception_5a/output
I0105 11:54:26.401499 30841 net.cpp:380] inception_5a/output <- inception_5a/1x1
I0105 11:54:26.401504 30841 net.cpp:380] inception_5a/output <- inception_5a/3x3
I0105 11:54:26.401510 30841 net.cpp:380] inception_5a/output <- inception_5a/5x5
I0105 11:54:26.401515 30841 net.cpp:380] inception_5a/output <- inception_5a/pool_proj
I0105 11:54:26.401521 30841 net.cpp:338] inception_5a/output -> inception_5a/output
I0105 11:54:26.401528 30841 net.cpp:113] Setting up inception_5a/output
I0105 11:54:26.401535 30841 net.cpp:120] Top shape: 50 832 7 7 (2038400)
I0105 11:54:26.401540 30841 layer_factory.hpp:74] Creating layer inception_5a/output_inception_5a/output_0_split
I0105 11:54:26.401547 30841 net.cpp:84] Creating Layer inception_5a/output_inception_5a/output_0_split
I0105 11:54:26.401551 30841 net.cpp:380] inception_5a/output_inception_5a/output_0_split <- inception_5a/output
I0105 11:54:26.401559 30841 net.cpp:338] inception_5a/output_inception_5a/output_0_split -> inception_5a/output_inception_5a/output_0_split_0
I0105 11:54:26.401567 30841 net.cpp:338] inception_5a/output_inception_5a/output_0_split -> inception_5a/output_inception_5a/output_0_split_1
I0105 11:54:26.401574 30841 net.cpp:338] inception_5a/output_inception_5a/output_0_split -> inception_5a/output_inception_5a/output_0_split_2
I0105 11:54:26.401581 30841 net.cpp:338] inception_5a/output_inception_5a/output_0_split -> inception_5a/output_inception_5a/output_0_split_3
I0105 11:54:26.401587 30841 net.cpp:113] Setting up inception_5a/output_inception_5a/output_0_split
I0105 11:54:26.401593 30841 net.cpp:120] Top shape: 50 832 7 7 (2038400)
I0105 11:54:26.401598 30841 net.cpp:120] Top shape: 50 832 7 7 (2038400)
I0105 11:54:26.401602 30841 net.cpp:120] Top shape: 50 832 7 7 (2038400)
I0105 11:54:26.401607 30841 net.cpp:120] Top shape: 50 832 7 7 (2038400)
I0105 11:54:26.401612 30841 layer_factory.hpp:74] Creating layer inception_5b/1x1
I0105 11:54:26.401623 30841 net.cpp:84] Creating Layer inception_5b/1x1
I0105 11:54:26.401628 30841 net.cpp:380] inception_5b/1x1 <- inception_5a/output_inception_5a/output_0_split_0
I0105 11:54:26.401633 30841 net.cpp:338] inception_5b/1x1 -> inception_5b/1x1
I0105 11:54:26.401640 30841 net.cpp:113] Setting up inception_5b/1x1
I0105 11:54:26.405550 30841 net.cpp:120] Top shape: 50 384 7 7 (940800)
I0105 11:54:26.405570 30841 layer_factory.hpp:74] Creating layer inception_5b/relu_1x1
I0105 11:54:26.405577 30841 net.cpp:84] Creating Layer inception_5b/relu_1x1
I0105 11:54:26.405582 30841 net.cpp:380] inception_5b/relu_1x1 <- inception_5b/1x1
I0105 11:54:26.405596 30841 net.cpp:327] inception_5b/relu_1x1 -> inception_5b/1x1 (in-place)
I0105 11:54:26.405612 30841 net.cpp:113] Setting up inception_5b/relu_1x1
I0105 11:54:26.405684 30841 net.cpp:120] Top shape: 50 384 7 7 (940800)
I0105 11:54:26.405690 30841 layer_factory.hpp:74] Creating layer inception_5b/3x3_reduce
I0105 11:54:26.405700 30841 net.cpp:84] Creating Layer inception_5b/3x3_reduce
I0105 11:54:26.405706 30841 net.cpp:380] inception_5b/3x3_reduce <- inception_5a/output_inception_5a/output_0_split_1
I0105 11:54:26.405714 30841 net.cpp:338] inception_5b/3x3_reduce -> inception_5b/3x3_reduce
I0105 11:54:26.405721 30841 net.cpp:113] Setting up inception_5b/3x3_reduce
I0105 11:54:26.407888 30841 net.cpp:120] Top shape: 50 192 7 7 (470400)
I0105 11:54:26.407904 30841 layer_factory.hpp:74] Creating layer inception_5b/relu_3x3_reduce
I0105 11:54:26.407912 30841 net.cpp:84] Creating Layer inception_5b/relu_3x3_reduce
I0105 11:54:26.407917 30841 net.cpp:380] inception_5b/relu_3x3_reduce <- inception_5b/3x3_reduce
I0105 11:54:26.407923 30841 net.cpp:327] inception_5b/relu_3x3_reduce -> inception_5b/3x3_reduce (in-place)
I0105 11:54:26.407930 30841 net.cpp:113] Setting up inception_5b/relu_3x3_reduce
I0105 11:54:26.408180 30841 net.cpp:120] Top shape: 50 192 7 7 (470400)
I0105 11:54:26.408190 30841 layer_factory.hpp:74] Creating layer inception_5b/3x3
I0105 11:54:26.408200 30841 net.cpp:84] Creating Layer inception_5b/3x3
I0105 11:54:26.408205 30841 net.cpp:380] inception_5b/3x3 <- inception_5b/3x3_reduce
I0105 11:54:26.408212 30841 net.cpp:338] inception_5b/3x3 -> inception_5b/3x3
I0105 11:54:26.408221 30841 net.cpp:113] Setting up inception_5b/3x3
I0105 11:54:26.415895 30841 net.cpp:120] Top shape: 50 384 7 7 (940800)
I0105 11:54:26.415912 30841 layer_factory.hpp:74] Creating layer inception_5b/relu_3x3
I0105 11:54:26.415920 30841 net.cpp:84] Creating Layer inception_5b/relu_3x3
I0105 11:54:26.415925 30841 net.cpp:380] inception_5b/relu_3x3 <- inception_5b/3x3
I0105 11:54:26.415931 30841 net.cpp:327] inception_5b/relu_3x3 -> inception_5b/3x3 (in-place)
I0105 11:54:26.415938 30841 net.cpp:113] Setting up inception_5b/relu_3x3
I0105 11:54:26.416007 30841 net.cpp:120] Top shape: 50 384 7 7 (940800)
I0105 11:54:26.416013 30841 layer_factory.hpp:74] Creating layer inception_5b/5x5_reduce
I0105 11:54:26.416021 30841 net.cpp:84] Creating Layer inception_5b/5x5_reduce
I0105 11:54:26.416028 30841 net.cpp:380] inception_5b/5x5_reduce <- inception_5a/output_inception_5a/output_0_split_2
I0105 11:54:26.416035 30841 net.cpp:338] inception_5b/5x5_reduce -> inception_5b/5x5_reduce
I0105 11:54:26.416043 30841 net.cpp:113] Setting up inception_5b/5x5_reduce
I0105 11:54:26.416890 30841 net.cpp:120] Top shape: 50 48 7 7 (117600)
I0105 11:54:26.416905 30841 layer_factory.hpp:74] Creating layer inception_5b/relu_5x5_reduce
I0105 11:54:26.416913 30841 net.cpp:84] Creating Layer inception_5b/relu_5x5_reduce
I0105 11:54:26.416918 30841 net.cpp:380] inception_5b/relu_5x5_reduce <- inception_5b/5x5_reduce
I0105 11:54:26.416924 30841 net.cpp:327] inception_5b/relu_5x5_reduce -> inception_5b/5x5_reduce (in-place)
I0105 11:54:26.416931 30841 net.cpp:113] Setting up inception_5b/relu_5x5_reduce
I0105 11:54:26.417001 30841 net.cpp:120] Top shape: 50 48 7 7 (117600)
I0105 11:54:26.417008 30841 layer_factory.hpp:74] Creating layer inception_5b/5x5
I0105 11:54:26.417026 30841 net.cpp:84] Creating Layer inception_5b/5x5
I0105 11:54:26.417032 30841 net.cpp:380] inception_5b/5x5 <- inception_5b/5x5_reduce
I0105 11:54:26.417039 30841 net.cpp:338] inception_5b/5x5 -> inception_5b/5x5
I0105 11:54:26.417047 30841 net.cpp:113] Setting up inception_5b/5x5
I0105 11:54:26.419123 30841 net.cpp:120] Top shape: 50 128 7 7 (313600)
I0105 11:54:26.419140 30841 layer_factory.hpp:74] Creating layer inception_5b/relu_5x5
I0105 11:54:26.419147 30841 net.cpp:84] Creating Layer inception_5b/relu_5x5
I0105 11:54:26.419153 30841 net.cpp:380] inception_5b/relu_5x5 <- inception_5b/5x5
I0105 11:54:26.419159 30841 net.cpp:327] inception_5b/relu_5x5 -> inception_5b/5x5 (in-place)
I0105 11:54:26.419176 30841 net.cpp:113] Setting up inception_5b/relu_5x5
I0105 11:54:26.419430 30841 net.cpp:120] Top shape: 50 128 7 7 (313600)
I0105 11:54:26.419442 30841 layer_factory.hpp:74] Creating layer inception_5b/pool
I0105 11:54:26.419448 30841 layer_factory.cpp:56] CUDNN does not support padding or multiple tops. Using Caffe's own pooling layer.
I0105 11:54:26.419455 30841 net.cpp:84] Creating Layer inception_5b/pool
I0105 11:54:26.419461 30841 net.cpp:380] inception_5b/pool <- inception_5a/output_inception_5a/output_0_split_3
I0105 11:54:26.419467 30841 net.cpp:338] inception_5b/pool -> inception_5b/pool
I0105 11:54:26.419474 30841 net.cpp:113] Setting up inception_5b/pool
I0105 11:54:26.419483 30841 net.cpp:120] Top shape: 50 832 7 7 (2038400)
I0105 11:54:26.419488 30841 layer_factory.hpp:74] Creating layer inception_5b/pool_proj
I0105 11:54:26.419498 30841 net.cpp:84] Creating Layer inception_5b/pool_proj
I0105 11:54:26.419503 30841 net.cpp:380] inception_5b/pool_proj <- inception_5b/pool
I0105 11:54:26.419512 30841 net.cpp:338] inception_5b/pool_proj -> inception_5b/pool_proj
I0105 11:54:26.419519 30841 net.cpp:113] Setting up inception_5b/pool_proj
I0105 11:54:26.421092 30841 net.cpp:120] Top shape: 50 128 7 7 (313600)
I0105 11:54:26.421108 30841 layer_factory.hpp:74] Creating layer inception_5b/relu_pool_proj
I0105 11:54:26.421119 30841 net.cpp:84] Creating Layer inception_5b/relu_pool_proj
I0105 11:54:26.421124 30841 net.cpp:380] inception_5b/relu_pool_proj <- inception_5b/pool_proj
I0105 11:54:26.421133 30841 net.cpp:327] inception_5b/relu_pool_proj -> inception_5b/pool_proj (in-place)
I0105 11:54:26.421140 30841 net.cpp:113] Setting up inception_5b/relu_pool_proj
I0105 11:54:26.421210 30841 net.cpp:120] Top shape: 50 128 7 7 (313600)
I0105 11:54:26.421216 30841 layer_factory.hpp:74] Creating layer inception_5b/output
I0105 11:54:26.421224 30841 net.cpp:84] Creating Layer inception_5b/output
I0105 11:54:26.421229 30841 net.cpp:380] inception_5b/output <- inception_5b/1x1
I0105 11:54:26.421236 30841 net.cpp:380] inception_5b/output <- inception_5b/3x3
I0105 11:54:26.421241 30841 net.cpp:380] inception_5b/output <- inception_5b/5x5
I0105 11:54:26.421246 30841 net.cpp:380] inception_5b/output <- inception_5b/pool_proj
I0105 11:54:26.421255 30841 net.cpp:338] inception_5b/output -> inception_5b/output
I0105 11:54:26.421262 30841 net.cpp:113] Setting up inception_5b/output
I0105 11:54:26.421270 30841 net.cpp:120] Top shape: 50 1024 7 7 (2508800)
I0105 11:54:26.421274 30841 layer_factory.hpp:74] Creating layer pool5/7x7_s1
I0105 11:54:26.421282 30841 net.cpp:84] Creating Layer pool5/7x7_s1
I0105 11:54:26.421286 30841 net.cpp:380] pool5/7x7_s1 <- inception_5b/output
I0105 11:54:26.421294 30841 net.cpp:338] pool5/7x7_s1 -> pool5/7x7_s1
I0105 11:54:26.421301 30841 net.cpp:113] Setting up pool5/7x7_s1
I0105 11:54:26.421371 30841 net.cpp:120] Top shape: 50 1024 1 1 (51200)
I0105 11:54:26.421378 30841 layer_factory.hpp:74] Creating layer pool5/drop_7x7_s1
I0105 11:54:26.421389 30841 net.cpp:84] Creating Layer pool5/drop_7x7_s1
I0105 11:54:26.421394 30841 net.cpp:380] pool5/drop_7x7_s1 <- pool5/7x7_s1
I0105 11:54:26.421399 30841 net.cpp:327] pool5/drop_7x7_s1 -> pool5/7x7_s1 (in-place)
I0105 11:54:26.421406 30841 net.cpp:113] Setting up pool5/drop_7x7_s1
I0105 11:54:26.421414 30841 net.cpp:120] Top shape: 50 1024 1 1 (51200)
I0105 11:54:26.421418 30841 layer_factory.hpp:74] Creating layer loss3/classifier_kaggle
I0105 11:54:26.421430 30841 net.cpp:84] Creating Layer loss3/classifier_kaggle
I0105 11:54:26.421434 30841 net.cpp:380] loss3/classifier_kaggle <- pool5/7x7_s1
I0105 11:54:26.421442 30841 net.cpp:338] loss3/classifier_kaggle -> loss3/classifier_kaggle
I0105 11:54:26.421449 30841 net.cpp:113] Setting up loss3/classifier_kaggle
I0105 11:54:26.426448 30841 net.cpp:120] Top shape: 50 447 (22350)
I0105 11:54:26.426461 30841 layer_factory.hpp:74] Creating layer loss3/classifier_kaggle_loss3/classifier_kaggle_0_split
I0105 11:54:26.426470 30841 net.cpp:84] Creating Layer loss3/classifier_kaggle_loss3/classifier_kaggle_0_split
I0105 11:54:26.426481 30841 net.cpp:380] loss3/classifier_kaggle_loss3/classifier_kaggle_0_split <- loss3/classifier_kaggle
I0105 11:54:26.426493 30841 net.cpp:338] loss3/classifier_kaggle_loss3/classifier_kaggle_0_split -> loss3/classifier_kaggle_loss3/classifier_kaggle_0_split_0
I0105 11:54:26.426502 30841 net.cpp:338] loss3/classifier_kaggle_loss3/classifier_kaggle_0_split -> loss3/classifier_kaggle_loss3/classifier_kaggle_0_split_1
I0105 11:54:26.426511 30841 net.cpp:338] loss3/classifier_kaggle_loss3/classifier_kaggle_0_split -> loss3/classifier_kaggle_loss3/classifier_kaggle_0_split_2
I0105 11:54:26.426517 30841 net.cpp:113] Setting up loss3/classifier_kaggle_loss3/classifier_kaggle_0_split
I0105 11:54:26.426524 30841 net.cpp:120] Top shape: 50 447 (22350)
I0105 11:54:26.426529 30841 net.cpp:120] Top shape: 50 447 (22350)
I0105 11:54:26.426534 30841 net.cpp:120] Top shape: 50 447 (22350)
I0105 11:54:26.426538 30841 layer_factory.hpp:74] Creating layer loss3/loss3
I0105 11:54:26.426545 30841 net.cpp:84] Creating Layer loss3/loss3
I0105 11:54:26.426549 30841 net.cpp:380] loss3/loss3 <- loss3/classifier_kaggle_loss3/classifier_kaggle_0_split_0
I0105 11:54:26.426555 30841 net.cpp:380] loss3/loss3 <- label_data_1_split_6
I0105 11:54:26.426564 30841 net.cpp:338] loss3/loss3 -> loss3/loss3
…
