…
I1218 17:10:10.767720 27366 net.cpp:257] The NetState phase (0) differed from the phase (1) specified by a rule in layer loss3/top-5
I1218 17:10:10.769800 27366 net.cpp:42] Initializing net from parameters: 
name: "MYNET"
state {
  phase: TRAIN
}
layer {
  name: "data"
  type: "ImageData"
  top: "data"
  top: "label"
  include {
    phase: TRAIN
  }
  transform_param {
    mirror: false
    crop_size: 224
    mean_value: 129
    mean_value: 129
    mean_value: 129
  }
  image_data_param {
    source: "/home/coldmanck/kaggle/label_train_full.txt"
    batch_size: 80
    shuffle: true
  }
}
layer {
  name: "conv1/7x7_s2"
  type: "Convolution"
  bottom: "data"
  top: "conv1/7x7_s2"
  param {
    lr_mult: 1
    decay_mult: 1
  }
  param {
    lr_mult: 2
    decay_mult: 0
  }
  convolution_param {
    num_output: 64
    pad: 3
    kernel_size: 7
    stride: 2
    weight_filler {
      type: "xavier"
    }
    bias_filler {
      type: "constant"
      value: 0.2
    }
  }
}
layer {
  name: "conv1/relu_7x7"
  type: "ReLU"
  bottom: "conv1/7x7_s2"
  top: "conv1/7x7_s2"
}
layer {
  name: "pool1/3x3_s2"
  type: "Pooling"
  bottom: "conv1/7x7_s2"
  top: "pool1/3x3_s2"
  pooling_param {
    pool: MAX
    kernel_size: 3
    stride: 2
  }
}
layer {
  name: "pool1/norm1"
  type: "LRN"
  bottom: "pool1/3x3_s2"
  top: "pool1/norm1"
  lrn_param {
    local_size: 5
    alpha: 0.0001
    beta: 0.75
  }
}
layer {
  name: "conv2/3x3_reduce"
  type: "Convolution"
  bottom: "pool1/norm1"
  top: "conv2/3x3_reduce"
  param {
    lr_mult: 1
    decay_mult: 1
  }
  param {
    lr_mult: 2
    decay_mult: 0
  }
  convolution_param {
    num_output: 64
    kernel_size: 1
    weight_filler {
      type: "xavier"
    }
    bias_filler {
      type: "constant"
      value: 0.2
    }
  }
}
layer {
  name: "conv2/relu_3x3_reduce"
  type: "ReLU"
  bottom: "conv2/3x3_reduce"
  top: "conv2/3x3_reduce"
}
layer {
  name: "conv2/3x3"
  type: "Convolution"
  bottom: "conv2/3x3_reduce"
  top: "conv2/3x3"
  param {
    lr_mult: 1
    decay_mult: 1
  }
  param {
    lr_mult: 2
    decay_mult: 0
  }
  convolution_param {
    num_output: 192
    pad: 1
    kernel_size: 3
    weight_filler {
      type: "xavier"
    }
    bias_filler {
      type: "constant"
      value: 0.2
    }
  }
}
layer {
  name: "conv2/relu_3x3"
  type: "ReLU"
  bottom: "conv2/3x3"
  top: "conv2/3x3"
}
layer {
  name: "conv2/norm2"
  type: "LRN"
  bottom: "conv2/3x3"
  top: "conv2/norm2"
  lrn_param {
    local_size: 5
    alpha: 0.0001
    beta: 0.75
  }
}
layer {
  name: "pool2/3x3_s2"
  type: "Pooling"
  bottom: "conv2/norm2"
  top: "pool2/3x3_s2"
  pooling_param {
    pool: MAX
    kernel_size: 3
    stride: 2
  }
}
layer {
  name: "inception_3a/1x1"
  type: "Convolution"
  bottom: "pool2/3x3_s2"
  top: "inception_3a/1x1"
  param {
    lr_mult: 1
    decay_mult: 1
  }
  param {
    lr_mult: 2
    decay_mult: 0
  }
  convolution_param {
    num_output: 64
    kernel_size: 1
    weight_filler {
      type: "xavier"
    }
    bias_filler {
      type: "constant"
      value: 0.2
    }
  }
}
layer {
  name: "inception_3a/relu_1x1"
  type: "ReLU"
  bottom: "inception_3a/1x1"
  top: "inception_3a/1x1"
}
layer {
  name: "inception_3a/3x3_reduce"
  type: "Convolution"
  bottom: "pool2/3x3_s2"
  top: "inception_3a/3x3_reduce"
  param {
    lr_mult: 1
    decay_mult: 1
  }
  param {
    lr_mult: 2
    decay_mult: 0
  }
  convolution_param {
    num_output: 96
    kernel_size: 1
    weight_filler {
      type: "xavier"
    }
    bias_filler {
      type: "constant"
      value: 0.2
    }
  }
}
layer {
  name: "inception_3a/relu_3x3_reduce"
  type: "ReLU"
  bottom: "inception_3a/3x3_reduce"
  top: "inception_3a/3x3_reduce"
}
layer {
  name: "inception_3a/3x3"
  type: "Convolution"
  bottom: "inception_3a/3x3_reduce"
  top: "inception_3a/3x3"
  param {
    lr_mult: 1
    decay_mult: 1
  }
  param {
    lr_mult: 2
    decay_mult: 0
  }
  convolution_param {
    num_output: 128
    pad: 1
    kernel_size: 3
    weight_filler {
      type: "xavier"
    }
    bias_filler {
      type: "constant"
      value: 0.2
    }
  }
}
layer {
  name: "inception_3a/relu_3x3"
  type: "ReLU"
  bottom: "inception_3a/3x3"
  top: "inception_3a/3x3"
}
layer {
  name: "inception_3a/5x5_reduce"
  type: "Convolution"
  bottom: "pool2/3x3_s2"
  top: "inception_3a/5x5_reduce"
  param {
    lr_mult: 1
    decay_mult: 1
  }
  param {
    lr_mult: 2
    decay_mult: 0
  }
  convolution_param {
    num_output: 16
    kernel_size: 1
    weight_filler {
      type: "xavier"
    }
    bias_filler {
      type: "constant"
      value: 0.2
    }
  }
}
layer {
  name: "inception_3a/relu_5x5_reduce"
  type: "ReLU"
  bottom: "inception_3a/5x5_reduce"
  top: "inception_3a/5x5_reduce"
}
layer {
  name: "inception_3a/5x5"
  type: "Convolution"
  bottom: "inception_3a/5x5_reduce"
  top: "inception_3a/5x5"
  param {
    lr_mult: 1
    decay_mult: 1
  }
  param {
    lr_mult: 2
    decay_mult: 0
  }
  convolution_param {
    num_output: 32
    pad: 2
    kernel_size: 5
    weight_filler {
      type: "xavier"
    }
    bias_filler {
      type: "constant"
      value: 0.2
    }
  }
}
layer {
  name: "inception_3a/relu_5x5"
  type: "ReLU"
  bottom: "inception_3a/5x5"
  top: "inception_3a/5x5"
}
layer {
  name: "inception_3a/pool"
  type: "Pooling"
  bottom: "pool2/3x3_s2"
  top: "inception_3a/pool"
  pooling_param {
    pool: MAX
    kernel_size: 3
    stride: 1
    pad: 1
  }
}
layer {
  name: "inception_3a/pool_proj"
  type: "Convolution"
  bottom: "inception_3a/pool"
  top: "inception_3a/pool_proj"
  param {
    lr_mult: 1
    decay_mult: 1
  }
  param {
    lr_mult: 2
    decay_mult: 0
  }
  convolution_param {
    num_output: 32
    kernel_size: 1
    weight_filler {
      type: "xavier"
    }
    bias_filler {
      type: "constant"
      value: 0.2
    }
  }
}
layer {
  name: "inception_3a/relu_pool_proj"
  type: "ReLU"
  bottom: "inception_3a/pool_proj"
  top: "inception_3a/pool_proj"
}
layer {
  name: "inception_3a/output"
  type: "Concat"
  bottom: "inception_3a/1x1"
  bottom: "inception_3a/3x3"
  bottom: "inception_3a/5x5"
  bottom: "inception_3a/pool_proj"
  top: "inception_3a/output"
}
layer {
  name: "inception_3b/1x1"
  type: "Convolution"
  bottom: "inception_3a/output"
  top: "inception_3b/1x1"
  param {
    lr_mult: 1
    decay_mult: 1
  }
  param {
    lr_mult: 2
    decay_mult: 0
  }
  convolution_param {
    num_output: 128
    kernel_size: 1
    weight_filler {
      type: "xavier"
    }
    bias_filler {
      type: "constant"
      value: 0.2
    }
  }
}
layer {
  name: "inception_3b/relu_1x1"
  type: "ReLU"
  bottom: "inception_3b/1x1"
  top: "inception_3b/1x1"
}
layer {
  name: "inception_3b/3x3_reduce"
  type: "Convolution"
  bottom: "inception_3a/output"
  top: "inception_3b/3x3_reduce"
  param {
    lr_mult: 1
    decay_mult: 1
  }
  param {
    lr_mult: 2
    decay_mult: 0
  }
  convolution_param {
    num_output: 128
    kernel_size: 1
    weight_filler {
      type: "xavier"
    }
    bias_filler {
      type: "constant"
      value: 0.2
    }
  }
}
layer {
  name: "inception_3b/relu_3x3_reduce"
  type: "ReLU"
  bottom: "inception_3b/3x3_reduce"
  top: "inception_3b/3x3_reduce"
}
layer {
  name: "inception_3b/3x3"
  type: "Convolution"
  bottom: "inception_3b/3x3_reduce"
  top: "inception_3b/3x3"
  param {
    lr_mult: 1
    decay_mult: 1
  }
  param {
    lr_mult: 2
    decay_mult: 0
  }
  convolution_param {
    num_output: 192
    pad: 1
    kernel_size: 3
    weight_filler {
      type: "xavier"
    }
    bias_filler {
      type: "constant"
      value: 0.2
    }
  }
}
layer {
  name: "inception_3b/relu_3x3"
  type: "ReLU"
  bottom: "inception_3b/3x3"
  top: "inception_3b/3x3"
}
layer {
  name: "inception_3b/5x5_reduce"
  type: "Convolution"
  bottom: "inception_3a/output"
  top: "inception_3b/5x5_reduce"
  param {
    lr_mult: 1
    decay_mult: 1
  }
  param {
    lr_mult: 2
    decay_mult: 0
  }
  convolution_param {
    num_output: 32
    kernel_size: 1
    weight_filler {
      type: "xavier"
    }
    bias_filler {
      type: "constant"
      value: 0.2
    }
  }
}
layer {
  name: "inception_3b/relu_5x5_reduce"
  type: "ReLU"
  bottom: "inception_3b/5x5_reduce"
  top: "inception_3b/5x5_reduce"
}
layer {
  name: "inception_3b/5x5"
  type: "Convolution"
  bottom: "inception_3b/5x5_reduce"
  top: "inception_3b/5x5"
  param {
    lr_mult: 1
    decay_mult: 1
  }
  param {
    lr_mult: 2
    decay_mult: 0
  }
  convolution_param {
    num_output: 96
    pad: 2
    kernel_size: 5
    weight_filler {
      type: "xavier"
    }
    bias_filler {
      type: "constant"
      value: 0.2
    }
  }
}
layer {
  name: "inception_3b/relu_5x5"
  type: "ReLU"
  bottom: "inception_3b/5x5"
  top: "inception_3b/5x5"
}
layer {
  name: "inception_3b/pool"
  type: "Pooling"
  bottom: "inception_3a/output"
  top: "inception_3b/pool"
  pooling_param {
    pool: MAX
    kernel_size: 3
    stride: 1
    pad: 1
  }
}
layer {
  name: "inception_3b/pool_proj"
  type: "Convolution"
  bottom: "inception_3b/pool"
  top: "inception_3b/pool_proj"
  param {
    lr_mult: 1
    decay_mult: 1
  }
  param {
    lr_mult: 2
    decay_mult: 0
  }
  convolution_param {
    num_output: 64
    kernel_size: 1
    weight_filler {
      type: "xavier"
    }
    bias_filler {
      type: "constant"
      value: 0.2
    }
  }
}
layer {
  name: "inception_3b/relu_pool_proj"
  type: "ReLU"
  bottom: "inception_3b/pool_proj"
  top: "inception_3b/pool_proj"
}
layer {
  name: "inception_3b/output"
  type: "Concat"
  bottom: "inception_3b/1x1"
  bottom: "inception_3b/3x3"
  bottom: "inception_3b/5x5"
  bottom: "inception_3b/pool_proj"
  top: "inception_3b/output"
}
layer {
  name: "pool3/3x3_s2"
  type: "Pooling"
  bottom: "inception_3b/output"
  top: "pool3/3x3_s2"
  pooling_param {
    pool: MAX
    kernel_size: 3
    stride: 2
  }
}
layer {
  name: "inception_4a/1x1"
  type: "Convolution"
  bottom: "pool3/3x3_s2"
  top: "inception_4a/1x1"
  param {
    lr_mult: 1
    decay_mult: 1
  }
  param {
    lr_mult: 2
    decay_mult: 0
  }
  convolution_param {
    num_output: 192
    kernel_size: 1
    weight_filler {
      type: "xavier"
    }
    bias_filler {
      type: "constant"
      value: 0.2
    }
  }
}
layer {
  name: "inception_4a/relu_1x1"
  type: "ReLU"
  bottom: "inception_4a/1x1"
  top: "inception_4a/1x1"
}
layer {
  name: "inception_4a/3x3_reduce"
  type: "Convolution"
  bottom: "pool3/3x3_s2"
  top: "inception_4a/3x3_reduce"
  param {
    lr_mult: 1
    decay_mult: 1
  }
  param {
    lr_mult: 2
    decay_mult: 0
  }
  convolution_param {
    num_output: 96
    kernel_size: 1
    weight_filler {
      type: "xavier"
    }
    bias_filler {
      type: "constant"
      value: 0.2
    }
  }
}
layer {
  name: "inception_4a/relu_3x3_reduce"
  type: "ReLU"
  bottom: "inception_4a/3x3_reduce"
  top: "inception_4a/3x3_reduce"
}
layer {
  name: "inception_4a/3x3"
  type: "Convolution"
  bottom: "inception_4a/3x3_reduce"
  top: "inception_4a/3x3"
  param {
    lr_mult: 1
    decay_mult: 1
  }
  param {
    lr_mult: 2
    decay_mult: 0
  }
  convolution_param {
    num_output: 208
    pad: 1
    kernel_size: 3
    weight_filler {
      type: "xavier"
    }
    bias_filler {
      type: "constant"
      value: 0.2
    }
  }
}
layer {
  name: "inception_4a/relu_3x3"
  type: "ReLU"
  bottom: "inception_4a/3x3"
  top: "inception_4a/3x3"
}
layer {
  name: "inception_4a/5x5_reduce"
  type: "Convolution"
  bottom: "pool3/3x3_s2"
  top: "inception_4a/5x5_reduce"
  param {
    lr_mult: 1
    decay_mult: 1
  }
  param {
    lr_mult: 2
    decay_mult: 0
  }
  convolution_param {
    num_output: 16
    kernel_size: 1
    weight_filler {
      type: "xavier"
    }
    bias_filler {
      type: "constant"
      value: 0.2
    }
  }
}
layer {
  name: "inception_4a/relu_5x5_reduce"
  type: "ReLU"
  bottom: "inception_4a/5x5_reduce"
  top: "inception_4a/5x5_reduce"
}
layer {
  name: "inception_4a/5x5"
  type: "Convolution"
  bottom: "inception_4a/5x5_reduce"
  top: "inception_4a/5x5"
  param {
    lr_mult: 1
    decay_mult: 1
  }
  param {
    lr_mult: 2
    decay_mult: 0
  }
  convolution_param {
    num_output: 48
    pad: 2
    kernel_size: 5
    weight_filler {
      type: "xavier"
    }
    bias_filler {
      type: "constant"
      value: 0.2
    }
  }
}
layer {
  name: "inception_4a/relu_5x5"
  type: "ReLU"
  bottom: "inception_4a/5x5"
  top: "inception_4a/5x5"
}
layer {
  name: "inception_4a/pool"
  type: "Pooling"
  bottom: "pool3/3x3_s2"
  top: "inception_4a/pool"
  pooling_param {
    pool: MAX
    kernel_size: 3
    stride: 1
    pad: 1
  }
}
layer {
  name: "inception_4a/pool_proj"
  type: "Convolution"
  bottom: "inception_4a/pool"
  top: "inception_4a/pool_proj"
  param {
    lr_mult: 1
    decay_mult: 1
  }
  param {
    lr_mult: 2
    decay_mult: 0
  }
  convolution_param {
    num_output: 64
    kernel_size: 1
    weight_filler {
      type: "xavier"
    }
    bias_filler {
      type: "constant"
      value: 0.2
    }
  }
}
layer {
  name: "inception_4a/relu_pool_proj"
  type: "ReLU"
  bottom: "inception_4a/pool_proj"
  top: "inception_4a/pool_proj"
}
layer {
  name: "inception_4a/output"
  type: "Concat"
  bottom: "inception_4a/1x1"
  bottom: "inception_4a/3x3"
  bottom: "inception_4a/5x5"
  bottom: "inception_4a/pool_proj"
  top: "inception_4a/output"
}
layer {
  name: "loss1/ave_pool"
  type: "Pooling"
  bottom: "inception_4a/output"
  top: "loss1/ave_pool"
  pooling_param {
    pool: AVE
    kernel_size: 5
    stride: 3
  }
}
layer {
  name: "loss1/conv"
  type: "Convolution"
  bottom: "loss1/ave_pool"
  top: "loss1/conv"
  param {
    lr_mult: 1
    decay_mult: 1
  }
  param {
    lr_mult: 2
    decay_mult: 0
  }
  convolution_param {
    num_output: 128
    kernel_size: 1
    weight_filler {
      type: "xavier"
    }
    bias_filler {
      type: "constant"
      value: 0.2
    }
  }
}
layer {
  name: "loss1/relu_conv"
  type: "ReLU"
  bottom: "loss1/conv"
  top: "loss1/conv"
}
layer {
  name: "loss1/fc"
  type: "InnerProduct"
  bottom: "loss1/conv"
  top: "loss1/fc"
  param {
    lr_mult: 1
    decay_mult: 1
  }
  param {
    lr_mult: 2
    decay_mult: 0
  }
  inner_product_param {
    num_output: 1024
    weight_filler {
      type: "xavier"
    }
    bias_filler {
      type: "constant"
      value: 0.2
    }
  }
}
layer {
  name: "loss1/relu_fc"
  type: "ReLU"
  bottom: "loss1/fc"
  top: "loss1/fc"
}
layer {
  name: "loss1/drop_fc"
  type: "Dropout"
  bottom: "loss1/fc"
  top: "loss1/fc"
  dropout_param {
    dropout_ratio: 0.7
  }
}
layer {
  name: "loss1/classifier_kaggle"
  type: "InnerProduct"
  bottom: "loss1/fc"
  top: "loss1/classifier_kaggle"
  param {
    lr_mult: 1
    decay_mult: 1
  }
  param {
    lr_mult: 2
    decay_mult: 0
  }
  inner_product_param {
    num_output: 447
    weight_filler {
      type: "xavier"
    }
    bias_filler {
      type: "constant"
      value: 0
    }
  }
}
layer {
  name: "loss1/loss"
  type: "SoftmaxWithLoss"
  bottom: "loss1/classifier_kaggle"
  bottom: "label"
  top: "loss1/loss1"
  loss_weight: 0.3
}
layer {
  name: "inception_4b/1x1"
  type: "Convolution"
  bottom: "inception_4a/output"
  top: "inception_4b/1x1"
  param {
    lr_mult: 1
    decay_mult: 1
  }
  param {
    lr_mult: 2
    decay_mult: 0
  }
  convolution_param {
    num_output: 160
    kernel_size: 1
    weight_filler {
      type: "xavier"
    }
    bias_filler {
      type: "constant"
      value: 0.2
    }
  }
}
layer {
  name: "inception_4b/relu_1x1"
  type: "ReLU"
  bottom: "inception_4b/1x1"
  top: "inception_4b/1x1"
}
layer {
  name: "inception_4b/3x3_reduce"
  type: "Convolution"
  bottom: "inception_4a/output"
  top: "inception_4b/3x3_reduce"
  param {
    lr_mult: 1
    decay_mult: 1
  }
  param {
    lr_mult: 2
    decay_mult: 0
  }
  convolution_param {
    num_output: 112
    kernel_size: 1
    weight_filler {
      type: "xavier"
    }
    bias_filler {
      type: "constant"
      value: 0.2
    }
  }
}
layer {
  name: "inception_4b/relu_3x3_reduce"
  type: "ReLU"
  bottom: "inception_4b/3x3_reduce"
  top: "inception_4b/3x3_reduce"
}
layer {
  name: "inception_4b/3x3"
  type: "Convolution"
  bottom: "inception_4b/3x3_reduce"
  top: "inception_4b/3x3"
  param {
    lr_mult: 1
    decay_mult: 1
  }
  param {
    lr_mult: 2
    decay_mult: 0
  }
  convolution_param {
    num_output: 224
    pad: 1
    kernel_size: 3
    weight_filler {
      type: "xavier"
    }
    bias_filler {
      type: "constant"
      value: 0.2
    }
  }
}
layer {
  name: "inception_4b/relu_3x3"
  type: "ReLU"
  bottom: "inception_4b/3x3"
  top: "inception_4b/3x3"
}
layer {
  name: "inception_4b/5x5_reduce"
  type: "Convolution"
  bottom: "inception_4a/output"
  top: "inception_4b/5x5_reduce"
  param {
    lr_mult: 1
    decay_mult: 1
  }
  param {
    lr_mult: 2
    decay_mult: 0
  }
  convolution_param {
    num_output: 24
    kernel_size: 1
    weight_filler {
      type: "xavier"
    }
    bias_filler {
      type: "constant"
      value: 0.2
    }
  }
}
layer {
  name: "inception_4b/relu_5x5_reduce"
  type: "ReLU"
  bottom: "inception_4b/5x5_reduce"
  top: "inception_4b/5x5_reduce"
}
layer {
  name: "inception_4b/5x5"
  type: "Convolution"
  bottom: "inception_4b/5x5_reduce"
  top: "inception_4b/5x5"
  param {
    lr_mult: 1
    decay_mult: 1
  }
  param {
    lr_mult: 2
    decay_mult: 0
  }
  convolution_param {
    num_output: 64
    pad: 2
    kernel_size: 5
    weight_filler {
      type: "xavier"
    }
    bias_filler {
      type: "constant"
      value: 0.2
    }
  }
}
layer {
  name: "inception_4b/relu_5x5"
  type: "ReLU"
  bottom: "inception_4b/5x5"
  top: "inception_4b/5x5"
}
layer {
  name: "inception_4b/pool"
  type: "Pooling"
  bottom: "inception_4a/output"
  top: "inception_4b/pool"
  pooling_param {
    pool: MAX
    kernel_size: 3
    stride: 1
    pad: 1
  }
}
layer {
  name: "inception_4b/pool_proj"
  type: "Convolution"
  bottom: "inception_4b/pool"
  top: "inception_4b/pool_proj"
  param {
    lr_mult: 1
    decay_mult: 1
  }
  param {
    lr_mult: 2
    decay_mult: 0
  }
  convolution_param {
    num_output: 64
    kernel_size: 1
    weight_filler {
      type: "xavier"
    }
    bias_filler {
      type: "constant"
      value: 0.2
    }
  }
}
layer {
  name: "inception_4b/relu_pool_proj"
  type: "ReLU"
  bottom: "inception_4b/pool_proj"
  top: "inception_4b/pool_proj"
}
layer {
  name: "inception_4b/output"
  type: "Concat"
  bottom: "inception_4b/1x1"
  bottom: "inception_4b/3x3"
  bottom: "inception_4b/5x5"
  bottom: "inception_4b/pool_proj"
  top: "inception_4b/output"
}
layer {
  name: "inception_4c/1x1"
  type: "Convolution"
  bottom: "inception_4b/output"
  top: "inception_4c/1x1"
  param {
    lr_mult: 1
    decay_mult: 1
  }
  param {
    lr_mult: 2
    decay_mult: 0
  }
  convolution_param {
    num_output: 128
    kernel_size: 1
    weight_filler {
      type: "xavier"
    }
    bias_filler {
      type: "constant"
      value: 0.2
    }
  }
}
layer {
  name: "inception_4c/relu_1x1"
  type: "ReLU"
  bottom: "inception_4c/1x1"
  top: "inception_4c/1x1"
}
layer {
  name: "inception_4c/3x3_reduce"
  type: "Convolution"
  bottom: "inception_4b/output"
  top: "inception_4c/3x3_reduce"
  param {
    lr_mult: 1
    decay_mult: 1
  }
  param {
    lr_mult: 2
    decay_mult: 0
  }
  convolution_param {
    num_output: 128
    kernel_size: 1
    weight_filler {
      type: "xavier"
    }
    bias_filler {
      type: "constant"
      value: 0.2
    }
  }
}
layer {
  name: "inception_4c/relu_3x3_reduce"
  type: "ReLU"
  bottom: "inception_4c/3x3_reduce"
  top: "inception_4c/3x3_reduce"
}
layer {
  name: "inception_4c/3x3"
  type: "Convolution"
  bottom: "inception_4c/3x3_reduce"
  top: "inception_4c/3x3"
  param {
    lr_mult: 1
    decay_mult: 1
  }
  param {
    lr_mult: 2
    decay_mult: 0
  }
  convolution_param {
    num_output: 256
    pad: 1
    kernel_size: 3
    weight_filler {
      type: "xavier"
    }
    bias_filler {
      type: "constant"
      value: 0.2
    }
  }
}
layer {
  name: "inception_4c/relu_3x3"
  type: "ReLU"
  bottom: "inception_4c/3x3"
  top: "inception_4c/3x3"
}
layer {
  name: "inception_4c/5x5_reduce"
  type: "Convolution"
  bottom: "inception_4b/output"
  top: "inception_4c/5x5_reduce"
  param {
    lr_mult: 1
    decay_mult: 1
  }
  param {
    lr_mult: 2
    decay_mult: 0
  }
  convolution_param {
    num_output: 24
    kernel_size: 1
    weight_filler {
      type: "xavier"
    }
    bias_filler {
      type: "constant"
      value: 0.2
    }
  }
}
layer {
  name: "inception_4c/relu_5x5_reduce"
  type: "ReLU"
  bottom: "inception_4c/5x5_reduce"
  top: "inception_4c/5x5_reduce"
}
layer {
  name: "inception_4c/5x5"
  type: "Convolution"
  bottom: "inception_4c/5x5_reduce"
  top: "inception_4c/5x5"
  param {
    lr_mult: 1
    decay_mult: 1
  }
  param {
    lr_mult: 2
    decay_mult: 0
  }
  convolution_param {
    num_output: 64
    pad: 2
    kernel_size: 5
    weight_filler {
      type: "xavier"
    }
    bias_filler {
      type: "constant"
      value: 0.2
    }
  }
}
layer {
  name: "inception_4c/relu_5x5"
  type: "ReLU"
  bottom: "inception_4c/5x5"
  top: "inception_4c/5x5"
}
layer {
  name: "inception_4c/pool"
  type: "Pooling"
  bottom: "inception_4b/output"
  top: "inception_4c/pool"
  pooling_param {
    pool: MAX
    kernel_size: 3
    stride: 1
    pad: 1
  }
}
layer {
  name: "inception_4c/pool_proj"
  type: "Convolution"
  bottom: "inception_4c/pool"
  top: "inception_4c/pool_proj"
  param {
    lr_mult: 1
    decay_mult: 1
  }
  param {
    lr_mult: 2
    decay_mult: 0
  }
  convolution_param {
    num_output: 64
    kernel_size: 1
    weight_filler {
      type: "xavier"
    }
    bias_filler {
      type: "constant"
      value: 0.2
    }
  }
}
layer {
  name: "inception_4c/relu_pool_proj"
  type: "ReLU"
  bottom: "inception_4c/pool_proj"
  top: "inception_4c/pool_proj"
}
layer {
  name: "inception_4c/output"
  type: "Concat"
  bottom: "inception_4c/1x1"
  bottom: "inception_4c/3x3"
  bottom: "inception_4c/5x5"
  bottom: "inception_4c/pool_proj"
  top: "inception_4c/output"
}
layer {
  name: "inception_4d/1x1"
  type: "Convolution"
  bottom: "inception_4c/output"
  top: "inception_4d/1x1"
  param {
    lr_mult: 1
    decay_mult: 1
  }
  param {
    lr_mult: 2
    decay_mult: 0
  }
  convolution_param {
    num_output: 112
    kernel_size: 1
    weight_filler {
      type: "xavier"
    }
    bias_filler {
      type: "constant"
      value: 0.2
    }
  }
}
layer {
  name: "inception_4d/relu_1x1"
  type: "ReLU"
  bottom: "inception_4d/1x1"
  top: "inception_4d/1x1"
}
layer {
  name: "inception_4d/3x3_reduce"
  type: "Convolution"
  bottom: "inception_4c/output"
  top: "inception_4d/3x3_reduce"
  param {
    lr_mult: 1
    decay_mult: 1
  }
  param {
    lr_mult: 2
    decay_mult: 0
  }
  convolution_param {
    num_output: 144
    kernel_size: 1
    weight_filler {
      type: "xavier"
    }
    bias_filler {
      type: "constant"
      value: 0.2
    }
  }
}
layer {
  name: "inception_4d/relu_3x3_reduce"
  type: "ReLU"
  bottom: "inception_4d/3x3_reduce"
  top: "inception_4d/3x3_reduce"
}
layer {
  name: "inception_4d/3x3"
  type: "Convolution"
  bottom: "inception_4d/3x3_reduce"
  top: "inception_4d/3x3"
  param {
    lr_mult: 1
    decay_mult: 1
  }
  param {
    lr_mult: 2
    decay_mult: 0
  }
  convolution_param {
    num_output: 288
    pad: 1
    kernel_size: 3
    weight_filler {
      type: "xavier"
    }
    bias_filler {
      type: "constant"
      value: 0.2
    }
  }
}
layer {
  name: "inception_4d/relu_3x3"
  type: "ReLU"
  bottom: "inception_4d/3x3"
  top: "inception_4d/3x3"
}
layer {
  name: "inception_4d/5x5_reduce"
  type: "Convolution"
  bottom: "inception_4c/output"
  top: "inception_4d/5x5_reduce"
  param {
    lr_mult: 1
    decay_mult: 1
  }
  param {
    lr_mult: 2
    decay_mult: 0
  }
  convolution_param {
    num_output: 32
    kernel_size: 1
    weight_filler {
      type: "xavier"
    }
    bias_filler {
      type: "constant"
      value: 0.2
    }
  }
}
layer {
  name: "inception_4d/relu_5x5_reduce"
  type: "ReLU"
  bottom: "inception_4d/5x5_reduce"
  top: "inception_4d/5x5_reduce"
}
layer {
  name: "inception_4d/5x5"
  type: "Convolution"
  bottom: "inception_4d/5x5_reduce"
  top: "inception_4d/5x5"
  param {
    lr_mult: 1
    decay_mult: 1
  }
  param {
    lr_mult: 2
    decay_mult: 0
  }
  convolution_param {
    num_output: 64
    pad: 2
    kernel_size: 5
    weight_filler {
      type: "xavier"
    }
    bias_filler {
      type: "constant"
      value: 0.2
    }
  }
}
layer {
  name: "inception_4d/relu_5x5"
  type: "ReLU"
  bottom: "inception_4d/5x5"
  top: "inception_4d/5x5"
}
layer {
  name: "inception_4d/pool"
  type: "Pooling"
  bottom: "inception_4c/output"
  top: "inception_4d/pool"
  pooling_param {
    pool: MAX
    kernel_size: 3
    stride: 1
    pad: 1
  }
}
layer {
  name: "inception_4d/pool_proj"
  type: "Convolution"
  bottom: "inception_4d/pool"
  top: "inception_4d/pool_proj"
  param {
    lr_mult: 1
    decay_mult: 1
  }
  param {
    lr_mult: 2
    decay_mult: 0
  }
  convolution_param {
    num_output: 64
    kernel_size: 1
    weight_filler {
      type: "xavier"
    }
    bias_filler {
      type: "constant"
      value: 0.2
    }
  }
}
layer {
  name: "inception_4d/relu_pool_proj"
  type: "ReLU"
  bottom: "inception_4d/pool_proj"
  top: "inception_4d/pool_proj"
}
layer {
  name: "inception_4d/output"
  type: "Concat"
  bottom: "inception_4d/1x1"
  bottom: "inception_4d/3x3"
  bottom: "inception_4d/5x5"
  bottom: "inception_4d/pool_proj"
  top: "inception_4d/output"
}
layer {
  name: "loss2/ave_pool"
  type: "Pooling"
  bottom: "inception_4d/output"
  top: "loss2/ave_pool"
  pooling_param {
    pool: AVE
    kernel_size: 5
    stride: 3
  }
}
layer {
  name: "loss2/conv"
  type: "Convolution"
  bottom: "loss2/ave_pool"
  top: "loss2/conv"
  param {
    lr_mult: 1
    decay_mult: 1
  }
  param {
    lr_mult: 2
    decay_mult: 0
  }
  convolution_param {
    num_output: 128
    kernel_size: 1
    weight_filler {
      type: "xavier"
    }
    bias_filler {
      type: "constant"
      value: 0.2
    }
  }
}
layer {
  name: "loss2/relu_conv"
  type: "ReLU"
  bottom: "loss2/conv"
  top: "loss2/conv"
}
layer {
  name: "loss2/fc"
  type: "InnerProduct"
  bottom: "loss2/conv"
  top: "loss2/fc"
  param {
    lr_mult: 1
    decay_mult: 1
  }
  param {
    lr_mult: 2
    decay_mult: 0
  }
  inner_product_param {
    num_output: 1024
    weight_filler {
      type: "xavier"
    }
    bias_filler {
      type: "constant"
      value: 0.2
    }
  }
}
layer {
  name: "loss2/relu_fc"
  type: "ReLU"
  bottom: "loss2/fc"
  top: "loss2/fc"
}
layer {
  name: "loss2/drop_fc"
  type: "Dropout"
  bottom: "loss2/fc"
  top: "loss2/fc"
  dropout_param {
    dropout_ratio: 0.7
  }
}
layer {
  name: "loss2/classifier_kaggle"
  type: "InnerProduct"
  bottom: "loss2/fc"
  top: "loss2/classifier_kaggle"
  param {
    lr_mult: 1
    decay_mult: 1
  }
  param {
    lr_mult: 2
    decay_mult: 0
  }
  inner_product_param {
    num_output: 447
    weight_filler {
      type: "xavier"
    }
    bias_filler {
      type: "constant"
      value: 0
    }
  }
}
layer {
  name: "loss2/loss"
  type: "SoftmaxWithLoss"
  bottom: "loss2/classifier_kaggle"
  bottom: "label"
  top: "loss2/loss1"
  loss_weight: 0.3
}
layer {
  name: "inception_4e/1x1"
  type: "Convolution"
  bottom: "inception_4d/output"
  top: "inception_4e/1x1"
  param {
    lr_mult: 1
    decay_mult: 1
  }
  param {
    lr_mult: 2
    decay_mult: 0
  }
  convolution_param {
    num_output: 256
    kernel_size: 1
    weight_filler {
      type: "xavier"
    }
    bias_filler {
      type: "constant"
      value: 0.2
    }
  }
}
layer {
  name: "inception_4e/relu_1x1"
  type: "ReLU"
  bottom: "inception_4e/1x1"
  top: "inception_4e/1x1"
}
layer {
  name: "inception_4e/3x3_reduce"
  type: "Convolution"
  bottom: "inception_4d/output"
  top: "inception_4e/3x3_reduce"
  param {
    lr_mult: 1
    decay_mult: 1
  }
  param {
    lr_mult: 2
    decay_mult: 0
  }
  convolution_param {
    num_output: 160
    kernel_size: 1
    weight_filler {
      type: "xavier"
    }
    bias_filler {
      type: "constant"
      value: 0.2
    }
  }
}
layer {
  name: "inception_4e/relu_3x3_reduce"
  type: "ReLU"
  bottom: "inception_4e/3x3_reduce"
  top: "inception_4e/3x3_reduce"
}
layer {
  name: "inception_4e/3x3"
  type: "Convolution"
  bottom: "inception_4e/3x3_reduce"
  top: "inception_4e/3x3"
  param {
    lr_mult: 1
    decay_mult: 1
  }
  param {
    lr_mult: 2
    decay_mult: 0
  }
  convolution_param {
    num_output: 320
    pad: 1
    kernel_size: 3
    weight_filler {
      type: "xavier"
    }
    bias_filler {
      type: "constant"
      value: 0.2
    }
  }
}
layer {
  name: "inception_4e/relu_3x3"
  type: "ReLU"
  bottom: "inception_4e/3x3"
  top: "inception_4e/3x3"
}
layer {
  name: "inception_4e/5x5_reduce"
  type: "Convolution"
  bottom: "inception_4d/output"
  top: "inception_4e/5x5_reduce"
  param {
    lr_mult: 1
    decay_mult: 1
  }
  param {
    lr_mult: 2
    decay_mult: 0
  }
  convolution_param {
    num_output: 32
    kernel_size: 1
    weight_filler {
      type: "xavier"
    }
    bias_filler {
      type: "constant"
      value: 0.2
    }
  }
}
layer {
  name: "inception_4e/relu_5x5_reduce"
  type: "ReLU"
  bottom: "inception_4e/5x5_reduce"
  top: "inception_4e/5x5_reduce"
}
layer {
  name: "inception_4e/5x5"
  type: "Convolution"
  bottom: "inception_4e/5x5_reduce"
  top: "inception_4e/5x5"
  param {
    lr_mult: 1
    decay_mult: 1
  }
  param {
    lr_mult: 2
    decay_mult: 0
  }
  convolution_param {
    num_output: 128
    pad: 2
    kernel_size: 5
    weight_filler {
      type: "xavier"
    }
    bias_filler {
      type: "constant"
      value: 0.2
    }
  }
}
layer {
  name: "inception_4e/relu_5x5"
  type: "ReLU"
  bottom: "inception_4e/5x5"
  top: "inception_4e/5x5"
}
layer {
  name: "inception_4e/pool"
  type: "Pooling"
  bottom: "inception_4d/output"
  top: "inception_4e/pool"
  pooling_p
I1218 17:10:10.771111 27366 layer_factory.hpp:74] Creating layer data
I1218 17:10:10.771158 27366 net.cpp:84] Creating Layer data
I1218 17:10:10.771175 27366 net.cpp:338] data -> data
I1218 17:10:10.771220 27366 net.cpp:338] data -> label
I1218 17:10:10.771236 27366 net.cpp:113] Setting up data
I1218 17:10:10.771248 27366 image_data_layer.cpp:36] Opening file /home/coldmanck/kaggle/label_train_full.txt
I1218 17:10:10.774543 27366 image_data_layer.cpp:46] Shuffling data
I1218 17:10:10.775540 27366 image_data_layer.cpp:51] A total of 4235 images.
I1218 17:10:10.776551 27366 image_data_layer.cpp:80] output data size: 80,3,224,224
I1218 17:10:11.598348 27366 net.cpp:120] Top shape: 80 3 224 224 (12042240)
I1218 17:10:11.598384 27366 net.cpp:120] Top shape: 80 (80)
I1218 17:10:11.598397 27366 layer_factory.hpp:74] Creating layer label_data_1_split
I1218 17:10:11.598420 27366 net.cpp:84] Creating Layer label_data_1_split
I1218 17:10:11.598431 27366 net.cpp:380] label_data_1_split <- label
I1218 17:10:11.598449 27366 net.cpp:338] label_data_1_split -> label_data_1_split_0
I1218 17:10:11.598464 27366 net.cpp:338] label_data_1_split -> label_data_1_split_1
I1218 17:10:11.598481 27366 net.cpp:338] label_data_1_split -> label_data_1_split_2
I1218 17:10:11.598501 27366 net.cpp:113] Setting up label_data_1_split
I1218 17:10:11.598513 27366 net.cpp:120] Top shape: 80 (80)
I1218 17:10:11.598518 27366 net.cpp:120] Top shape: 80 (80)
I1218 17:10:11.598525 27366 net.cpp:120] Top shape: 80 (80)
I1218 17:10:11.598531 27366 layer_factory.hpp:74] Creating layer conv1/7x7_s2
I1218 17:10:11.598546 27366 net.cpp:84] Creating Layer conv1/7x7_s2
I1218 17:10:11.598551 27366 net.cpp:380] conv1/7x7_s2 <- data
I1218 17:10:11.598562 27366 net.cpp:338] conv1/7x7_s2 -> conv1/7x7_s2
I1218 17:10:11.598572 27366 net.cpp:113] Setting up conv1/7x7_s2
I1218 17:10:12.067328 27366 net.cpp:120] Top shape: 80 64 112 112 (64225280)
I1218 17:10:12.067425 27366 layer_factory.hpp:74] Creating layer conv1/relu_7x7
I1218 17:10:12.067440 27366 net.cpp:84] Creating Layer conv1/relu_7x7
I1218 17:10:12.067446 27366 net.cpp:380] conv1/relu_7x7 <- conv1/7x7_s2
I1218 17:10:12.067456 27366 net.cpp:327] conv1/relu_7x7 -> conv1/7x7_s2 (in-place)
I1218 17:10:12.067468 27366 net.cpp:113] Setting up conv1/relu_7x7
I1218 17:10:12.068519 27366 net.cpp:120] Top shape: 80 64 112 112 (64225280)
I1218 17:10:12.068532 27366 layer_factory.hpp:74] Creating layer pool1/3x3_s2
I1218 17:10:12.068548 27366 net.cpp:84] Creating Layer pool1/3x3_s2
I1218 17:10:12.068554 27366 net.cpp:380] pool1/3x3_s2 <- conv1/7x7_s2
I1218 17:10:12.068562 27366 net.cpp:338] pool1/3x3_s2 -> pool1/3x3_s2
I1218 17:10:12.068572 27366 net.cpp:113] Setting up pool1/3x3_s2
I1218 17:10:12.068652 27366 net.cpp:120] Top shape: 80 64 56 56 (16056320)
I1218 17:10:12.068660 27366 layer_factory.hpp:74] Creating layer pool1/norm1
I1218 17:10:12.068671 27366 net.cpp:84] Creating Layer pool1/norm1
I1218 17:10:12.068676 27366 net.cpp:380] pool1/norm1 <- pool1/3x3_s2
I1218 17:10:12.068682 27366 net.cpp:338] pool1/norm1 -> pool1/norm1
I1218 17:10:12.068692 27366 net.cpp:113] Setting up pool1/norm1
I1218 17:10:12.068701 27366 net.cpp:120] Top shape: 80 64 56 56 (16056320)
I1218 17:10:12.068706 27366 layer_factory.hpp:74] Creating layer conv2/3x3_reduce
I1218 17:10:12.068717 27366 net.cpp:84] Creating Layer conv2/3x3_reduce
I1218 17:10:12.068722 27366 net.cpp:380] conv2/3x3_reduce <- pool1/norm1
I1218 17:10:12.068729 27366 net.cpp:338] conv2/3x3_reduce -> conv2/3x3_reduce
I1218 17:10:12.068739 27366 net.cpp:113] Setting up conv2/3x3_reduce
I1218 17:10:12.071809 27366 net.cpp:120] Top shape: 80 64 56 56 (16056320)
I1218 17:10:12.071830 27366 layer_factory.hpp:74] Creating layer conv2/relu_3x3_reduce
I1218 17:10:12.071840 27366 net.cpp:84] Creating Layer conv2/relu_3x3_reduce
I1218 17:10:12.071846 27366 net.cpp:380] conv2/relu_3x3_reduce <- conv2/3x3_reduce
I1218 17:10:12.071852 27366 net.cpp:327] conv2/relu_3x3_reduce -> conv2/3x3_reduce (in-place)
I1218 17:10:12.071861 27366 net.cpp:113] Setting up conv2/relu_3x3_reduce
I1218 17:10:12.071923 27366 net.cpp:120] Top shape: 80 64 56 56 (16056320)
I1218 17:10:12.071928 27366 layer_factory.hpp:74] Creating layer conv2/3x3
I1218 17:10:12.071939 27366 net.cpp:84] Creating Layer conv2/3x3
I1218 17:10:12.071944 27366 net.cpp:380] conv2/3x3 <- conv2/3x3_reduce
I1218 17:10:12.071951 27366 net.cpp:338] conv2/3x3 -> conv2/3x3
I1218 17:10:12.071960 27366 net.cpp:113] Setting up conv2/3x3
I1218 17:10:12.074440 27366 net.cpp:120] Top shape: 80 192 56 56 (48168960)
I1218 17:10:12.074460 27366 layer_factory.hpp:74] Creating layer conv2/relu_3x3
I1218 17:10:12.074468 27366 net.cpp:84] Creating Layer conv2/relu_3x3
I1218 17:10:12.074473 27366 net.cpp:380] conv2/relu_3x3 <- conv2/3x3
I1218 17:10:12.074481 27366 net.cpp:327] conv2/relu_3x3 -> conv2/3x3 (in-place)
I1218 17:10:12.074488 27366 net.cpp:113] Setting up conv2/relu_3x3
I1218 17:10:12.082294 27366 net.cpp:120] Top shape: 80 192 56 56 (48168960)
I1218 17:10:12.082340 27366 layer_factory.hpp:74] Creating layer conv2/norm2
I1218 17:10:12.082356 27366 net.cpp:84] Creating Layer conv2/norm2
I1218 17:10:12.082363 27366 net.cpp:380] conv2/norm2 <- conv2/3x3
I1218 17:10:12.082376 27366 net.cpp:338] conv2/norm2 -> conv2/norm2
I1218 17:10:12.082408 27366 net.cpp:113] Setting up conv2/norm2
I1218 17:10:12.082435 27366 net.cpp:120] Top shape: 80 192 56 56 (48168960)
I1218 17:10:12.082440 27366 layer_factory.hpp:74] Creating layer pool2/3x3_s2
I1218 17:10:12.082451 27366 net.cpp:84] Creating Layer pool2/3x3_s2
I1218 17:10:12.082456 27366 net.cpp:380] pool2/3x3_s2 <- conv2/norm2
I1218 17:10:12.082463 27366 net.cpp:338] pool2/3x3_s2 -> pool2/3x3_s2
I1218 17:10:12.082471 27366 net.cpp:113] Setting up pool2/3x3_s2
I1218 17:10:12.082557 27366 net.cpp:120] Top shape: 80 192 28 28 (12042240)
I1218 17:10:12.082566 27366 layer_factory.hpp:74] Creating layer pool2/3x3_s2_pool2/3x3_s2_0_split
I1218 17:10:12.082574 27366 net.cpp:84] Creating Layer pool2/3x3_s2_pool2/3x3_s2_0_split
I1218 17:10:12.082579 27366 net.cpp:380] pool2/3x3_s2_pool2/3x3_s2_0_split <- pool2/3x3_s2
I1218 17:10:12.082587 27366 net.cpp:338] pool2/3x3_s2_pool2/3x3_s2_0_split -> pool2/3x3_s2_pool2/3x3_s2_0_split_0
I1218 17:10:12.082595 27366 net.cpp:338] pool2/3x3_s2_pool2/3x3_s2_0_split -> pool2/3x3_s2_pool2/3x3_s2_0_split_1
I1218 17:10:12.082603 27366 net.cpp:338] pool2/3x3_s2_pool2/3x3_s2_0_split -> pool2/3x3_s2_pool2/3x3_s2_0_split_2
I1218 17:10:12.082610 27366 net.cpp:338] pool2/3x3_s2_pool2/3x3_s2_0_split -> pool2/3x3_s2_pool2/3x3_s2_0_split_3
I1218 17:10:12.082617 27366 net.cpp:113] Setting up pool2/3x3_s2_pool2/3x3_s2_0_split
I1218 17:10:12.082624 27366 net.cpp:120] Top shape: 80 192 28 28 (12042240)
I1218 17:10:12.082630 27366 net.cpp:120] Top shape: 80 192 28 28 (12042240)
I1218 17:10:12.082635 27366 net.cpp:120] Top shape: 80 192 28 28 (12042240)
I1218 17:10:12.082640 27366 net.cpp:120] Top shape: 80 192 28 28 (12042240)
I1218 17:10:12.082644 27366 layer_factory.hpp:74] Creating layer inception_3a/1x1
I1218 17:10:12.082656 27366 net.cpp:84] Creating Layer inception_3a/1x1
I1218 17:10:12.082661 27366 net.cpp:380] inception_3a/1x1 <- pool2/3x3_s2_pool2/3x3_s2_0_split_0
I1218 17:10:12.082669 27366 net.cpp:338] inception_3a/1x1 -> inception_3a/1x1
I1218 17:10:12.082681 27366 net.cpp:113] Setting up inception_3a/1x1
I1218 17:10:12.084152 27366 net.cpp:120] Top shape: 80 64 28 28 (4014080)
I1218 17:10:12.084174 27366 layer_factory.hpp:74] Creating layer inception_3a/relu_1x1
I1218 17:10:12.084185 27366 net.cpp:84] Creating Layer inception_3a/relu_1x1
I1218 17:10:12.084190 27366 net.cpp:380] inception_3a/relu_1x1 <- inception_3a/1x1
I1218 17:10:12.084198 27366 net.cpp:327] inception_3a/relu_1x1 -> inception_3a/1x1 (in-place)
I1218 17:10:12.084206 27366 net.cpp:113] Setting up inception_3a/relu_1x1
I1218 17:10:12.084274 27366 net.cpp:120] Top shape: 80 64 28 28 (4014080)
I1218 17:10:12.084280 27366 layer_factory.hpp:74] Creating layer inception_3a/3x3_reduce
I1218 17:10:12.084290 27366 net.cpp:84] Creating Layer inception_3a/3x3_reduce
I1218 17:10:12.084296 27366 net.cpp:380] inception_3a/3x3_reduce <- pool2/3x3_s2_pool2/3x3_s2_0_split_1
I1218 17:10:12.084303 27366 net.cpp:338] inception_3a/3x3_reduce -> inception_3a/3x3_reduce
I1218 17:10:12.084312 27366 net.cpp:113] Setting up inception_3a/3x3_reduce
I1218 17:10:12.098176 27366 net.cpp:120] Top shape: 80 96 28 28 (6021120)
I1218 17:10:12.098201 27366 layer_factory.hpp:74] Creating layer inception_3a/relu_3x3_reduce
I1218 17:10:12.098213 27366 net.cpp:84] Creating Layer inception_3a/relu_3x3_reduce
I1218 17:10:12.098218 27366 net.cpp:380] inception_3a/relu_3x3_reduce <- inception_3a/3x3_reduce
I1218 17:10:12.098227 27366 net.cpp:327] inception_3a/relu_3x3_reduce -> inception_3a/3x3_reduce (in-place)
I1218 17:10:12.098235 27366 net.cpp:113] Setting up inception_3a/relu_3x3_reduce
I1218 17:10:12.098300 27366 net.cpp:120] Top shape: 80 96 28 28 (6021120)
I1218 17:10:12.098307 27366 layer_factory.hpp:74] Creating layer inception_3a/3x3
I1218 17:10:12.098317 27366 net.cpp:84] Creating Layer inception_3a/3x3
I1218 17:10:12.098321 27366 net.cpp:380] inception_3a/3x3 <- inception_3a/3x3_reduce
I1218 17:10:12.098330 27366 net.cpp:338] inception_3a/3x3 -> inception_3a/3x3
I1218 17:10:12.098338 27366 net.cpp:113] Setting up inception_3a/3x3
I1218 17:10:12.101160 27366 net.cpp:120] Top shape: 80 128 28 28 (8028160)
I1218 17:10:12.101191 27366 layer_factory.hpp:74] Creating layer inception_3a/relu_3x3
I1218 17:10:12.101203 27366 net.cpp:84] Creating Layer inception_3a/relu_3x3
I1218 17:10:12.101209 27366 net.cpp:380] inception_3a/relu_3x3 <- inception_3a/3x3
I1218 17:10:12.101217 27366 net.cpp:327] inception_3a/relu_3x3 -> inception_3a/3x3 (in-place)
I1218 17:10:12.101227 27366 net.cpp:113] Setting up inception_3a/relu_3x3
I1218 17:10:12.102804 27366 net.cpp:120] Top shape: 80 128 28 28 (8028160)
I1218 17:10:12.102818 27366 layer_factory.hpp:74] Creating layer inception_3a/5x5_reduce
I1218 17:10:12.102828 27366 net.cpp:84] Creating Layer inception_3a/5x5_reduce
I1218 17:10:12.102833 27366 net.cpp:380] inception_3a/5x5_reduce <- pool2/3x3_s2_pool2/3x3_s2_0_split_2
I1218 17:10:12.102843 27366 net.cpp:338] inception_3a/5x5_reduce -> inception_3a/5x5_reduce
I1218 17:10:12.102857 27366 net.cpp:113] Setting up inception_3a/5x5_reduce
I1218 17:10:12.104388 27366 net.cpp:120] Top shape: 80 16 28 28 (1003520)
I1218 17:10:12.104409 27366 layer_factory.hpp:74] Creating layer inception_3a/relu_5x5_reduce
I1218 17:10:12.104418 27366 net.cpp:84] Creating Layer inception_3a/relu_5x5_reduce
I1218 17:10:12.104424 27366 net.cpp:380] inception_3a/relu_5x5_reduce <- inception_3a/5x5_reduce
I1218 17:10:12.104434 27366 net.cpp:327] inception_3a/relu_5x5_reduce -> inception_3a/5x5_reduce (in-place)
I1218 17:10:12.104444 27366 net.cpp:113] Setting up inception_3a/relu_5x5_reduce
I1218 17:10:12.104516 27366 net.cpp:120] Top shape: 80 16 28 28 (1003520)
I1218 17:10:12.104524 27366 layer_factory.hpp:74] Creating layer inception_3a/5x5
I1218 17:10:12.104535 27366 net.cpp:84] Creating Layer inception_3a/5x5
I1218 17:10:12.104540 27366 net.cpp:380] inception_3a/5x5 <- inception_3a/5x5_reduce
I1218 17:10:12.104549 27366 net.cpp:338] inception_3a/5x5 -> inception_3a/5x5
I1218 17:10:12.104559 27366 net.cpp:113] Setting up inception_3a/5x5
I1218 17:10:12.106333 27366 net.cpp:120] Top shape: 80 32 28 28 (2007040)
I1218 17:10:12.106350 27366 layer_factory.hpp:74] Creating layer inception_3a/relu_5x5
I1218 17:10:12.106361 27366 net.cpp:84] Creating Layer inception_3a/relu_5x5
I1218 17:10:12.106366 27366 net.cpp:380] inception_3a/relu_5x5 <- inception_3a/5x5
I1218 17:10:12.106374 27366 net.cpp:327] inception_3a/relu_5x5 -> inception_3a/5x5 (in-place)
I1218 17:10:12.106382 27366 net.cpp:113] Setting up inception_3a/relu_5x5
I1218 17:10:12.106451 27366 net.cpp:120] Top shape: 80 32 28 28 (2007040)
I1218 17:10:12.106456 27366 layer_factory.hpp:74] Creating layer inception_3a/pool
I1218 17:10:12.106462 27366 layer_factory.cpp:56] CUDNN does not support padding or multiple tops. Using Caffe's own pooling layer.
I1218 17:10:12.106473 27366 net.cpp:84] Creating Layer inception_3a/pool
I1218 17:10:12.106478 27366 net.cpp:380] inception_3a/pool <- pool2/3x3_s2_pool2/3x3_s2_0_split_3
I1218 17:10:12.106485 27366 net.cpp:338] inception_3a/pool -> inception_3a/pool
I1218 17:10:12.106493 27366 net.cpp:113] Setting up inception_3a/pool
I1218 17:10:12.106504 27366 net.cpp:120] Top shape: 80 192 28 28 (12042240)
I1218 17:10:12.106509 27366 layer_factory.hpp:74] Creating layer inception_3a/pool_proj
I1218 17:10:12.106518 27366 net.cpp:84] Creating Layer inception_3a/pool_proj
I1218 17:10:12.106523 27366 net.cpp:380] inception_3a/pool_proj <- inception_3a/pool
I1218 17:10:12.106530 27366 net.cpp:338] inception_3a/pool_proj -> inception_3a/pool_proj
I1218 17:10:12.106537 27366 net.cpp:113] Setting up inception_3a/pool_proj
I1218 17:10:12.107866 27366 net.cpp:120] Top shape: 80 32 28 28 (2007040)
I1218 17:10:12.107885 27366 layer_factory.hpp:74] Creating layer inception_3a/relu_pool_proj
I1218 17:10:12.107895 27366 net.cpp:84] Creating Layer inception_3a/relu_pool_proj
I1218 17:10:12.107902 27366 net.cpp:380] inception_3a/relu_pool_proj <- inception_3a/pool_proj
I1218 17:10:12.107908 27366 net.cpp:327] inception_3a/relu_pool_proj -> inception_3a/pool_proj (in-place)
I1218 17:10:12.107915 27366 net.cpp:113] Setting up inception_3a/relu_pool_proj
I1218 17:10:12.108000 27366 net.cpp:120] Top shape: 80 32 28 28 (2007040)
I1218 17:10:12.108007 27366 layer_factory.hpp:74] Creating layer inception_3a/output
I1218 17:10:12.108014 27366 net.cpp:84] Creating Layer inception_3a/output
I1218 17:10:12.108019 27366 net.cpp:380] inception_3a/output <- inception_3a/1x1
I1218 17:10:12.108026 27366 net.cpp:380] inception_3a/output <- inception_3a/3x3
I1218 17:10:12.108031 27366 net.cpp:380] inception_3a/output <- inception_3a/5x5
I1218 17:10:12.108036 27366 net.cpp:380] inception_3a/output <- inception_3a/pool_proj
I1218 17:10:12.108044 27366 net.cpp:338] inception_3a/output -> inception_3a/output
I1218 17:10:12.108052 27366 net.cpp:113] Setting up inception_3a/output
I1218 17:10:12.108067 27366 net.cpp:120] Top shape: 80 256 28 28 (16056320)
I1218 17:10:12.108072 27366 layer_factory.hpp:74] Creating layer inception_3a/output_inception_3a/output_0_split
I1218 17:10:12.108079 27366 net.cpp:84] Creating Layer inception_3a/output_inception_3a/output_0_split
I1218 17:10:12.108084 27366 net.cpp:380] inception_3a/output_inception_3a/output_0_split <- inception_3a/output
I1218 17:10:12.108090 27366 net.cpp:338] inception_3a/output_inception_3a/output_0_split -> inception_3a/output_inception_3a/output_0_split_0
I1218 17:10:12.108100 27366 net.cpp:338] inception_3a/output_inception_3a/output_0_split -> inception_3a/output_inception_3a/output_0_split_1
I1218 17:10:12.108108 27366 net.cpp:338] inception_3a/output_inception_3a/output_0_split -> inception_3a/output_inception_3a/output_0_split_2
I1218 17:10:12.108115 27366 net.cpp:338] inception_3a/output_inception_3a/output_0_split -> inception_3a/output_inception_3a/output_0_split_3
I1218 17:10:12.108122 27366 net.cpp:113] Setting up inception_3a/output_inception_3a/output_0_split
I1218 17:10:12.108129 27366 net.cpp:120] Top shape: 80 256 28 28 (16056320)
I1218 17:10:12.108135 27366 net.cpp:120] Top shape: 80 256 28 28 (16056320)
I1218 17:10:12.108140 27366 net.cpp:120] Top shape: 80 256 28 28 (16056320)
I1218 17:10:12.108145 27366 net.cpp:120] Top shape: 80 256 28 28 (16056320)
I1218 17:10:12.108150 27366 layer_factory.hpp:74] Creating layer inception_3b/1x1
I1218 17:10:12.108162 27366 net.cpp:84] Creating Layer inception_3b/1x1
I1218 17:10:12.108167 27366 net.cpp:380] inception_3b/1x1 <- inception_3a/output_inception_3a/output_0_split_0
I1218 17:10:12.108175 27366 net.cpp:338] inception_3b/1x1 -> inception_3b/1x1
I1218 17:10:12.108182 27366 net.cpp:113] Setting up inception_3b/1x1
I1218 17:10:12.110406 27366 net.cpp:120] Top shape: 80 128 28 28 (8028160)
I1218 17:10:12.110451 27366 layer_factory.hpp:74] Creating layer inception_3b/relu_1x1
I1218 17:10:12.110468 27366 net.cpp:84] Creating Layer inception_3b/relu_1x1
I1218 17:10:12.110478 27366 net.cpp:380] inception_3b/relu_1x1 <- inception_3b/1x1
I1218 17:10:12.110493 27366 net.cpp:327] inception_3b/relu_1x1 -> inception_3b/1x1 (in-place)
I1218 17:10:12.110508 27366 net.cpp:113] Setting up inception_3b/relu_1x1
I1218 17:10:12.119045 27366 net.cpp:120] Top shape: 80 128 28 28 (8028160)
I1218 17:10:12.119072 27366 layer_factory.hpp:74] Creating layer inception_3b/3x3_reduce
I1218 17:10:12.119086 27366 net.cpp:84] Creating Layer inception_3b/3x3_reduce
I1218 17:10:12.119091 27366 net.cpp:380] inception_3b/3x3_reduce <- inception_3a/output_inception_3a/output_0_split_1
I1218 17:10:12.119108 27366 net.cpp:338] inception_3b/3x3_reduce -> inception_3b/3x3_reduce
I1218 17:10:12.119125 27366 net.cpp:113] Setting up inception_3b/3x3_reduce
I1218 17:10:12.125229 27366 net.cpp:120] Top shape: 80 128 28 28 (8028160)
I1218 17:10:12.125291 27366 layer_factory.hpp:74] Creating layer inception_3b/relu_3x3_reduce
I1218 17:10:12.125315 27366 net.cpp:84] Creating Layer inception_3b/relu_3x3_reduce
I1218 17:10:12.125327 27366 net.cpp:380] inception_3b/relu_3x3_reduce <- inception_3b/3x3_reduce
I1218 17:10:12.125342 27366 net.cpp:327] inception_3b/relu_3x3_reduce -> inception_3b/3x3_reduce (in-place)
I1218 17:10:12.125358 27366 net.cpp:113] Setting up inception_3b/relu_3x3_reduce
I1218 17:10:12.125519 27366 net.cpp:120] Top shape: 80 128 28 28 (8028160)
I1218 17:10:12.125550 27366 layer_factory.hpp:74] Creating layer inception_3b/3x3
I1218 17:10:12.125578 27366 net.cpp:84] Creating Layer inception_3b/3x3
I1218 17:10:12.125587 27366 net.cpp:380] inception_3b/3x3 <- inception_3b/3x3_reduce
I1218 17:10:12.125602 27366 net.cpp:338] inception_3b/3x3 -> inception_3b/3x3
I1218 17:10:12.125619 27366 net.cpp:113] Setting up inception_3b/3x3
I1218 17:10:12.132767 27366 net.cpp:120] Top shape: 80 192 28 28 (12042240)
I1218 17:10:12.132822 27366 layer_factory.hpp:74] Creating layer inception_3b/relu_3x3
I1218 17:10:12.132841 27366 net.cpp:84] Creating Layer inception_3b/relu_3x3
I1218 17:10:12.132853 27366 net.cpp:380] inception_3b/relu_3x3 <- inception_3b/3x3
I1218 17:10:12.132869 27366 net.cpp:327] inception_3b/relu_3x3 -> inception_3b/3x3 (in-place)
I1218 17:10:12.132885 27366 net.cpp:113] Setting up inception_3b/relu_3x3
I1218 17:10:12.133010 27366 net.cpp:120] Top shape: 80 192 28 28 (12042240)
I1218 17:10:12.133023 27366 layer_factory.hpp:74] Creating layer inception_3b/5x5_reduce
I1218 17:10:12.133040 27366 net.cpp:84] Creating Layer inception_3b/5x5_reduce
I1218 17:10:12.133049 27366 net.cpp:380] inception_3b/5x5_reduce <- inception_3a/output_inception_3a/output_0_split_2
I1218 17:10:12.133082 27366 net.cpp:338] inception_3b/5x5_reduce -> inception_3b/5x5_reduce
I1218 17:10:12.133101 27366 net.cpp:113] Setting up inception_3b/5x5_reduce
I1218 17:10:12.135047 27366 net.cpp:120] Top shape: 80 32 28 28 (2007040)
I1218 17:10:12.135064 27366 layer_factory.hpp:74] Creating layer inception_3b/relu_5x5_reduce
I1218 17:10:12.135076 27366 net.cpp:84] Creating Layer inception_3b/relu_5x5_reduce
I1218 17:10:12.135084 27366 net.cpp:380] inception_3b/relu_5x5_reduce <- inception_3b/5x5_reduce
I1218 17:10:12.135095 27366 net.cpp:327] inception_3b/relu_5x5_reduce -> inception_3b/5x5_reduce (in-place)
I1218 17:10:12.135107 27366 net.cpp:113] Setting up inception_3b/relu_5x5_reduce
I1218 17:10:12.135205 27366 net.cpp:120] Top shape: 80 32 28 28 (2007040)
I1218 17:10:12.135216 27366 layer_factory.hpp:74] Creating layer inception_3b/5x5
I1218 17:10:12.135234 27366 net.cpp:84] Creating Layer inception_3b/5x5
I1218 17:10:12.135243 27366 net.cpp:380] inception_3b/5x5 <- inception_3b/5x5_reduce
I1218 17:10:12.135254 27366 net.cpp:338] inception_3b/5x5 -> inception_3b/5x5
I1218 17:10:12.135282 27366 net.cpp:113] Setting up inception_3b/5x5
I1218 17:10:12.138368 27366 net.cpp:120] Top shape: 80 96 28 28 (6021120)
I1218 17:10:12.138401 27366 layer_factory.hpp:74] Creating layer inception_3b/relu_5x5
I1218 17:10:12.138411 27366 net.cpp:84] Creating Layer inception_3b/relu_5x5
I1218 17:10:12.138417 27366 net.cpp:380] inception_3b/relu_5x5 <- inception_3b/5x5
I1218 17:10:12.138427 27366 net.cpp:327] inception_3b/relu_5x5 -> inception_3b/5x5 (in-place)
I1218 17:10:12.138437 27366 net.cpp:113] Setting up inception_3b/relu_5x5
I1218 17:10:12.139631 27366 net.cpp:120] Top shape: 80 96 28 28 (6021120)
I1218 17:10:12.139653 27366 layer_factory.hpp:74] Creating layer inception_3b/pool
I1218 17:10:12.139664 27366 layer_factory.cpp:56] CUDNN does not support padding or multiple tops. Using Caffe's own pooling layer.
I1218 17:10:12.139674 27366 net.cpp:84] Creating Layer inception_3b/pool
I1218 17:10:12.139683 27366 net.cpp:380] inception_3b/pool <- inception_3a/output_inception_3a/output_0_split_3
I1218 17:10:12.139694 27366 net.cpp:338] inception_3b/pool -> inception_3b/pool
I1218 17:10:12.139704 27366 net.cpp:113] Setting up inception_3b/pool
I1218 17:10:12.139714 27366 net.cpp:120] Top shape: 80 256 28 28 (16056320)
I1218 17:10:12.139719 27366 layer_factory.hpp:74] Creating layer inception_3b/pool_proj
I1218 17:10:12.139732 27366 net.cpp:84] Creating Layer inception_3b/pool_proj
I1218 17:10:12.139739 27366 net.cpp:380] inception_3b/pool_proj <- inception_3b/pool
I1218 17:10:12.139755 27366 net.cpp:338] inception_3b/pool_proj -> inception_3b/pool_proj
I1218 17:10:12.139770 27366 net.cpp:113] Setting up inception_3b/pool_proj
I1218 17:10:12.140837 27366 net.cpp:120] Top shape: 80 64 28 28 (4014080)
I1218 17:10:12.140873 27366 layer_factory.hpp:74] Creating layer inception_3b/relu_pool_proj
I1218 17:10:12.140882 27366 net.cpp:84] Creating Layer inception_3b/relu_pool_proj
I1218 17:10:12.140888 27366 net.cpp:380] inception_3b/relu_pool_proj <- inception_3b/pool_proj
I1218 17:10:12.140895 27366 net.cpp:327] inception_3b/relu_pool_proj -> inception_3b/pool_proj (in-place)
I1218 17:10:12.140907 27366 net.cpp:113] Setting up inception_3b/relu_pool_proj
I1218 17:10:12.141000 27366 net.cpp:120] Top shape: 80 64 28 28 (4014080)
I1218 17:10:12.141008 27366 layer_factory.hpp:74] Creating layer inception_3b/output
I1218 17:10:12.141019 27366 net.cpp:84] Creating Layer inception_3b/output
I1218 17:10:12.141027 27366 net.cpp:380] inception_3b/output <- inception_3b/1x1
I1218 17:10:12.141037 27366 net.cpp:380] inception_3b/output <- inception_3b/3x3
I1218 17:10:12.141047 27366 net.cpp:380] inception_3b/output <- inception_3b/5x5
I1218 17:10:12.141072 27366 net.cpp:380] inception_3b/output <- inception_3b/pool_proj
I1218 17:10:12.141088 27366 net.cpp:338] inception_3b/output -> inception_3b/output
I1218 17:10:12.141098 27366 net.cpp:113] Setting up inception_3b/output
I1218 17:10:12.141108 27366 net.cpp:120] Top shape: 80 480 28 28 (30105600)
I1218 17:10:12.141113 27366 layer_factory.hpp:74] Creating layer pool3/3x3_s2
I1218 17:10:12.141121 27366 net.cpp:84] Creating Layer pool3/3x3_s2
I1218 17:10:12.141126 27366 net.cpp:380] pool3/3x3_s2 <- inception_3b/output
I1218 17:10:12.141134 27366 net.cpp:338] pool3/3x3_s2 -> pool3/3x3_s2
I1218 17:10:12.141139 27366 net.cpp:113] Setting up pool3/3x3_s2
I1218 17:10:12.141222 27366 net.cpp:120] Top shape: 80 480 14 14 (7526400)
I1218 17:10:12.141233 27366 layer_factory.hpp:74] Creating layer pool3/3x3_s2_pool3/3x3_s2_0_split
I1218 17:10:12.141245 27366 net.cpp:84] Creating Layer pool3/3x3_s2_pool3/3x3_s2_0_split
I1218 17:10:12.141252 27366 net.cpp:380] pool3/3x3_s2_pool3/3x3_s2_0_split <- pool3/3x3_s2
I1218 17:10:12.141266 27366 net.cpp:338] pool3/3x3_s2_pool3/3x3_s2_0_split -> pool3/3x3_s2_pool3/3x3_s2_0_split_0
I1218 17:10:12.141278 27366 net.cpp:338] pool3/3x3_s2_pool3/3x3_s2_0_split -> pool3/3x3_s2_pool3/3x3_s2_0_split_1
I1218 17:10:12.141286 27366 net.cpp:338] pool3/3x3_s2_pool3/3x3_s2_0_split -> pool3/3x3_s2_pool3/3x3_s2_0_split_2
I1218 17:10:12.141293 27366 net.cpp:338] pool3/3x3_s2_pool3/3x3_s2_0_split -> pool3/3x3_s2_pool3/3x3_s2_0_split_3
I1218 17:10:12.141299 27366 net.cpp:113] Setting up pool3/3x3_s2_pool3/3x3_s2_0_split
I1218 17:10:12.141311 27366 net.cpp:120] Top shape: 80 480 14 14 (7526400)
I1218 17:10:12.141321 27366 net.cpp:120] Top shape: 80 480 14 14 (7526400)
I1218 17:10:12.141330 27366 net.cpp:120] Top shape: 80 480 14 14 (7526400)
I1218 17:10:12.141337 27366 net.cpp:120] Top shape: 80 480 14 14 (7526400)
I1218 17:10:12.141345 27366 layer_factory.hpp:74] Creating layer inception_4a/1x1
I1218 17:10:12.141357 27366 net.cpp:84] Creating Layer inception_4a/1x1
I1218 17:10:12.141363 27366 net.cpp:380] inception_4a/1x1 <- pool3/3x3_s2_pool3/3x3_s2_0_split_0
I1218 17:10:12.141372 27366 net.cpp:338] inception_4a/1x1 -> inception_4a/1x1
I1218 17:10:12.141381 27366 net.cpp:113] Setting up inception_4a/1x1
I1218 17:10:12.143430 27366 net.cpp:120] Top shape: 80 192 14 14 (3010560)
I1218 17:10:12.143460 27366 layer_factory.hpp:74] Creating layer inception_4a/relu_1x1
I1218 17:10:12.143474 27366 net.cpp:84] Creating Layer inception_4a/relu_1x1
I1218 17:10:12.143482 27366 net.cpp:380] inception_4a/relu_1x1 <- inception_4a/1x1
I1218 17:10:12.143494 27366 net.cpp:327] inception_4a/relu_1x1 -> inception_4a/1x1 (in-place)
I1218 17:10:12.143506 27366 net.cpp:113] Setting up inception_4a/relu_1x1
I1218 17:10:12.145939 27366 net.cpp:120] Top shape: 80 192 14 14 (3010560)
I1218 17:10:12.145957 27366 layer_factory.hpp:74] Creating layer inception_4a/3x3_reduce
I1218 17:10:12.145972 27366 net.cpp:84] Creating Layer inception_4a/3x3_reduce
I1218 17:10:12.145982 27366 net.cpp:380] inception_4a/3x3_reduce <- pool3/3x3_s2_pool3/3x3_s2_0_split_1
I1218 17:10:12.146006 27366 net.cpp:338] inception_4a/3x3_reduce -> inception_4a/3x3_reduce
I1218 17:10:12.146028 27366 net.cpp:113] Setting up inception_4a/3x3_reduce
I1218 17:10:12.147550 27366 net.cpp:120] Top shape: 80 96 14 14 (1505280)
I1218 17:10:12.147578 27366 layer_factory.hpp:74] Creating layer inception_4a/relu_3x3_reduce
I1218 17:10:12.147594 27366 net.cpp:84] Creating Layer inception_4a/relu_3x3_reduce
I1218 17:10:12.147603 27366 net.cpp:380] inception_4a/relu_3x3_reduce <- inception_4a/3x3_reduce
I1218 17:10:12.147614 27366 net.cpp:327] inception_4a/relu_3x3_reduce -> inception_4a/3x3_reduce (in-place)
I1218 17:10:12.147624 27366 net.cpp:113] Setting up inception_4a/relu_3x3_reduce
I1218 17:10:12.147716 27366 net.cpp:120] Top shape: 80 96 14 14 (1505280)
I1218 17:10:12.147727 27366 layer_factory.hpp:74] Creating layer inception_4a/3x3
I1218 17:10:12.147740 27366 net.cpp:84] Creating Layer inception_4a/3x3
I1218 17:10:12.147745 27366 net.cpp:380] inception_4a/3x3 <- inception_4a/3x3_reduce
I1218 17:10:12.147753 27366 net.cpp:338] inception_4a/3x3 -> inception_4a/3x3
I1218 17:10:12.147763 27366 net.cpp:113] Setting up inception_4a/3x3
I1218 17:10:12.151209 27366 net.cpp:120] Top shape: 80 208 14 14 (3261440)
I1218 17:10:12.151226 27366 layer_factory.hpp:74] Creating layer inception_4a/relu_3x3
I1218 17:10:12.151234 27366 net.cpp:84] Creating Layer inception_4a/relu_3x3
I1218 17:10:12.151239 27366 net.cpp:380] inception_4a/relu_3x3 <- inception_4a/3x3
I1218 17:10:12.151247 27366 net.cpp:327] inception_4a/relu_3x3 -> inception_4a/3x3 (in-place)
I1218 17:10:12.151254 27366 net.cpp:113] Setting up inception_4a/relu_3x3
I1218 17:10:12.151347 27366 net.cpp:120] Top shape: 80 208 14 14 (3261440)
I1218 17:10:12.151355 27366 layer_factory.hpp:74] Creating layer inception_4a/5x5_reduce
I1218 17:10:12.151365 27366 net.cpp:84] Creating Layer inception_4a/5x5_reduce
I1218 17:10:12.151371 27366 net.cpp:380] inception_4a/5x5_reduce <- pool3/3x3_s2_pool3/3x3_s2_0_split_2
I1218 17:10:12.151387 27366 net.cpp:338] inception_4a/5x5_reduce -> inception_4a/5x5_reduce
I1218 17:10:12.151399 27366 net.cpp:113] Setting up inception_4a/5x5_reduce
I1218 17:10:12.153779 27366 net.cpp:120] Top shape: 80 16 14 14 (250880)
I1218 17:10:12.153798 27366 layer_factory.hpp:74] Creating layer inception_4a/relu_5x5_reduce
I1218 17:10:12.153813 27366 net.cpp:84] Creating Layer inception_4a/relu_5x5_reduce
I1218 17:10:12.153821 27366 net.cpp:380] inception_4a/relu_5x5_reduce <- inception_4a/5x5_reduce
I1218 17:10:12.153831 27366 net.cpp:327] inception_4a/relu_5x5_reduce -> inception_4a/5x5_reduce (in-place)
I1218 17:10:12.153842 27366 net.cpp:113] Setting up inception_4a/relu_5x5_reduce
I1218 17:10:12.155406 27366 net.cpp:120] Top shape: 80 16 14 14 (250880)
I1218 17:10:12.155417 27366 layer_factory.hpp:74] Creating layer inception_4a/5x5
I1218 17:10:12.155429 27366 net.cpp:84] Creating Layer inception_4a/5x5
I1218 17:10:12.155436 27366 net.cpp:380] inception_4a/5x5 <- inception_4a/5x5_reduce
I1218 17:10:12.155447 27366 net.cpp:338] inception_4a/5x5 -> inception_4a/5x5
I1218 17:10:12.155460 27366 net.cpp:113] Setting up inception_4a/5x5
I1218 17:10:12.156971 27366 net.cpp:120] Top shape: 80 48 14 14 (752640)
I1218 17:10:12.156987 27366 layer_factory.hpp:74] Creating layer inception_4a/relu_5x5
I1218 17:10:12.156997 27366 net.cpp:84] Creating Layer inception_4a/relu_5x5
I1218 17:10:12.157002 27366 net.cpp:380] inception_4a/relu_5x5 <- inception_4a/5x5
I1218 17:10:12.157009 27366 net.cpp:327] inception_4a/relu_5x5 -> inception_4a/5x5 (in-place)
I1218 17:10:12.157016 27366 net.cpp:113] Setting up inception_4a/relu_5x5
I1218 17:10:12.157728 27366 net.cpp:120] Top shape: 80 48 14 14 (752640)
I1218 17:10:12.157742 27366 layer_factory.hpp:74] Creating layer inception_4a/pool
I1218 17:10:12.157750 27366 layer_factory.cpp:56] CUDNN does not support padding or multiple tops. Using Caffe's own pooling layer.
I1218 17:10:12.157760 27366 net.cpp:84] Creating Layer inception_4a/pool
I1218 17:10:12.157769 27366 net.cpp:380] inception_4a/pool <- pool3/3x3_s2_pool3/3x3_s2_0_split_3
I1218 17:10:12.157789 27366 net.cpp:338] inception_4a/pool -> inception_4a/pool
I1218 17:10:12.157809 27366 net.cpp:113] Setting up inception_4a/pool
I1218 17:10:12.157819 27366 net.cpp:120] Top shape: 80 480 14 14 (7526400)
I1218 17:10:12.157824 27366 layer_factory.hpp:74] Creating layer inception_4a/pool_proj
I1218 17:10:12.157835 27366 net.cpp:84] Creating Layer inception_4a/pool_proj
I1218 17:10:12.157840 27366 net.cpp:380] inception_4a/pool_proj <- inception_4a/pool
I1218 17:10:12.157850 27366 net.cpp:338] inception_4a/pool_proj -> inception_4a/pool_proj
I1218 17:10:12.157862 27366 net.cpp:113] Setting up inception_4a/pool_proj
I1218 17:10:12.159099 27366 net.cpp:120] Top shape: 80 64 14 14 (1003520)
I1218 17:10:12.159116 27366 layer_factory.hpp:74] Creating layer inception_4a/relu_pool_proj
I1218 17:10:12.159124 27366 net.cpp:84] Creating Layer inception_4a/relu_pool_proj
I1218 17:10:12.159131 27366 net.cpp:380] inception_4a/relu_pool_proj <- inception_4a/pool_proj
I1218 17:10:12.159138 27366 net.cpp:327] inception_4a/relu_pool_proj -> inception_4a/pool_proj (in-place)
I1218 17:10:12.159147 27366 net.cpp:113] Setting up inception_4a/relu_pool_proj
I1218 17:10:12.159281 27366 net.cpp:120] Top shape: 80 64 14 14 (1003520)
I1218 17:10:12.159291 27366 layer_factory.hpp:74] Creating layer inception_4a/output
I1218 17:10:12.159301 27366 net.cpp:84] Creating Layer inception_4a/output
I1218 17:10:12.159306 27366 net.cpp:380] inception_4a/output <- inception_4a/1x1
I1218 17:10:12.159312 27366 net.cpp:380] inception_4a/output <- inception_4a/3x3
I1218 17:10:12.159317 27366 net.cpp:380] inception_4a/output <- inception_4a/5x5
I1218 17:10:12.159322 27366 net.cpp:380] inception_4a/output <- inception_4a/pool_proj
I1218 17:10:12.159327 27366 net.cpp:338] inception_4a/output -> inception_4a/output
I1218 17:10:12.159335 27366 net.cpp:113] Setting up inception_4a/output
I1218 17:10:12.159345 27366 net.cpp:120] Top shape: 80 512 14 14 (8028160)
I1218 17:10:12.159353 27366 layer_factory.hpp:74] Creating layer inception_4a/output_inception_4a/output_0_split
I1218 17:10:12.159363 27366 net.cpp:84] Creating Layer inception_4a/output_inception_4a/output_0_split
I1218 17:10:12.159371 27366 net.cpp:380] inception_4a/output_inception_4a/output_0_split <- inception_4a/output
I1218 17:10:12.159384 27366 net.cpp:338] inception_4a/output_inception_4a/output_0_split -> inception_4a/output_inception_4a/output_0_split_0
I1218 17:10:12.159396 27366 net.cpp:338] inception_4a/output_inception_4a/output_0_split -> inception_4a/output_inception_4a/output_0_split_1
I1218 17:10:12.159407 27366 net.cpp:338] inception_4a/output_inception_4a/output_0_split -> inception_4a/output_inception_4a/output_0_split_2
I1218 17:10:12.159420 27366 net.cpp:338] inception_4a/output_inception_4a/output_0_split -> inception_4a/output_inception_4a/output_0_split_3
I1218 17:10:12.159428 27366 net.cpp:338] inception_4a/output_inception_4a/output_0_split -> inception_4a/output_inception_4a/output_0_split_4
I1218 17:10:12.159435 27366 net.cpp:113] Setting up inception_4a/output_inception_4a/output_0_split
I1218 17:10:12.159445 27366 net.cpp:120] Top shape: 80 512 14 14 (8028160)
I1218 17:10:12.159449 27366 net.cpp:120] Top shape: 80 512 14 14 (8028160)
I1218 17:10:12.159453 27366 net.cpp:120] Top shape: 80 512 14 14 (8028160)
I1218 17:10:12.159458 27366 net.cpp:120] Top shape: 80 512 14 14 (8028160)
I1218 17:10:12.159463 27366 net.cpp:120] Top shape: 80 512 14 14 (8028160)
I1218 17:10:12.159468 27366 layer_factory.hpp:74] Creating layer loss1/ave_pool
I1218 17:10:12.159485 27366 net.cpp:84] Creating Layer loss1/ave_pool
I1218 17:10:12.159492 27366 net.cpp:380] loss1/ave_pool <- inception_4a/output_inception_4a/output_0_split_0
I1218 17:10:12.159502 27366 net.cpp:338] loss1/ave_pool -> loss1/ave_pool
I1218 17:10:12.159512 27366 net.cpp:113] Setting up loss1/ave_pool
I1218 17:10:12.159623 27366 net.cpp:120] Top shape: 80 512 4 4 (655360)
I1218 17:10:12.159633 27366 layer_factory.hpp:74] Creating layer loss1/conv
I1218 17:10:12.159646 27366 net.cpp:84] Creating Layer loss1/conv
I1218 17:10:12.159656 27366 net.cpp:380] loss1/conv <- loss1/ave_pool
I1218 17:10:12.159670 27366 net.cpp:338] loss1/conv -> loss1/conv
I1218 17:10:12.159683 27366 net.cpp:113] Setting up loss1/conv
I1218 17:10:12.161442 27366 net.cpp:120] Top shape: 80 128 4 4 (163840)
I1218 17:10:12.161459 27366 layer_factory.hpp:74] Creating layer loss1/relu_conv
I1218 17:10:12.161469 27366 net.cpp:84] Creating Layer loss1/relu_conv
I1218 17:10:12.161474 27366 net.cpp:380] loss1/relu_conv <- loss1/conv
I1218 17:10:12.161481 27366 net.cpp:327] loss1/relu_conv -> loss1/conv (in-place)
I1218 17:10:12.161489 27366 net.cpp:113] Setting up loss1/relu_conv
I1218 17:10:12.161573 27366 net.cpp:120] Top shape: 80 128 4 4 (163840)
I1218 17:10:12.161588 27366 layer_factory.hpp:74] Creating layer loss1/fc
I1218 17:10:12.161603 27366 net.cpp:84] Creating Layer loss1/fc
I1218 17:10:12.161610 27366 net.cpp:380] loss1/fc <- loss1/conv
I1218 17:10:12.161623 27366 net.cpp:338] loss1/fc -> loss1/fc
I1218 17:10:12.161634 27366 net.cpp:113] Setting up loss1/fc
I1218 17:10:12.294702 27366 net.cpp:120] Top shape: 80 1024 (81920)
I1218 17:10:12.294735 27366 layer_factory.hpp:74] Creating layer loss1/relu_fc
I1218 17:10:12.294749 27366 net.cpp:84] Creating Layer loss1/relu_fc
I1218 17:10:12.294757 27366 net.cpp:380] loss1/relu_fc <- loss1/fc
I1218 17:10:12.294765 27366 net.cpp:327] loss1/relu_fc -> loss1/fc (in-place)
I1218 17:10:12.294775 27366 net.cpp:113] Setting up loss1/relu_fc
I1218 17:10:12.295182 27366 net.cpp:120] Top shape: 80 1024 (81920)
I1218 17:10:12.295194 27366 layer_factory.hpp:74] Creating layer loss1/drop_fc
I1218 17:10:12.295215 27366 net.cpp:84] Creating Layer loss1/drop_fc
I1218 17:10:12.295220 27366 net.cpp:380] loss1/drop_fc <- loss1/fc
I1218 17:10:12.295228 27366 net.cpp:327] loss1/drop_fc -> loss1/fc (in-place)
I1218 17:10:12.295240 27366 net.cpp:113] Setting up loss1/drop_fc
I1218 17:10:12.295254 27366 net.cpp:120] Top shape: 80 1024 (81920)
I1218 17:10:12.295263 27366 layer_factory.hpp:74] Creating layer loss1/classifier_kaggle
I1218 17:10:12.295276 27366 net.cpp:84] Creating Layer loss1/classifier_kaggle
I1218 17:10:12.295281 27366 net.cpp:380] loss1/classifier_kaggle <- loss1/fc
I1218 17:10:12.295290 27366 net.cpp:338] loss1/classifier_kaggle -> loss1/classifier_kaggle
I1218 17:10:12.295300 27366 net.cpp:113] Setting up loss1/classifier_kaggle
I1218 17:10:12.300660 27366 net.cpp:120] Top shape: 80 447 (35760)
I1218 17:10:12.300680 27366 layer_factory.hpp:74] Creating layer loss1/loss
I1218 17:10:12.300693 27366 net.cpp:84] Creating Layer loss1/loss
I1218 17:10:12.300698 27366 net.cpp:380] loss1/loss <- loss1/classifier_kaggle
I1218 17:10:12.300704 27366 net.cpp:380] loss1/loss <- label_data_1_split_0
I1218 17:10:12.300711 27366 net.cpp:338] loss1/loss -> loss1/loss1
I1218 17:10:12.300724 27366 net.cpp:113] Setting up loss1/loss
I1218 17:10:12.300736 27366 layer_factory.hpp:74] Creating layer loss1/loss
I1218 17:10:12.300918 27366 net.cpp:120] Top shape: (1)
I1218 17:10:12.300931 27366 net.cpp:122]     with loss weight 0.3
I1218 17:10:12.300958 27366 layer_factory.hpp:74] Creating layer inception_4b/1x1
I1218 17:10:12.300974 27366 net.cpp:84] Creating Layer inception_4b/1x1
I1218 17:10:12.300981 27366 net.cpp:380] inception_4b/1x1 <- inception_4a/output_inception_4a/output_0_split_1
I1218 17:10:12.300990 27366 net.cpp:338] inception_4b/1x1 -> inception_4b/1x1
I1218 17:10:12.300999 27366 net.cpp:113] Setting up inception_4b/1x1
I1218 17:10:12.302480 27366 net.cpp:120] Top shape: 80 160 14 14 (2508800)
I1218 17:10:12.302500 27366 layer_factory.hpp:74] Creating layer inception_4b/relu_1x1
I1218 17:10:12.302515 27366 net.cpp:84] Creating Layer inception_4b/relu_1x1
I1218 17:10:12.302522 27366 net.cpp:380] inception_4b/relu_1x1 <- inception_4b/1x1
I1218 17:10:12.302536 27366 net.cpp:327] inception_4b/relu_1x1 -> inception_4b/1x1 (in-place)
I1218 17:10:12.302544 27366 net.cpp:113] Setting up inception_4b/relu_1x1
I1218 17:10:12.302624 27366 net.cpp:120] Top shape: 80 160 14 14 (2508800)
I1218 17:10:12.302646 27366 layer_factory.hpp:74] Creating layer inception_4b/3x3_reduce
I1218 17:10:12.302666 27366 net.cpp:84] Creating Layer inception_4b/3x3_reduce
I1218 17:10:12.302671 27366 net.cpp:380] inception_4b/3x3_reduce <- inception_4a/output_inception_4a/output_0_split_2
I1218 17:10:12.302680 27366 net.cpp:338] inception_4b/3x3_reduce -> inception_4b/3x3_reduce
I1218 17:10:12.302691 27366 net.cpp:113] Setting up inception_4b/3x3_reduce
I1218 17:10:12.303830 27366 net.cpp:120] Top shape: 80 112 14 14 (1756160)
I1218 17:10:12.303846 27366 layer_factory.hpp:74] Creating layer inception_4b/relu_3x3_reduce
I1218 17:10:12.303855 27366 net.cpp:84] Creating Layer inception_4b/relu_3x3_reduce
I1218 17:10:12.303864 27366 net.cpp:380] inception_4b/relu_3x3_reduce <- inception_4b/3x3_reduce
I1218 17:10:12.303875 27366 net.cpp:327] inception_4b/relu_3x3_reduce -> inception_4b/3x3_reduce (in-place)
I1218 17:10:12.303886 27366 net.cpp:113] Setting up inception_4b/relu_3x3_reduce
I1218 17:10:12.303953 27366 net.cpp:120] Top shape: 80 112 14 14 (1756160)
I1218 17:10:12.303963 27366 layer_factory.hpp:74] Creating layer inception_4b/3x3
I1218 17:10:12.303977 27366 net.cpp:84] Creating Layer inception_4b/3x3
I1218 17:10:12.303984 27366 net.cpp:380] inception_4b/3x3 <- inception_4b/3x3_reduce
I1218 17:10:12.303997 27366 net.cpp:338] inception_4b/3x3 -> inception_4b/3x3
I1218 17:10:12.304010 27366 net.cpp:113] Setting up inception_4b/3x3
I1218 17:10:12.307171 27366 net.cpp:120] Top shape: 80 224 14 14 (3512320)
I1218 17:10:12.307193 27366 layer_factory.hpp:74] Creating layer inception_4b/relu_3x3
I1218 17:10:12.307200 27366 net.cpp:84] Creating Layer inception_4b/relu_3x3
I1218 17:10:12.307211 27366 net.cpp:380] inception_4b/relu_3x3 <- inception_4b/3x3
I1218 17:10:12.307222 27366 net.cpp:327] inception_4b/relu_3x3 -> inception_4b/3x3 (in-place)
I1218 17:10:12.307234 27366 net.cpp:113] Setting up inception_4b/relu_3x3
I1218 17:10:12.307502 27366 net.cpp:120] Top shape: 80 224 14 14 (3512320)
I1218 17:10:12.307518 27366 layer_factory.hpp:74] Creating layer inception_4b/5x5_reduce
I1218 17:10:12.307534 27366 net.cpp:84] Creating Layer inception_4b/5x5_reduce
I1218 17:10:12.307543 27366 net.cpp:380] inception_4b/5x5_reduce <- inception_4a/output_inception_4a/output_0_split_3
I1218 17:10:12.307555 27366 net.cpp:338] inception_4b/5x5_reduce -> inception_4b/5x5_reduce
I1218 17:10:12.307566 27366 net.cpp:113] Setting up inception_4b/5x5_reduce
I1218 17:10:12.308214 27366 net.cpp:120] Top shape: 80 24 14 14 (376320)
I1218 17:10:12.308230 27366 layer_factory.hpp:74] Creating layer inception_4b/relu_5x5_reduce
I1218 17:10:12.308238 27366 net.cpp:84] Creating Layer inception_4b/relu_5x5_reduce
I1218 17:10:12.308244 27366 net.cpp:380] inception_4b/relu_5x5_reduce <- inception_4b/5x5_reduce
I1218 17:10:12.308250 27366 net.cpp:327] inception_4b/relu_5x5_reduce -> inception_4b/5x5_reduce (in-place)
I1218 17:10:12.308259 27366 net.cpp:113] Setting up inception_4b/relu_5x5_reduce
I1218 17:10:12.308359 27366 net.cpp:120] Top shape: 80 24 14 14 (376320)
I1218 17:10:12.308368 27366 layer_factory.hpp:74] Creating layer inception_4b/5x5
I1218 17:10:12.308382 27366 net.cpp:84] Creating Layer inception_4b/5x5
I1218 17:10:12.308392 27366 net.cpp:380] inception_4b/5x5 <- inception_4b/5x5_reduce
I1218 17:10:12.308401 27366 net.cpp:338] inception_4b/5x5 -> inception_4b/5x5
I1218 17:10:12.308414 27366 net.cpp:113] Setting up inception_4b/5x5
I1218 17:10:12.309339 27366 net.cpp:120] Top shape: 80 64 14 14 (1003520)
I1218 17:10:12.309360 27366 layer_factory.hpp:74] Creating layer inception_4b/relu_5x5
I1218 17:10:12.309368 27366 net.cpp:84] Creating Layer inception_4b/relu_5x5
I1218 17:10:12.309373 27366 net.cpp:380] inception_4b/relu_5x5 <- inception_4b/5x5
I1218 17:10:12.309382 27366 net.cpp:327] inception_4b/relu_5x5 -> inception_4b/5x5 (in-place)
I1218 17:10:12.309393 27366 net.cpp:113] Setting up inception_4b/relu_5x5
I1218 17:10:12.309481 27366 net.cpp:120] Top shape: 80 64 14 14 (1003520)
I1218 17:10:12.309490 27366 layer_factory.hpp:74] Creating layer inception_4b/pool
I1218 17:10:12.309504 27366 layer_factory.cpp:56] CUDNN does not support padding or multiple tops. Using Caffe's own pooling layer.
I1218 17:10:12.309516 27366 net.cpp:84] Creating Layer inception_4b/pool
I1218 17:10:12.309522 27366 net.cpp:380] inception_4b/pool <- inception_4a/output_inception_4a/output_0_split_4
I1218 17:10:12.309535 27366 net.cpp:338] inception_4b/pool -> inception_4b/pool
I1218 17:10:12.309561 27366 net.cpp:113] Setting up inception_4b/pool
I1218 17:10:12.309576 27366 net.cpp:120] Top shape: 80 512 14 14 (8028160)
I1218 17:10:12.309584 27366 layer_factory.hpp:74] Creating layer inception_4b/pool_proj
I1218 17:10:12.309597 27366 net.cpp:84] Creating Layer inception_4b/pool_proj
I1218 17:10:12.309603 27366 net.cpp:380] inception_4b/pool_proj <- inception_4b/pool
I1218 17:10:12.309618 27366 net.cpp:338] inception_4b/pool_proj -> inception_4b/pool_proj
I1218 17:10:12.309628 27366 net.cpp:113] Setting up inception_4b/pool_proj
I1218 17:10:12.310493 27366 net.cpp:120] Top shape: 80 64 14 14 (1003520)
I1218 17:10:12.310509 27366 layer_factory.hpp:74] Creating layer inception_4b/relu_pool_proj
I1218 17:10:12.310518 27366 net.cpp:84] Creating Layer inception_4b/relu_pool_proj
I1218 17:10:12.310523 27366 net.cpp:380] inception_4b/relu_pool_proj <- inception_4b/pool_proj
I1218 17:10:12.310534 27366 net.cpp:327] inception_4b/relu_pool_proj -> inception_4b/pool_proj (in-place)
I1218 17:10:12.310544 27366 net.cpp:113] Setting up inception_4b/relu_pool_proj
I1218 17:10:12.310848 27366 net.cpp:120] Top shape: 80 64 14 14 (1003520)
I1218 17:10:12.310860 27366 layer_factory.hpp:74] Creating layer inception_4b/output
I1218 17:10:12.310868 27366 net.cpp:84] Creating Layer inception_4b/output
I1218 17:10:12.310873 27366 net.cpp:380] inception_4b/output <- inception_4b/1x1
I1218 17:10:12.310880 27366 net.cpp:380] inception_4b/output <- inception_4b/3x3
I1218 17:10:12.310885 27366 net.cpp:380] inception_4b/output <- inception_4b/5x5
I1218 17:10:12.310890 27366 net.cpp:380] inception_4b/output <- inception_4b/pool_proj
I1218 17:10:12.310896 27366 net.cpp:338] inception_4b/output -> inception_4b/output
I1218 17:10:12.310904 27366 net.cpp:113] Setting up inception_4b/output
I1218 17:10:12.310914 27366 net.cpp:120] Top shape: 80 512 14 14 (8028160)
I1218 17:10:12.310920 27366 layer_factory.hpp:74] Creating layer inception_4b/output_inception_4b/output_0_split
I1218 17:10:12.310935 27366 net.cpp:84] Creating Layer inception_4b/output_inception_4b/output_0_split
I1218 17:10:12.310941 27366 net.cpp:380] inception_4b/output_inception_4b/output_0_split <- inception_4b/output
I1218 17:10:12.310951 27366 net.cpp:338] inception_4b/output_inception_4b/output_0_split -> inception_4b/output_inception_4b/output_0_split_0
I1218 17:10:12.310963 27366 net.cpp:338] inception_4b/output_inception_4b/output_0_split -> inception_4b/output_inception_4b/output_0_split_1
I1218 17:10:12.310977 27366 net.cpp:338] inception_4b/output_inception_4b/output_0_split -> inception_4b/output_inception_4b/output_0_split_2
I1218 17:10:12.310989 27366 net.cpp:338] inception_4b/output_inception_4b/output_0_split -> inception_4b/output_inception_4b/output_0_split_3
I1218 17:10:12.310998 27366 net.cpp:113] Setting up inception_4b/output_inception_4b/output_0_split
I1218 17:10:12.311007 27366 net.cpp:120] Top shape: 80 512 14 14 (8028160)
I1218 17:10:12.311012 27366 net.cpp:120] Top shape: 80 512 14 14 (8028160)
I1218 17:10:12.311017 27366 net.cpp:120] Top shape: 80 512 14 14 (8028160)
I1218 17:10:12.311022 27366 net.cpp:120] Top shape: 80 512 14 14 (8028160)
I1218 17:10:12.311027 27366 layer_factory.hpp:74] Creating layer inception_4c/1x1
I1218 17:10:12.311038 27366 net.cpp:84] Creating Layer inception_4c/1x1
I1218 17:10:12.311045 27366 net.cpp:380] inception_4c/1x1 <- inception_4b/output_inception_4b/output_0_split_0
I1218 17:10:12.311058 27366 net.cpp:338] inception_4c/1x1 -> inception_4c/1x1
I1218 17:10:12.311070 27366 net.cpp:113] Setting up inception_4c/1x1
I1218 17:10:12.312311 27366 net.cpp:120] Top shape: 80 128 14 14 (2007040)
I1218 17:10:12.312340 27366 layer_factory.hpp:74] Creating layer inception_4c/relu_1x1
I1218 17:10:12.312358 27366 net.cpp:84] Creating Layer inception_4c/relu_1x1
I1218 17:10:12.312366 27366 net.cpp:380] inception_4c/relu_1x1 <- inception_4c/1x1
I1218 17:10:12.312376 27366 net.cpp:327] inception_4c/relu_1x1 -> inception_4c/1x1 (in-place)
I1218 17:10:12.312382 27366 net.cpp:113] Setting up inception_4c/relu_1x1
I1218 17:10:12.312453 27366 net.cpp:120] Top shape: 80 128 14 14 (2007040)
I1218 17:10:12.312464 27366 layer_factory.hpp:74] Creating layer inception_4c/3x3_reduce
I1218 17:10:12.312479 27366 net.cpp:84] Creating Layer inception_4c/3x3_reduce
I1218 17:10:12.312486 27366 net.cpp:380] inception_4c/3x3_reduce <- inception_4b/output_inception_4b/output_0_split_1
I1218 17:10:12.312497 27366 net.cpp:338] inception_4c/3x3_reduce -> inception_4c/3x3_reduce
I1218 17:10:12.312510 27366 net.cpp:113] Setting up inception_4c/3x3_reduce
I1218 17:10:12.313769 27366 net.cpp:120] Top shape: 80 128 14 14 (2007040)
I1218 17:10:12.313787 27366 layer_factory.hpp:74] Creating layer inception_4c/relu_3x3_reduce
I1218 17:10:12.313796 27366 net.cpp:84] Creating Layer inception_4c/relu_3x3_reduce
I1218 17:10:12.313802 27366 net.cpp:380] inception_4c/relu_3x3_reduce <- inception_4c/3x3_reduce
I1218 17:10:12.313810 27366 net.cpp:327] inception_4c/relu_3x3_reduce -> inception_4c/3x3_reduce (in-place)
I1218 17:10:12.313817 27366 net.cpp:113] Setting up inception_4c/relu_3x3_reduce
I1218 17:10:12.313902 27366 net.cpp:120] Top shape: 80 128 14 14 (2007040)
I1218 17:10:12.313913 27366 layer_factory.hpp:74] Creating layer inception_4c/3x3
I1218 17:10:12.313928 27366 net.cpp:84] Creating Layer inception_4c/3x3
I1218 17:10:12.313935 27366 net.cpp:380] inception_4c/3x3 <- inception_4c/3x3_reduce
I1218 17:10:12.313941 27366 net.cpp:338] inception_4c/3x3 -> inception_4c/3x3
I1218 17:10:12.313949 27366 net.cpp:113] Setting up inception_4c/3x3
I1218 17:10:12.317944 27366 net.cpp:120] Top shape: 80 256 14 14 (4014080)
I1218 17:10:12.317981 27366 layer_factory.hpp:74] Creating layer inception_4c/relu_3x3
I1218 17:10:12.317989 27366 net.cpp:84] Creating Layer inception_4c/relu_3x3
I1218 17:10:12.317996 27366 net.cpp:380] inception_4c/relu_3x3 <- inception_4c/3x3
I1218 17:10:12.318002 27366 net.cpp:327] inception_4c/relu_3x3 -> inception_4c/3x3 (in-place)
I1218 17:10:12.318011 27366 net.cpp:113] Setting up inception_4c/relu_3x3
I1218 17:10:12.318089 27366 net.cpp:120] Top shape: 80 256 14 14 (4014080)
I1218 17:10:12.318100 27366 layer_factory.hpp:74] Creating layer inception_4c/5x5_reduce
I1218 17:10:12.318116 27366 net.cpp:84] Creating Layer inception_4c/5x5_reduce
I1218 17:10:12.318125 27366 net.cpp:380] inception_4c/5x5_reduce <- inception_4b/output_inception_4b/output_0_split_2
I1218 17:10:12.318136 27366 net.cpp:338] inception_4c/5x5_reduce -> inception_4c/5x5_reduce
I1218 17:10:12.318145 27366 net.cpp:113] Setting up inception_4c/5x5_reduce
I1218 17:10:12.318781 27366 net.cpp:120] Top shape: 80 24 14 14 (376320)
I1218 17:10:12.318797 27366 layer_factory.hpp:74] Creating layer inception_4c/relu_5x5_reduce
I1218 17:10:12.318804 27366 net.cpp:84] Creating Layer inception_4c/relu_5x5_reduce
I1218 17:10:12.318810 27366 net.cpp:380] inception_4c/relu_5x5_reduce <- inception_4c/5x5_reduce
I1218 17:10:12.318824 27366 net.cpp:327] inception_4c/relu_5x5_reduce -> inception_4c/5x5_reduce (in-place)
I1218 17:10:12.318835 27366 net.cpp:113] Setting up inception_4c/relu_5x5_reduce
I1218 17:10:12.319130 27366 net.cpp:120] Top shape: 80 24 14 14 (376320)
I1218 17:10:12.319145 27366 layer_factory.hpp:74] Creating layer inception_4c/5x5
I1218 17:10:12.319157 27366 net.cpp:84] Creating Layer inception_4c/5x5
I1218 17:10:12.319164 27366 net.cpp:380] inception_4c/5x5 <- inception_4c/5x5_reduce
I1218 17:10:12.319172 27366 net.cpp:338] inception_4c/5x5 -> inception_4c/5x5
I1218 17:10:12.319182 27366 net.cpp:113] Setting up inception_4c/5x5
I1218 17:10:12.320127 27366 net.cpp:120] Top shape: 80 64 14 14 (1003520)
I1218 17:10:12.320147 27366 layer_factory.hpp:74] Creating layer inception_4c/relu_5x5
I1218 17:10:12.320168 27366 net.cpp:84] Creating Layer inception_4c/relu_5x5
I1218 17:10:12.320183 27366 net.cpp:380] inception_4c/relu_5x5 <- inception_4c/5x5
I1218 17:10:12.320190 27366 net.cpp:327] inception_4c/relu_5x5 -> inception_4c/5x5 (in-place)
I1218 17:10:12.320199 27366 net.cpp:113] Setting up inception_4c/relu_5x5
I1218 17:10:12.320286 27366 net.cpp:120] Top shape: 80 64 14 14 (1003520)
I1218 17:10:12.320294 27366 layer_factory.hpp:74] Creating layer inception_4c/pool
I1218 17:10:12.320300 27366 layer_factory.cpp:56] CUDNN does not support padding or multiple tops. Using Caffe's own pooling layer.
I1218 17:10:12.320307 27366 net.cpp:84] Creating Layer inception_4c/pool
I1218 17:10:12.320312 27366 net.cpp:380] inception_4c/pool <- inception_4b/output_inception_4b/output_0_split_3
I1218 17:10:12.320319 27366 net.cpp:338] inception_4c/pool -> inception_4c/pool
I1218 17:10:12.320328 27366 net.cpp:113] Setting up inception_4c/pool
I1218 17:10:12.320336 27366 net.cpp:120] Top shape: 80 512 14 14 (8028160)
I1218 17:10:12.320341 27366 layer_factory.hpp:74] Creating layer inception_4c/pool_proj
I1218 17:10:12.320366 27366 net.cpp:84] Creating Layer inception_4c/pool_proj
I1218 17:10:12.320376 27366 net.cpp:380] inception_4c/pool_proj <- inception_4c/pool
I1218 17:10:12.320387 27366 net.cpp:338] inception_4c/pool_proj -> inception_4c/pool_proj
I1218 17:10:12.320399 27366 net.cpp:113] Setting up inception_4c/pool_proj
I1218 17:10:12.321262 27366 net.cpp:120] Top shape: 80 64 14 14 (1003520)
I1218 17:10:12.321285 27366 layer_factory.hpp:74] Creating layer inception_4c/relu_pool_proj
I1218 17:10:12.321297 27366 net.cpp:84] Creating Layer inception_4c/relu_pool_proj
I1218 17:10:12.321306 27366 net.cpp:380] inception_4c/relu_pool_proj <- inception_4c/pool_proj
I1218 17:10:12.321316 27366 net.cpp:327] inception_4c/relu_pool_proj -> inception_4c/pool_proj (in-place)
I1218 17:10:12.321323 27366 net.cpp:113] Setting up inception_4c/relu_pool_proj
I1218 17:10:12.321410 27366 net.cpp:120] Top shape: 80 64 14 14 (1003520)
I1218 17:10:12.321420 27366 layer_factory.hpp:74] Creating layer inception_4c/output
I1218 17:10:12.321429 27366 net.cpp:84] Creating Layer inception_4c/output
I1218 17:10:12.321434 27366 net.cpp:380] inception_4c/output <- inception_4c/1x1
I1218 17:10:12.321439 27366 net.cpp:380] inception_4c/output <- inception_4c/3x3
I1218 17:10:12.321444 27366 net.cpp:380] inception_4c/output <- inception_4c/5x5
I1218 17:10:12.321449 27366 net.cpp:380] inception_4c/output <- inception_4c/pool_proj
I1218 17:10:12.321456 27366 net.cpp:338] inception_4c/output -> inception_4c/output
I1218 17:10:12.321465 27366 net.cpp:113] Setting up inception_4c/output
I1218 17:10:12.321472 27366 net.cpp:120] Top shape: 80 512 14 14 (8028160)
I1218 17:10:12.321476 27366 layer_factory.hpp:74] Creating layer inception_4c/output_inception_4c/output_0_split
I1218 17:10:12.321485 27366 net.cpp:84] Creating Layer inception_4c/output_inception_4c/output_0_split
I1218 17:10:12.321491 27366 net.cpp:380] inception_4c/output_inception_4c/output_0_split <- inception_4c/output
I1218 17:10:12.321501 27366 net.cpp:338] inception_4c/output_inception_4c/output_0_split -> inception_4c/output_inception_4c/output_0_split_0
I1218 17:10:12.321512 27366 net.cpp:338] inception_4c/output_inception_4c/output_0_split -> inception_4c/output_inception_4c/output_0_split_1
I1218 17:10:12.321523 27366 net.cpp:338] inception_4c/output_inception_4c/output_0_split -> inception_4c/output_inception_4c/output_0_split_2
I1218 17:10:12.321534 27366 net.cpp:338] inception_4c/output_inception_4c/output_0_split -> inception_4c/output_inception_4c/output_0_split_3
I1218 17:10:12.321544 27366 net.cpp:113] Setting up inception_4c/output_inception_4c/output_0_split
I1218 17:10:12.321558 27366 net.cpp:120] Top shape: 80 512 14 14 (8028160)
I1218 17:10:12.321566 27366 net.cpp:120] Top shape: 80 512 14 14 (8028160)
I1218 17:10:12.321573 27366 net.cpp:120] Top shape: 80 512 14 14 (8028160)
I1218 17:10:12.321578 27366 net.cpp:120] Top shape: 80 512 14 14 (8028160)
I1218 17:10:12.321583 27366 layer_factory.hpp:74] Creating layer inception_4d/1x1
I1218 17:10:12.321605 27366 net.cpp:84] Creating Layer inception_4d/1x1
I1218 17:10:12.321614 27366 net.cpp:380] inception_4d/1x1 <- inception_4c/output_inception_4c/output_0_split_0
I1218 17:10:12.321625 27366 net.cpp:338] inception_4d/1x1 -> inception_4d/1x1
I1218 17:10:12.321637 27366 net.cpp:113] Setting up inception_4d/1x1
I1218 17:10:12.322784 27366 net.cpp:120] Top shape: 80 112 14 14 (1756160)
I1218 17:10:12.322805 27366 layer_factory.hpp:74] Creating layer inception_4d/relu_1x1
I1218 17:10:12.322816 27366 net.cpp:84] Creating Layer inception_4d/relu_1x1
I1218 17:10:12.322824 27366 net.cpp:380] inception_4d/relu_1x1 <- inception_4d/1x1
I1218 17:10:12.322836 27366 net.cpp:327] inception_4d/relu_1x1 -> inception_4d/1x1 (in-place)
I1218 17:10:12.322845 27366 net.cpp:113] Setting up inception_4d/relu_1x1
I1218 17:10:12.322928 27366 net.cpp:120] Top shape: 80 112 14 14 (1756160)
I1218 17:10:12.322937 27366 layer_factory.hpp:74] Creating layer inception_4d/3x3_reduce
I1218 17:10:12.322948 27366 net.cpp:84] Creating Layer inception_4d/3x3_reduce
I1218 17:10:12.322953 27366 net.cpp:380] inception_4d/3x3_reduce <- inception_4c/output_inception_4c/output_0_split_1
I1218 17:10:12.322960 27366 net.cpp:338] inception_4d/3x3_reduce -> inception_4d/3x3_reduce
I1218 17:10:12.322968 27366 net.cpp:113] Setting up inception_4d/3x3_reduce
I1218 17:10:12.324317 27366 net.cpp:120] Top shape: 80 144 14 14 (2257920)
I1218 17:10:12.324333 27366 layer_factory.hpp:74] Creating layer inception_4d/relu_3x3_reduce
I1218 17:10:12.324342 27366 net.cpp:84] Creating Layer inception_4d/relu_3x3_reduce
I1218 17:10:12.324347 27366 net.cpp:380] inception_4d/relu_3x3_reduce <- inception_4d/3x3_reduce
I1218 17:10:12.324355 27366 net.cpp:327] inception_4d/relu_3x3_reduce -> inception_4d/3x3_reduce (in-place)
I1218 17:10:12.324363 27366 net.cpp:113] Setting up inception_4d/relu_3x3_reduce
I1218 17:10:12.324642 27366 net.cpp:120] Top shape: 80 144 14 14 (2257920)
I1218 17:10:12.324656 27366 layer_factory.hpp:74] Creating layer inception_4d/3x3
I1218 17:10:12.324674 27366 net.cpp:84] Creating Layer inception_4d/3x3
I1218 17:10:12.324682 27366 net.cpp:380] inception_4d/3x3 <- inception_4d/3x3_reduce
I1218 17:10:12.324694 27366 net.cpp:338] inception_4d/3x3 -> inception_4d/3x3
I1218 17:10:12.324707 27366 net.cpp:113] Setting up inception_4d/3x3
I1218 17:10:12.332648 27366 net.cpp:120] Top shape: 80 288 14 14 (4515840)
I1218 17:10:12.332667 27366 layer_factory.hpp:74] Creating layer inception_4d/relu_3x3
I1218 17:10:12.332679 27366 net.cpp:84] Creating Layer inception_4d/relu_3x3
I1218 17:10:12.332686 27366 net.cpp:380] inception_4d/relu_3x3 <- inception_4d/3x3
I1218 17:10:12.332698 27366 net.cpp:327] inception_4d/relu_3x3 -> inception_4d/3x3 (in-place)
I1218 17:10:12.332710 27366 net.cpp:113] Setting up inception_4d/relu_3x3
I1218 17:10:12.332792 27366 net.cpp:120] Top shape: 80 288 14 14 (4515840)
I1218 17:10:12.332799 27366 layer_factory.hpp:74] Creating layer inception_4d/5x5_reduce
I1218 17:10:12.332810 27366 net.cpp:84] Creating Layer inception_4d/5x5_reduce
I1218 17:10:12.332815 27366 net.cpp:380] inception_4d/5x5_reduce <- inception_4c/output_inception_4c/output_0_split_2
I1218 17:10:12.332836 27366 net.cpp:338] inception_4d/5x5_reduce -> inception_4d/5x5_reduce
I1218 17:10:12.332851 27366 net.cpp:113] Setting up inception_4d/5x5_reduce
I1218 17:10:12.333547 27366 net.cpp:120] Top shape: 80 32 14 14 (501760)
I1218 17:10:12.333564 27366 layer_factory.hpp:74] Creating layer inception_4d/relu_5x5_reduce
I1218 17:10:12.333575 27366 net.cpp:84] Creating Layer inception_4d/relu_5x5_reduce
I1218 17:10:12.333580 27366 net.cpp:380] inception_4d/relu_5x5_reduce <- inception_4d/5x5_reduce
I1218 17:10:12.333587 27366 net.cpp:327] inception_4d/relu_5x5_reduce -> inception_4d/5x5_reduce (in-place)
I1218 17:10:12.333595 27366 net.cpp:113] Setting up inception_4d/relu_5x5_reduce
I1218 17:10:12.333678 27366 net.cpp:120] Top shape: 80 32 14 14 (501760)
I1218 17:10:12.333688 27366 layer_factory.hpp:74] Creating layer inception_4d/5x5
I1218 17:10:12.333715 27366 net.cpp:84] Creating Layer inception_4d/5x5
I1218 17:10:12.333730 27366 net.cpp:380] inception_4d/5x5 <- inception_4d/5x5_reduce
I1218 17:10:12.333740 27366 net.cpp:338] inception_4d/5x5 -> inception_4d/5x5
I1218 17:10:12.333753 27366 net.cpp:113] Setting up inception_4d/5x5
I1218 17:10:12.334844 27366 net.cpp:120] Top shape: 80 64 14 14 (1003520)
I1218 17:10:12.334859 27366 layer_factory.hpp:74] Creating layer inception_4d/relu_5x5
I1218 17:10:12.334873 27366 net.cpp:84] Creating Layer inception_4d/relu_5x5
I1218 17:10:12.334879 27366 net.cpp:380] inception_4d/relu_5x5 <- inception_4d/5x5
I1218 17:10:12.334887 27366 net.cpp:327] inception_4d/relu_5x5 -> inception_4d/5x5 (in-place)
I1218 17:10:12.334893 27366 net.cpp:113] Setting up inception_4d/relu_5x5
I1218 17:10:12.334987 27366 net.cpp:120] Top shape: 80 64 14 14 (1003520)
I1218 17:10:12.334995 27366 layer_factory.hpp:74] Creating layer inception_4d/pool
I1218 17:10:12.335001 27366 layer_factory.cpp:56] CUDNN does not support padding or multiple tops. Using Caffe's own pooling layer.
I1218 17:10:12.335008 27366 net.cpp:84] Creating Layer inception_4d/pool
I1218 17:10:12.335016 27366 net.cpp:380] inception_4d/pool <- inception_4c/output_inception_4c/output_0_split_3
I1218 17:10:12.335026 27366 net.cpp:338] inception_4d/pool -> inception_4d/pool
I1218 17:10:12.335038 27366 net.cpp:113] Setting up inception_4d/pool
I1218 17:10:12.335052 27366 net.cpp:120] Top shape: 80 512 14 14 (8028160)
I1218 17:10:12.335059 27366 layer_factory.hpp:74] Creating layer inception_4d/pool_proj
I1218 17:10:12.335073 27366 net.cpp:84] Creating Layer inception_4d/pool_proj
I1218 17:10:12.335078 27366 net.cpp:380] inception_4d/pool_proj <- inception_4d/pool
I1218 17:10:12.335088 27366 net.cpp:338] inception_4d/pool_proj -> inception_4d/pool_proj
I1218 17:10:12.335095 27366 net.cpp:113] Setting up inception_4d/pool_proj
I1218 17:10:12.335961 27366 net.cpp:120] Top shape: 80 64 14 14 (1003520)
I1218 17:10:12.335983 27366 layer_factory.hpp:74] Creating layer inception_4d/relu_pool_proj
I1218 17:10:12.335995 27366 net.cpp:84] Creating Layer inception_4d/relu_pool_proj
I1218 17:10:12.336001 27366 net.cpp:380] inception_4d/relu_pool_proj <- inception_4d/pool_proj
I1218 17:10:12.336009 27366 net.cpp:327] inception_4d/relu_pool_proj -> inception_4d/pool_proj (in-place)
I1218 17:10:12.336015 27366 net.cpp:113] Setting up inception_4d/relu_pool_proj
I1218 17:10:12.336299 27366 net.cpp:120] Top shape: 80 64 14 14 (1003520)
I1218 17:10:12.336313 27366 layer_factory.hpp:74] Creating layer inception_4d/output
I1218 17:10:12.336328 27366 net.cpp:84] Creating Layer inception_4d/output
I1218 17:10:12.336334 27366 net.cpp:380] inception_4d/output <- inception_4d/1x1
I1218 17:10:12.336341 27366 net.cpp:380] inception_4d/output <- inception_4d/3x3
I1218 17:10:12.336346 27366 net.cpp:380] inception_4d/output <- inception_4d/5x5
I1218 17:10:12.336351 27366 net.cpp:380] inception_4d/output <- inception_4d/pool_proj
I1218 17:10:12.336357 27366 net.cpp:338] inception_4d/output -> inception_4d/output
I1218 17:10:12.336365 27366 net.cpp:113] Setting up inception_4d/output
I1218 17:10:12.336374 27366 net.cpp:120] Top shape: 80 528 14 14 (8279040)
I1218 17:10:12.336379 27366 layer_factory.hpp:74] Creating layer inception_4d/output_inception_4d/output_0_split
I1218 17:10:12.336385 27366 net.cpp:84] Creating Layer inception_4d/output_inception_4d/output_0_split
I1218 17:10:12.336390 27366 net.cpp:380] inception_4d/output_inception_4d/output_0_split <- inception_4d/output
I1218 17:10:12.336400 27366 net.cpp:338] inception_4d/output_inception_4d/output_0_split -> inception_4d/output_inception_4d/output_0_split_0
I1218 17:10:12.336407 27366 net.cpp:338] inception_4d/output_inception_4d/output_0_split -> inception_4d/output_inception_4d/output_0_split_1
I1218 17:10:12.336415 27366 net.cpp:338] inception_4d/output_inception_4d/output_0_split -> inception_4d/output_inception_4d/output_0_split_2
I1218 17:10:12.336423 27366 net.cpp:338] inception_4d/output_inception_4d/output_0_split -> inception_4d/output_inception_4d/output_0_split_3
I1218 17:10:12.336448 27366 net.cpp:338] inception_4d/output_inception_4d/output_0_split -> inception_4d/output_inception_4d/output_0_split_4
I1218 17:10:12.336459 27366 net.cpp:113] Setting up inception_4d/output_inception_4d/output_0_split
I1218 17:10:12.336475 27366 net.cpp:120] Top shape: 80 528 14 14 (8279040)
I1218 17:10:12.336484 27366 net.cpp:120] Top shape: 80 528 14 14 (8279040)
I1218 17:10:12.336493 27366 net.cpp:120] Top shape: 80 528 14 14 (8279040)
I1218 17:10:12.336500 27366 net.cpp:120] Top shape: 80 528 14 14 (8279040)
I1218 17:10:12.336508 27366 net.cpp:120] Top shape: 80 528 14 14 (8279040)
I1218 17:10:12.336513 27366 layer_factory.hpp:74] Creating layer loss2/ave_pool
I1218 17:10:12.336519 27366 net.cpp:84] Creating Layer loss2/ave_pool
I1218 17:10:12.336524 27366 net.cpp:380] loss2/ave_pool <- inception_4d/output_inception_4d/output_0_split_0
I1218 17:10:12.336532 27366 net.cpp:338] loss2/ave_pool -> loss2/ave_pool
I1218 17:10:12.336544 27366 net.cpp:113] Setting up loss2/ave_pool
I1218 17:10:12.336627 27366 net.cpp:120] Top shape: 80 528 4 4 (675840)
I1218 17:10:12.336635 27366 layer_factory.hpp:74] Creating layer loss2/conv
I1218 17:10:12.336644 27366 net.cpp:84] Creating Layer loss2/conv
I1218 17:10:12.336649 27366 net.cpp:380] loss2/conv <- loss2/ave_pool
I1218 17:10:12.336661 27366 net.cpp:338] loss2/conv -> loss2/conv
I1218 17:10:12.336688 27366 net.cpp:113] Setting up loss2/conv
I1218 17:10:12.337991 27366 net.cpp:120] Top shape: 80 128 4 4 (163840)
I1218 17:10:12.338013 27366 layer_factory.hpp:74] Creating layer loss2/relu_conv
I1218 17:10:12.338026 27366 net.cpp:84] Creating Layer loss2/relu_conv
I1218 17:10:12.338037 27366 net.cpp:380] loss2/relu_conv <- loss2/conv
I1218 17:10:12.338045 27366 net.cpp:327] loss2/relu_conv -> loss2/conv (in-place)
I1218 17:10:12.338057 27366 net.cpp:113] Setting up loss2/relu_conv
I1218 17:10:12.338130 27366 net.cpp:120] Top shape: 80 128 4 4 (163840)
I1218 17:10:12.338137 27366 layer_factory.hpp:74] Creating layer loss2/fc
I1218 17:10:12.338150 27366 net.cpp:84] Creating Layer loss2/fc
I1218 17:10:12.338155 27366 net.cpp:380] loss2/fc <- loss2/conv
I1218 17:10:12.338160 27366 net.cpp:338] loss2/fc -> loss2/fc
I1218 17:10:12.338168 27366 net.cpp:113] Setting up loss2/fc
I1218 17:10:12.442737 27366 net.cpp:120] Top shape: 80 1024 (81920)
I1218 17:10:12.442775 27366 layer_factory.hpp:74] Creating layer loss2/relu_fc
I1218 17:10:12.442788 27366 net.cpp:84] Creating Layer loss2/relu_fc
I1218 17:10:12.442796 27366 net.cpp:380] loss2/relu_fc <- loss2/fc
I1218 17:10:12.442805 27366 net.cpp:327] loss2/relu_fc -> loss2/fc (in-place)
I1218 17:10:12.442814 27366 net.cpp:113] Setting up loss2/relu_fc
I1218 17:10:12.443250 27366 net.cpp:120] Top shape: 80 1024 (81920)
I1218 17:10:12.443264 27366 layer_factory.hpp:74] Creating layer loss2/drop_fc
I1218 17:10:12.443272 27366 net.cpp:84] Creating Layer loss2/drop_fc
I1218 17:10:12.443277 27366 net.cpp:380] loss2/drop_fc <- loss2/fc
I1218 17:10:12.443285 27366 net.cpp:327] loss2/drop_fc -> loss2/fc (in-place)
I1218 17:10:12.443294 27366 net.cpp:113] Setting up loss2/drop_fc
I1218 17:10:12.443301 27366 net.cpp:120] Top shape: 80 1024 (81920)
I1218 17:10:12.443305 27366 layer_factory.hpp:74] Creating layer loss2/classifier_kaggle
I1218 17:10:12.443316 27366 net.cpp:84] Creating Layer loss2/classifier_kaggle
I1218 17:10:12.443320 27366 net.cpp:380] loss2/classifier_kaggle <- loss2/fc
I1218 17:10:12.443327 27366 net.cpp:338] loss2/classifier_kaggle -> loss2/classifier_kaggle
I1218 17:10:12.443336 27366 net.cpp:113] Setting up loss2/classifier_kaggle
I1218 17:10:12.448431 27366 net.cpp:120] Top shape: 80 447 (35760)
I1218 17:10:12.448446 27366 layer_factory.hpp:74] Creating layer loss2/loss
I1218 17:10:12.448454 27366 net.cpp:84] Creating Layer loss2/loss
I1218 17:10:12.448459 27366 net.cpp:380] loss2/loss <- loss2/classifier_kaggle
I1218 17:10:12.448467 27366 net.cpp:380] loss2/loss <- label_data_1_split_1
I1218 17:10:12.448475 27366 net.cpp:338] loss2/loss -> loss2/loss1
I1218 17:10:12.448493 27366 net.cpp:113] Setting up loss2/loss
I1218 17:10:12.448509 27366 layer_factory.hpp:74] Creating layer loss2/loss
I1218 17:10:12.448686 27366 net.cpp:120] Top shape: (1)
I1218 17:10:12.448694 27366 net.cpp:122]     with loss weight 0.3
I1218 17:10:12.448706 27366 layer_factory.hpp:74] Creating layer inception_4e/1x1
I1218 17:10:12.448716 27366 net.cpp:84] Creating Layer inception_4e/1x1
I1218 17:10:12.448722 27366 net.cpp:380] inception_4e/1x1 <- inception_4d/output_inception_4d/output_0_split_1
I1218 17:10:12.448730 27366 net.cpp:338] inception_4e/1x1 -> inception_4e/1x1
I1218 17:10:12.448740 27366 net.cpp:113] Setting up inception_4e/1x1
I1218 17:10:12.450654 27366 net.cpp:120] Top shape: 80 256 14 14 (4014080)
I1218 17:10:12.450671 27366 layer_factory.hpp:74] Creating layer inception_4e/relu_1x1
I1218 17:10:12.450680 27366 net.cpp:84] Creating Layer inception_4e/relu_1x1
I1218 17:10:12.450685 27366 net.cpp:380] inception_4e/relu_1x1 <- inception_4e/1x1
I1218 17:10:12.450693 27366 net.cpp:327] inception_4e/relu_1x1 -> inception_4e/1x1 (in-place)
I1218 17:10:12.450701 27366 net.cpp:113] Setting up inception_4e/relu_1x1
I1218 17:10:12.450767 27366 net.cpp:120] Top shape: 80 256 14 14 (4014080)
I1218 17:10:12.450773 27366 layer_factory.hpp:74] Creating layer inception_4e/3x3_reduce
I1218 17:10:12.450783 27366 net.cpp:84] Creating Layer inception_4e/3x3_reduce
I1218 17:10:12.450788 27366 net.cpp:380] inception_4e/3x3_reduce <- inception_4d/output_inception_4d/output_0_split_2
I1218 17:10:12.450795 27366 net.cpp:338] inception_4e/3x3_reduce -> inception_4e/3x3_reduce
I1218 17:10:12.450806 27366 net.cpp:113] Setting up inception_4e/3x3_reduce
I1218 17:10:12.452658 27366 net.cpp:120] Top shape: 80 160 14 14 (2508800)
I1218 17:10:12.452674 27366 layer_factory.hpp:74] Creating layer inception_4e/relu_3x3_reduce
I1218 17:10:12.452683 27366 net.cpp:84] Creating Layer inception_4e/relu_3x3_reduce
I1218 17:10:12.452689 27366 net.cpp:380] inception_4e/relu_3x3_reduce <- inception_4e/3x3_reduce
I1218 17:10:12.452697 27366 net.cpp:327] inception_4e/relu_3x3_reduce -> inception_4e/3x3_reduce (in-place)
I1218 17:10:12.452703 27366 net.cpp:113] Setting up inception_4e/relu_3x3_reduce
I1218 17:10:12.452770 27366 net.cpp:120] Top shape: 80 160 14 14 (2508800)
I1218 17:10:12.452777 27366 layer_factory.hpp:74] Creating layer inception_4e/3x3
I1218 17:10:12.452785 27366 net.cpp:84] Creating Layer inception_4e/3x3
I1218 17:10:12.452792 27366 net.cpp:380] inception_4e/3x3 <- inception_4e/3x3_reduce
I1218 17:10:12.452800 27366 net.cpp:338] inception_4e/3x3 -> inception_4e/3x3
I1218 17:10:12.452807 27366 net.cpp:113] Setting up inception_4e/3x3
I1218 17:10:12.458309 27366 net.cpp:120] Top shape: 80 320 14 14 (5017600)
I1218 17:10:12.458326 27366 layer_factory.hpp:74] Creating layer inception_4e/relu_3x3
I1218 17:10:12.458336 27366 net.cpp:84] Creating Layer inception_4e/relu_3x3
I1218 17:10:12.458343 27366 net.cpp:380] inception_4e/relu_3x3 <- inception_4e/3x3
I1218 17:10:12.458348 27366 net.cpp:327] inception_4e/relu_3x3 -> inception_4e/3x3 (in-place)
I1218 17:10:12.458356 27366 net.cpp:113] Setting up inception_4e/relu_3x3
I1218 17:10:12.458612 27366 net.cpp:120] Top shape: 80 320 14 14 (5017600)
I1218 17:10:12.458622 27366 layer_factory.hpp:74] Creating layer inception_4e/5x5_reduce
I1218 17:10:12.458631 27366 net.cpp:84] Creating Layer inception_4e/5x5_reduce
I1218 17:10:12.458637 27366 net.cpp:380] inception_4e/5x5_reduce <- inception_4d/output_inception_4d/output_0_split_3
I1218 17:10:12.458647 27366 net.cpp:338] inception_4e/5x5_reduce -> inception_4e/5x5_reduce
I1218 17:10:12.458654 27366 net.cpp:113] Setting up inception_4e/5x5_reduce
I1218 17:10:12.459245 27366 net.cpp:120] Top shape: 80 32 14 14 (501760)
I1218 17:10:12.459259 27366 layer_factory.hpp:74] Creating layer inception_4e/relu_5x5_reduce
I1218 17:10:12.459270 27366 net.cpp:84] Creating Layer inception_4e/relu_5x5_reduce
I1218 17:10:12.459275 27366 net.cpp:380] inception_4e/relu_5x5_reduce <- inception_4e/5x5_reduce
I1218 17:10:12.459281 27366 net.cpp:327] inception_4e/relu_5x5_reduce -> inception_4e/5x5_reduce (in-place)
I1218 17:10:12.459306 27366 net.cpp:113] Setting up inception_4e/relu_5x5_reduce
I1218 17:10:12.459378 27366 net.cpp:120] Top shape: 80 32 14 14 (501760)
I1218 17:10:12.459384 27366 layer_factory.hpp:74] Creating layer inception_4e/5x5
I1218 17:10:12.459414 27366 net.cpp:84] Creating Layer inception_4e/5x5
I1218 17:10:12.459419 27366 net.cpp:380] inception_4e/5x5 <- inception_4e/5x5_reduce
I1218 17:10:12.459429 27366 net.cpp:338] inception_4e/5x5 -> inception_4e/5x5
I1218 17:10:12.459439 27366 net.cpp:113] Setting up inception_4e/5x5
I1218 17:10:12.460952 27366 net.cpp:120] Top shape: 80 128 14 14 (2007040)
I1218 17:10:12.460966 27366 layer_factory.hpp:74] Creating layer inception_4e/relu_5x5
I1218 17:10:12.460975 27366 net.cpp:84] Creating Layer inception_4e/relu_5x5
I1218 17:10:12.460981 27366 net.cpp:380] inception_4e/relu_5x5 <- inception_4e/5x5
I1218 17:10:12.460988 27366 net.cpp:327] inception_4e/relu_5x5 -> inception_4e/5x5 (in-place)
I1218 17:10:12.460994 27366 net.cpp:113] Setting up inception_4e/relu_5x5
I1218 17:10:12.461068 27366 net.cpp:120] Top shape: 80 128 14 14 (2007040)
I1218 17:10:12.461076 27366 layer_factory.hpp:74] Creating layer inception_4e/pool
I1218 17:10:12.461083 27366 layer_factory.cpp:56] CUDNN does not support padding or multiple tops. Using Caffe's own pooling layer.
I1218 17:10:12.461089 27366 net.cpp:84] Creating Layer inception_4e/pool
I1218 17:10:12.461094 27366 net.cpp:380] inception_4e/pool <- inception_4d/output_inception_4d/output_0_split_4
I1218 17:10:12.461100 27366 net.cpp:338] inception_4e/pool -> inception_4e/pool
I1218 17:10:12.461107 27366 net.cpp:113] Setting up inception_4e/pool
I1218 17:10:12.461118 27366 net.cpp:120] Top shape: 80 528 14 14 (8279040)
I1218 17:10:12.461122 27366 layer_factory.hpp:74] Creating layer inception_4e/pool_proj
I1218 17:10:12.461132 27366 net.cpp:84] Creating Layer inception_4e/pool_proj
I1218 17:10:12.461135 27366 net.cpp:380] inception_4e/pool_proj <- inception_4e/pool
I1218 17:10:12.461143 27366 net.cpp:338] inception_4e/pool_proj -> inception_4e/pool_proj
I1218 17:10:12.461151 27366 net.cpp:113] Setting up inception_4e/pool_proj
I1218 17:10:12.462303 27366 net.cpp:120] Top shape: 80 128 14 14 (2007040)
I1218 17:10:12.462321 27366 layer_factory.hpp:74] Creating layer inception_4e/relu_pool_proj
I1218 17:10:12.462327 27366 net.cpp:84] Creating Layer inception_4e/relu_pool_proj
I1218 17:10:12.462332 27366 net.cpp:380] inception_4e/relu_pool_proj <- inception_4e/pool_proj
I1218 17:10:12.462339 27366 net.cpp:327] inception_4e/relu_pool_proj -> inception_4e/pool_proj (in-place)
I1218 17:10:12.462347 27366 net.cpp:113] Setting up inception_4e/relu_pool_proj
I1218 17:10:12.462414 27366 net.cpp:120] Top shape: 80 128 14 14 (2007040)
I1218 17:10:12.462422 27366 layer_factory.hpp:74] Creating layer inception_4e/output
I1218 17:10:12.462430 27366 net.cpp:84] Creating Layer inception_4e/output
I1218 17:10:12.462435 27366 net.cpp:380] inception_4e/output <- inception_4e/1x1
I1218 17:10:12.462440 27366 net.cpp:380] inception_4e/output <- inception_4e/3x3
I1218 17:10:12.462445 27366 net.cpp:380] inception_4e/output <- inception_4e/5x5
I1218 17:10:12.462450 27366 net.cpp:380] inception_4e/output <- inception_4e/pool_proj
I1218 17:10:12.462457 27366 net.cpp:338] inception_4e/output -> inception_4e/output
I1218 17:10:12.462465 27366 net.cpp:113] Setting up inception_4e/output
I1218 17:10:12.462472 27366 net.cpp:120] Top shape: 80 832 14 14 (13045760)
I1218 17:10:12.462476 27366 layer_factory.hpp:74] Creating layer pool4/3x3_s2
I1218 17:10:12.462483 27366 net.cpp:84] Creating Layer pool4/3x3_s2
I1218 17:10:12.462488 27366 net.cpp:380] pool4/3x3_s2 <- inception_4e/output
I1218 17:10:12.462494 27366 net.cpp:338] pool4/3x3_s2 -> pool4/3x3_s2
I1218 17:10:12.462502 27366 net.cpp:113] Setting up pool4/3x3_s2
I1218 17:10:12.462752 27366 net.cpp:120] Top shape: 80 832 7 7 (3261440)
I1218 17:10:12.462764 27366 layer_factory.hpp:74] Creating layer pool4/3x3_s2_pool4/3x3_s2_0_split
I1218 17:10:12.462770 27366 net.cpp:84] Creating Layer pool4/3x3_s2_pool4/3x3_s2_0_split
I1218 17:10:12.462786 27366 net.cpp:380] pool4/3x3_s2_pool4/3x3_s2_0_split <- pool4/3x3_s2
I1218 17:10:12.462796 27366 net.cpp:338] pool4/3x3_s2_pool4/3x3_s2_0_split -> pool4/3x3_s2_pool4/3x3_s2_0_split_0
I1218 17:10:12.462805 27366 net.cpp:338] pool4/3x3_s2_pool4/3x3_s2_0_split -> pool4/3x3_s2_pool4/3x3_s2_0_split_1
I1218 17:10:12.462812 27366 net.cpp:338] pool4/3x3_s2_pool4/3x3_s2_0_split -> pool4/3x3_s2_pool4/3x3_s2_0_split_2
I1218 17:10:12.462818 27366 net.cpp:338] pool4/3x3_s2_pool4/3x3_s2_0_split -> pool4/3x3_s2_pool4/3x3_s2_0_split_3
I1218 17:10:12.462824 27366 net.cpp:113] Setting up pool4/3x3_s2_pool4/3x3_s2_0_split
I1218 17:10:12.462832 27366 net.cpp:120] Top shape: 80 832 7 7 (3261440)
I1218 17:10:12.462837 27366 net.cpp:120] Top shape: 80 832 7 7 (3261440)
I1218 17:10:12.462842 27366 net.cpp:120] Top shape: 80 832 7 7 (3261440)
I1218 17:10:12.462846 27366 net.cpp:120] Top shape: 80 832 7 7 (3261440)
I1218 17:10:12.462852 27366 layer_factory.hpp:74] Creating layer inception_5a/1x1
I1218 17:10:12.462862 27366 net.cpp:84] Creating Layer inception_5a/1x1
I1218 17:10:12.462865 27366 net.cpp:380] inception_5a/1x1 <- pool4/3x3_s2_pool4/3x3_s2_0_split_0
I1218 17:10:12.462874 27366 net.cpp:338] inception_5a/1x1 -> inception_5a/1x1
I1218 17:10:12.462882 27366 net.cpp:113] Setting up inception_5a/1x1
I1218 17:10:12.465682 27366 net.cpp:120] Top shape: 80 256 7 7 (1003520)
I1218 17:10:12.465699 27366 layer_factory.hpp:74] Creating layer inception_5a/relu_1x1
I1218 17:10:12.465709 27366 net.cpp:84] Creating Layer inception_5a/relu_1x1
I1218 17:10:12.465714 27366 net.cpp:380] inception_5a/relu_1x1 <- inception_5a/1x1
I1218 17:10:12.465721 27366 net.cpp:327] inception_5a/relu_1x1 -> inception_5a/1x1 (in-place)
I1218 17:10:12.465728 27366 net.cpp:113] Setting up inception_5a/relu_1x1
I1218 17:10:12.465795 27366 net.cpp:120] Top shape: 80 256 7 7 (1003520)
I1218 17:10:12.465801 27366 layer_factory.hpp:74] Creating layer inception_5a/3x3_reduce
I1218 17:10:12.465808 27366 net.cpp:84] Creating Layer inception_5a/3x3_reduce
I1218 17:10:12.465813 27366 net.cpp:380] inception_5a/3x3_reduce <- pool4/3x3_s2_pool4/3x3_s2_0_split_1
I1218 17:10:12.465822 27366 net.cpp:338] inception_5a/3x3_reduce -> inception_5a/3x3_reduce
I1218 17:10:12.465831 27366 net.cpp:113] Setting up inception_5a/3x3_reduce
I1218 17:10:12.467696 27366 net.cpp:120] Top shape: 80 160 7 7 (627200)
I1218 17:10:12.467710 27366 layer_factory.hpp:74] Creating layer inception_5a/relu_3x3_reduce
I1218 17:10:12.467720 27366 net.cpp:84] Creating Layer inception_5a/relu_3x3_reduce
I1218 17:10:12.467725 27366 net.cpp:380] inception_5a/relu_3x3_reduce <- inception_5a/3x3_reduce
I1218 17:10:12.467731 27366 net.cpp:327] inception_5a/relu_3x3_reduce -> inception_5a/3x3_reduce (in-place)
I1218 17:10:12.467738 27366 net.cpp:113] Setting up inception_5a/relu_3x3_reduce
I1218 17:10:12.467800 27366 net.cpp:120] Top shape: 80 160 7 7 (627200)
I1218 17:10:12.467806 27366 layer_factory.hpp:74] Creating layer inception_5a/3x3
I1218 17:10:12.467818 27366 net.cpp:84] Creating Layer inception_5a/3x3
I1218 17:10:12.467823 27366 net.cpp:380] inception_5a/3x3 <- inception_5a/3x3_reduce
I1218 17:10:12.467830 27366 net.cpp:338] inception_5a/3x3 -> inception_5a/3x3
I1218 17:10:12.467839 27366 net.cpp:113] Setting up inception_5a/3x3
I1218 17:10:12.473111 27366 net.cpp:120] Top shape: 80 320 7 7 (1254400)
I1218 17:10:12.473129 27366 layer_factory.hpp:74] Creating layer inception_5a/relu_3x3
I1218 17:10:12.473136 27366 net.cpp:84] Creating Layer inception_5a/relu_3x3
I1218 17:10:12.473142 27366 net.cpp:380] inception_5a/relu_3x3 <- inception_5a/3x3
I1218 17:10:12.473148 27366 net.cpp:327] inception_5a/relu_3x3 -> inception_5a/3x3 (in-place)
I1218 17:10:12.473155 27366 net.cpp:113] Setting up inception_5a/relu_3x3
I1218 17:10:12.473223 27366 net.cpp:120] Top shape: 80 320 7 7 (1254400)
I1218 17:10:12.473232 27366 layer_factory.hpp:74] Creating layer inception_5a/5x5_reduce
I1218 17:10:12.473242 27366 net.cpp:84] Creating Layer inception_5a/5x5_reduce
I1218 17:10:12.473253 27366 net.cpp:380] inception_5a/5x5_reduce <- pool4/3x3_s2_pool4/3x3_s2_0_split_2
I1218 17:10:12.473268 27366 net.cpp:338] inception_5a/5x5_reduce -> inception_5a/5x5_reduce
I1218 17:10:12.473276 27366 net.cpp:113] Setting up inception_5a/5x5_reduce
I1218 17:10:12.473983 27366 net.cpp:120] Top shape: 80 32 7 7 (125440)
I1218 17:10:12.473997 27366 layer_factory.hpp:74] Creating layer inception_5a/relu_5x5_reduce
I1218 17:10:12.474006 27366 net.cpp:84] Creating Layer inception_5a/relu_5x5_reduce
I1218 17:10:12.474011 27366 net.cpp:380] inception_5a/relu_5x5_reduce <- inception_5a/5x5_reduce
I1218 17:10:12.474017 27366 net.cpp:327] inception_5a/relu_5x5_reduce -> inception_5a/5x5_reduce (in-place)
I1218 17:10:12.474025 27366 net.cpp:113] Setting up inception_5a/relu_5x5_reduce
I1218 17:10:12.474267 27366 net.cpp:120] Top shape: 80 32 7 7 (125440)
I1218 17:10:12.474277 27366 layer_factory.hpp:74] Creating layer inception_5a/5x5
I1218 17:10:12.474287 27366 net.cpp:84] Creating Layer inception_5a/5x5
I1218 17:10:12.474292 27366 net.cpp:380] inception_5a/5x5 <- inception_5a/5x5_reduce
I1218 17:10:12.474298 27366 net.cpp:338] inception_5a/5x5 -> inception_5a/5x5
I1218 17:10:12.474306 27366 net.cpp:113] Setting up inception_5a/5x5
I1218 17:10:12.475806 27366 net.cpp:120] Top shape: 80 128 7 7 (501760)
I1218 17:10:12.475821 27366 layer_factory.hpp:74] Creating layer inception_5a/relu_5x5
I1218 17:10:12.475827 27366 net.cpp:84] Creating Layer inception_5a/relu_5x5
I1218 17:10:12.475832 27366 net.cpp:380] inception_5a/relu_5x5 <- inception_5a/5x5
I1218 17:10:12.475841 27366 net.cpp:327] inception_5a/relu_5x5 -> inception_5a/5x5 (in-place)
I1218 17:10:12.475848 27366 net.cpp:113] Setting up inception_5a/relu_5x5
I1218 17:10:12.475913 27366 net.cpp:120] Top shape: 80 128 7 7 (501760)
I1218 17:10:12.475919 27366 layer_factory.hpp:74] Creating layer inception_5a/pool
I1218 17:10:12.475924 27366 layer_factory.cpp:56] CUDNN does not support padding or multiple tops. Using Caffe's own pooling layer.
I1218 17:10:12.475931 27366 net.cpp:84] Creating Layer inception_5a/pool
I1218 17:10:12.475936 27366 net.cpp:380] inception_5a/pool <- pool4/3x3_s2_pool4/3x3_s2_0_split_3
I1218 17:10:12.475942 27366 net.cpp:338] inception_5a/pool -> inception_5a/pool
I1218 17:10:12.475950 27366 net.cpp:113] Setting up inception_5a/pool
I1218 17:10:12.475960 27366 net.cpp:120] Top shape: 80 832 7 7 (3261440)
I1218 17:10:12.475963 27366 layer_factory.hpp:74] Creating layer inception_5a/pool_proj
I1218 17:10:12.475972 27366 net.cpp:84] Creating Layer inception_5a/pool_proj
I1218 17:10:12.475976 27366 net.cpp:380] inception_5a/pool_proj <- inception_5a/pool
I1218 17:10:12.475982 27366 net.cpp:338] inception_5a/pool_proj -> inception_5a/pool_proj
I1218 17:10:12.475989 27366 net.cpp:113] Setting up inception_5a/pool_proj
I1218 17:10:12.477531 27366 net.cpp:120] Top shape: 80 128 7 7 (501760)
I1218 17:10:12.477546 27366 layer_factory.hpp:74] Creating layer inception_5a/relu_pool_proj
I1218 17:10:12.477553 27366 net.cpp:84] Creating Layer inception_5a/relu_pool_proj
I1218 17:10:12.477558 27366 net.cpp:380] inception_5a/relu_pool_proj <- inception_5a/pool_proj
I1218 17:10:12.477567 27366 net.cpp:327] inception_5a/relu_pool_proj -> inception_5a/pool_proj (in-place)
I1218 17:10:12.477574 27366 net.cpp:113] Setting up inception_5a/relu_pool_proj
I1218 17:10:12.477637 27366 net.cpp:120] Top shape: 80 128 7 7 (501760)
I1218 17:10:12.477643 27366 layer_factory.hpp:74] Creating layer inception_5a/output
I1218 17:10:12.477649 27366 net.cpp:84] Creating Layer inception_5a/output
I1218 17:10:12.477664 27366 net.cpp:380] inception_5a/output <- inception_5a/1x1
I1218 17:10:12.477670 27366 net.cpp:380] inception_5a/output <- inception_5a/3x3
I1218 17:10:12.477676 27366 net.cpp:380] inception_5a/output <- inception_5a/5x5
I1218 17:10:12.477681 27366 net.cpp:380] inception_5a/output <- inception_5a/pool_proj
I1218 17:10:12.477687 27366 net.cpp:338] inception_5a/output -> inception_5a/output
I1218 17:10:12.477694 27366 net.cpp:113] Setting up inception_5a/output
I1218 17:10:12.477706 27366 net.cpp:120] Top shape: 80 832 7 7 (3261440)
I1218 17:10:12.477718 27366 layer_factory.hpp:74] Creating layer inception_5a/output_inception_5a/output_0_split
I1218 17:10:12.477725 27366 net.cpp:84] Creating Layer inception_5a/output_inception_5a/output_0_split
I1218 17:10:12.477730 27366 net.cpp:380] inception_5a/output_inception_5a/output_0_split <- inception_5a/output
I1218 17:10:12.477735 27366 net.cpp:338] inception_5a/output_inception_5a/output_0_split -> inception_5a/output_inception_5a/output_0_split_0
I1218 17:10:12.477742 27366 net.cpp:338] inception_5a/output_inception_5a/output_0_split -> inception_5a/output_inception_5a/output_0_split_1
I1218 17:10:12.477751 27366 net.cpp:338] inception_5a/output_inception_5a/output_0_split -> inception_5a/output_inception_5a/output_0_split_2
I1218 17:10:12.477759 27366 net.cpp:338] inception_5a/output_inception_5a/output_0_split -> inception_5a/output_inception_5a/output_0_split_3
I1218 17:10:12.477764 27366 net.cpp:113] Setting up inception_5a/output_inception_5a/output_0_split
I1218 17:10:12.477771 27366 net.cpp:120] Top shape: 80 832 7 7 (3261440)
I1218 17:10:12.477777 27366 net.cpp:120] Top shape: 80 832 7 7 (3261440)
I1218 17:10:12.477780 27366 net.cpp:120] Top shape: 80 832 7 7 (3261440)
I1218 17:10:12.477785 27366 net.cpp:120] Top shape: 80 832 7 7 (3261440)
I1218 17:10:12.477789 27366 layer_factory.hpp:74] Creating layer inception_5b/1x1
I1218 17:10:12.477799 27366 net.cpp:84] Creating Layer inception_5b/1x1
I1218 17:10:12.477803 27366 net.cpp:380] inception_5b/1x1 <- inception_5a/output_inception_5a/output_0_split_0
I1218 17:10:12.477809 27366 net.cpp:338] inception_5b/1x1 -> inception_5b/1x1
I1218 17:10:12.477816 27366 net.cpp:113] Setting up inception_5b/1x1
I1218 17:10:12.481577 27366 net.cpp:120] Top shape: 80 384 7 7 (1505280)
I1218 17:10:12.481592 27366 layer_factory.hpp:74] Creating layer inception_5b/relu_1x1
I1218 17:10:12.481601 27366 net.cpp:84] Creating Layer inception_5b/relu_1x1
I1218 17:10:12.481607 27366 net.cpp:380] inception_5b/relu_1x1 <- inception_5b/1x1
I1218 17:10:12.481613 27366 net.cpp:327] inception_5b/relu_1x1 -> inception_5b/1x1 (in-place)
I1218 17:10:12.481621 27366 net.cpp:113] Setting up inception_5b/relu_1x1
I1218 17:10:12.481860 27366 net.cpp:120] Top shape: 80 384 7 7 (1505280)
I1218 17:10:12.481870 27366 layer_factory.hpp:74] Creating layer inception_5b/3x3_reduce
I1218 17:10:12.481880 27366 net.cpp:84] Creating Layer inception_5b/3x3_reduce
I1218 17:10:12.481885 27366 net.cpp:380] inception_5b/3x3_reduce <- inception_5a/output_inception_5a/output_0_split_1
I1218 17:10:12.481892 27366 net.cpp:338] inception_5b/3x3_reduce -> inception_5b/3x3_reduce
I1218 17:10:12.481900 27366 net.cpp:113] Setting up inception_5b/3x3_reduce
I1218 17:10:12.483974 27366 net.cpp:120] Top shape: 80 192 7 7 (752640)
I1218 17:10:12.483989 27366 layer_factory.hpp:74] Creating layer inception_5b/relu_3x3_reduce
I1218 17:10:12.483996 27366 net.cpp:84] Creating Layer inception_5b/relu_3x3_reduce
I1218 17:10:12.484001 27366 net.cpp:380] inception_5b/relu_3x3_reduce <- inception_5b/3x3_reduce
I1218 17:10:12.484007 27366 net.cpp:327] inception_5b/relu_3x3_reduce -> inception_5b/3x3_reduce (in-place)
I1218 17:10:12.484014 27366 net.cpp:113] Setting up inception_5b/relu_3x3_reduce
I1218 17:10:12.484081 27366 net.cpp:120] Top shape: 80 192 7 7 (752640)
I1218 17:10:12.484087 27366 layer_factory.hpp:74] Creating layer inception_5b/3x3
I1218 17:10:12.484096 27366 net.cpp:84] Creating Layer inception_5b/3x3
I1218 17:10:12.484099 27366 net.cpp:380] inception_5b/3x3 <- inception_5b/3x3_reduce
I1218 17:10:12.484108 27366 net.cpp:338] inception_5b/3x3 -> inception_5b/3x3
I1218 17:10:12.484133 27366 net.cpp:113] Setting up inception_5b/3x3
I1218 17:10:12.504467 27366 net.cpp:120] Top shape: 80 384 7 7 (1505280)
I1218 17:10:12.504487 27366 layer_factory.hpp:74] Creating layer inception_5b/relu_3x3
I1218 17:10:12.504494 27366 net.cpp:84] Creating Layer inception_5b/relu_3x3
I1218 17:10:12.504500 27366 net.cpp:380] inception_5b/relu_3x3 <- inception_5b/3x3
I1218 17:10:12.504513 27366 net.cpp:327] inception_5b/relu_3x3 -> inception_5b/3x3 (in-place)
I1218 17:10:12.504528 27366 net.cpp:113] Setting up inception_5b/relu_3x3
I1218 17:10:12.504595 27366 net.cpp:120] Top shape: 80 384 7 7 (1505280)
I1218 17:10:12.504601 27366 layer_factory.hpp:74] Creating layer inception_5b/5x5_reduce
I1218 17:10:12.504611 27366 net.cpp:84] Creating Layer inception_5b/5x5_reduce
I1218 17:10:12.504616 27366 net.cpp:380] inception_5b/5x5_reduce <- inception_5a/output_inception_5a/output_0_split_2
I1218 17:10:12.504624 27366 net.cpp:338] inception_5b/5x5_reduce -> inception_5b/5x5_reduce
I1218 17:10:12.504632 27366 net.cpp:113] Setting up inception_5b/5x5_reduce
I1218 17:10:12.506225 27366 net.cpp:120] Top shape: 80 48 7 7 (188160)
I1218 17:10:12.506242 27366 layer_factory.hpp:74] Creating layer inception_5b/relu_5x5_reduce
I1218 17:10:12.506249 27366 net.cpp:84] Creating Layer inception_5b/relu_5x5_reduce
I1218 17:10:12.506256 27366 net.cpp:380] inception_5b/relu_5x5_reduce <- inception_5b/5x5_reduce
I1218 17:10:12.506263 27366 net.cpp:327] inception_5b/relu_5x5_reduce -> inception_5b/5x5_reduce (in-place)
I1218 17:10:12.506271 27366 net.cpp:113] Setting up inception_5b/relu_5x5_reduce
I1218 17:10:12.506335 27366 net.cpp:120] Top shape: 80 48 7 7 (188160)
I1218 17:10:12.506341 27366 layer_factory.hpp:74] Creating layer inception_5b/5x5
I1218 17:10:12.506352 27366 net.cpp:84] Creating Layer inception_5b/5x5
I1218 17:10:12.506356 27366 net.cpp:380] inception_5b/5x5 <- inception_5b/5x5_reduce
I1218 17:10:12.506366 27366 net.cpp:338] inception_5b/5x5 -> inception_5b/5x5
I1218 17:10:12.506372 27366 net.cpp:113] Setting up inception_5b/5x5
I1218 17:10:12.508383 27366 net.cpp:120] Top shape: 80 128 7 7 (501760)
I1218 17:10:12.508399 27366 layer_factory.hpp:74] Creating layer inception_5b/relu_5x5
I1218 17:10:12.508405 27366 net.cpp:84] Creating Layer inception_5b/relu_5x5
I1218 17:10:12.508410 27366 net.cpp:380] inception_5b/relu_5x5 <- inception_5b/5x5
I1218 17:10:12.508419 27366 net.cpp:327] inception_5b/relu_5x5 -> inception_5b/5x5 (in-place)
I1218 17:10:12.508426 27366 net.cpp:113] Setting up inception_5b/relu_5x5
I1218 17:10:12.508669 27366 net.cpp:120] Top shape: 80 128 7 7 (501760)
I1218 17:10:12.508680 27366 layer_factory.hpp:74] Creating layer inception_5b/pool
I1218 17:10:12.508685 27366 layer_factory.cpp:56] CUDNN does not support padding or multiple tops. Using Caffe's own pooling layer.
I1218 17:10:12.508692 27366 net.cpp:84] Creating Layer inception_5b/pool
I1218 17:10:12.508697 27366 net.cpp:380] inception_5b/pool <- inception_5a/output_inception_5a/output_0_split_3
I1218 17:10:12.508707 27366 net.cpp:338] inception_5b/pool -> inception_5b/pool
I1218 17:10:12.508714 27366 net.cpp:113] Setting up inception_5b/pool
I1218 17:10:12.508723 27366 net.cpp:120] Top shape: 80 832 7 7 (3261440)
I1218 17:10:12.508726 27366 layer_factory.hpp:74] Creating layer inception_5b/pool_proj
I1218 17:10:12.508734 27366 net.cpp:84] Creating Layer inception_5b/pool_proj
I1218 17:10:12.508738 27366 net.cpp:380] inception_5b/pool_proj <- inception_5b/pool
I1218 17:10:12.508746 27366 net.cpp:338] inception_5b/pool_proj -> inception_5b/pool_proj
I1218 17:10:12.508754 27366 net.cpp:113] Setting up inception_5b/pool_proj
I1218 17:10:12.510285 27366 net.cpp:120] Top shape: 80 128 7 7 (501760)
I1218 17:10:12.510301 27366 layer_factory.hpp:74] Creating layer inception_5b/relu_pool_proj
I1218 17:10:12.510308 27366 net.cpp:84] Creating Layer inception_5b/relu_pool_proj
I1218 17:10:12.510313 27366 net.cpp:380] inception_5b/relu_pool_proj <- inception_5b/pool_proj
I1218 17:10:12.510319 27366 net.cpp:327] inception_5b/relu_pool_proj -> inception_5b/pool_proj (in-place)
I1218 17:10:12.510326 27366 net.cpp:113] Setting up inception_5b/relu_pool_proj
I1218 17:10:12.510388 27366 net.cpp:120] Top shape: 80 128 7 7 (501760)
I1218 17:10:12.510396 27366 layer_factory.hpp:74] Creating layer inception_5b/output
I1218 17:10:12.510401 27366 net.cpp:84] Creating Layer inception_5b/output
I1218 17:10:12.510406 27366 net.cpp:380] inception_5b/output <- inception_5b/1x1
I1218 17:10:12.510423 27366 net.cpp:380] inception_5b/output <- inception_5b/3x3
I1218 17:10:12.510429 27366 net.cpp:380] inception_5b/output <- inception_5b/5x5
I1218 17:10:12.510433 27366 net.cpp:380] inception_5b/output <- inception_5b/pool_proj
I1218 17:10:12.510439 27366 net.cpp:338] inception_5b/output -> inception_5b/output
I1218 17:10:12.510447 27366 net.cpp:113] Setting up inception_5b/output
I1218 17:10:12.510453 27366 net.cpp:120] Top shape: 80 1024 7 7 (4014080)
I1218 17:10:12.510458 27366 layer_factory.hpp:74] Creating layer pool5/7x7_s1
I1218 17:10:12.510468 27366 net.cpp:84] Creating Layer pool5/7x7_s1
I1218 17:10:12.510471 27366 net.cpp:380] pool5/7x7_s1 <- inception_5b/output
I1218 17:10:12.510478 27366 net.cpp:338] pool5/7x7_s1 -> pool5/7x7_s1
I1218 17:10:12.510483 27366 net.cpp:113] Setting up pool5/7x7_s1
I1218 17:10:12.510550 27366 net.cpp:120] Top shape: 80 1024 1 1 (81920)
I1218 17:10:12.510555 27366 layer_factory.hpp:74] Creating layer pool5/drop_7x7_s1
I1218 17:10:12.510563 27366 net.cpp:84] Creating Layer pool5/drop_7x7_s1
I1218 17:10:12.510567 27366 net.cpp:380] pool5/drop_7x7_s1 <- pool5/7x7_s1
I1218 17:10:12.510574 27366 net.cpp:327] pool5/drop_7x7_s1 -> pool5/7x7_s1 (in-place)
I1218 17:10:12.510581 27366 net.cpp:113] Setting up pool5/drop_7x7_s1
I1218 17:10:12.510587 27366 net.cpp:120] Top shape: 80 1024 1 1 (81920)
I1218 17:10:12.510592 27366 layer_factory.hpp:74] Creating layer loss3/classifier_kaggle
I1218 17:10:12.510601 27366 net.cpp:84] Creating Layer loss3/classifier_kaggle
I1218 17:10:12.510606 27366 net.cpp:380] loss3/classifier_kaggle <- pool5/7x7_s1
I1218 17:10:12.510613 27366 net.cpp:338] loss3/classifier_kaggle -> loss3/classifier_kaggle
I1218 17:10:12.510620 27366 net.cpp:113] Setting up loss3/classifier_kaggle
I1218 17:10:12.515517 27366 net.cpp:120] Top shape: 80 447 (35760)
I1218 17:10:12.515529 27366 layer_factory.hpp:74] Creating layer loss3/loss3
I1218 17:10:12.515540 27366 net.cpp:84] Creating Layer loss3/loss3
I1218 17:10:12.515545 27366 net.cpp:380] loss3/loss3 <- loss3/classifier_kaggle
I1218 17:10:12.515552 27366 net.cpp:380] loss3/loss3 <- label_data_1_split_2
I1218 17:10:12.515557 27366 net.cpp:338] loss3/loss3 -> loss3/loss3
I1218 17:10:12.515563 27366 net.cpp:113] Setting up loss3/loss3
…
I1218 17:10:12.520292 27366 net.cpp:257] The NetState phase (1) differed from the phase (0) specified by a rule in layer data
I1218 17:10:12.521678 27366 net.cpp:42] Initializing net from parameters: 
name: "MYNET"
state {
  phase: TEST
}
layer {
  name: "data"
  type: "ImageData"
  top: "data"
  top: "label"
  include {
    phase: TEST
  }
  transform_param {
    mirror: false
    crop_size: 224
    mean_value: 129
    mean_value: 129
    mean_value: 129
  }
  image_data_param {
    source: "/home/coldmanck/kaggle/label_val_full.txt"
    batch_size: 50
    shuffle: true
  }
}
layer {
  name: "conv1/7x7_s2"
  type: "Convolution"
  bottom: "data"
  top: "conv1/7x7_s2"
  param {
    lr_mult: 1
    decay_mult: 1
  }
  param {
    lr_mult: 2
    decay_mult: 0
  }
  convolution_param {
    num_output: 64
    pad: 3
    kernel_size: 7
    stride: 2
    weight_filler {
      type: "xavier"
    }
    bias_filler {
      type: "constant"
      value: 0.2
    }
  }
}
layer {
  name: "conv1/relu_7x7"
  type: "ReLU"
  bottom: "conv1/7x7_s2"
  top: "conv1/7x7_s2"
}
layer {
  name: "pool1/3x3_s2"
  type: "Pooling"
  bottom: "conv1/7x7_s2"
  top: "pool1/3x3_s2"
  pooling_param {
    pool: MAX
    kernel_size: 3
    stride: 2
  }
}
layer {
  name: "pool1/norm1"
  type: "LRN"
  bottom: "pool1/3x3_s2"
  top: "pool1/norm1"
  lrn_param {
    local_size: 5
    alpha: 0.0001
    beta: 0.75
  }
}
layer {
  name: "conv2/3x3_reduce"
  type: "Convolution"
  bottom: "pool1/norm1"
  top: "conv2/3x3_reduce"
  param {
    lr_mult: 1
    decay_mult: 1
  }
  param {
    lr_mult: 2
    decay_mult: 0
  }
  convolution_param {
    num_output: 64
    kernel_size: 1
    weight_filler {
      type: "xavier"
    }
    bias_filler {
      type: "constant"
      value: 0.2
    }
  }
}
layer {
  name: "conv2/relu_3x3_reduce"
  type: "ReLU"
  bottom: "conv2/3x3_reduce"
  top: "conv2/3x3_reduce"
}
layer {
  name: "conv2/3x3"
  type: "Convolution"
  bottom: "conv2/3x3_reduce"
  top: "conv2/3x3"
  param {
    lr_mult: 1
    decay_mult: 1
  }
  param {
    lr_mult: 2
    decay_mult: 0
  }
  convolution_param {
    num_output: 192
    pad: 1
    kernel_size: 3
    weight_filler {
      type: "xavier"
    }
    bias_filler {
      type: "constant"
      value: 0.2
    }
  }
}
layer {
  name: "conv2/relu_3x3"
  type: "ReLU"
  bottom: "conv2/3x3"
  top: "conv2/3x3"
}
layer {
  name: "conv2/norm2"
  type: "LRN"
  bottom: "conv2/3x3"
  top: "conv2/norm2"
  lrn_param {
    local_size: 5
    alpha: 0.0001
    beta: 0.75
  }
}
layer {
  name: "pool2/3x3_s2"
  type: "Pooling"
  bottom: "conv2/norm2"
  top: "pool2/3x3_s2"
  pooling_param {
    pool: MAX
    kernel_size: 3
    stride: 2
  }
}
layer {
  name: "inception_3a/1x1"
  type: "Convolution"
  bottom: "pool2/3x3_s2"
  top: "inception_3a/1x1"
  param {
    lr_mult: 1
    decay_mult: 1
  }
  param {
    lr_mult: 2
    decay_mult: 0
  }
  convolution_param {
    num_output: 64
    kernel_size: 1
    weight_filler {
      type: "xavier"
    }
    bias_filler {
      type: "constant"
      value: 0.2
    }
  }
}
layer {
  name: "inception_3a/relu_1x1"
  type: "ReLU"
  bottom: "inception_3a/1x1"
  top: "inception_3a/1x1"
}
layer {
  name: "inception_3a/3x3_reduce"
  type: "Convolution"
  bottom: "pool2/3x3_s2"
  top: "inception_3a/3x3_reduce"
  param {
    lr_mult: 1
    decay_mult: 1
  }
  param {
    lr_mult: 2
    decay_mult: 0
  }
  convolution_param {
    num_output: 96
    kernel_size: 1
    weight_filler {
      type: "xavier"
    }
    bias_filler {
      type: "constant"
      value: 0.2
    }
  }
}
layer {
  name: "inception_3a/relu_3x3_reduce"
  type: "ReLU"
  bottom: "inception_3a/3x3_reduce"
  top: "inception_3a/3x3_reduce"
}
layer {
  name: "inception_3a/3x3"
  type: "Convolution"
  bottom: "inception_3a/3x3_reduce"
  top: "inception_3a/3x3"
  param {
    lr_mult: 1
    decay_mult: 1
  }
  param {
    lr_mult: 2
    decay_mult: 0
  }
  convolution_param {
    num_output: 128
    pad: 1
    kernel_size: 3
    weight_filler {
      type: "xavier"
    }
    bias_filler {
      type: "constant"
      value: 0.2
    }
  }
}
layer {
  name: "inception_3a/relu_3x3"
  type: "ReLU"
  bottom: "inception_3a/3x3"
  top: "inception_3a/3x3"
}
layer {
  name: "inception_3a/5x5_reduce"
  type: "Convolution"
  bottom: "pool2/3x3_s2"
  top: "inception_3a/5x5_reduce"
  param {
    lr_mult: 1
    decay_mult: 1
  }
  param {
    lr_mult: 2
    decay_mult: 0
  }
  convolution_param {
    num_output: 16
    kernel_size: 1
    weight_filler {
      type: "xavier"
    }
    bias_filler {
      type: "constant"
      value: 0.2
    }
  }
}
layer {
  name: "inception_3a/relu_5x5_reduce"
  type: "ReLU"
  bottom: "inception_3a/5x5_reduce"
  top: "inception_3a/5x5_reduce"
}
layer {
  name: "inception_3a/5x5"
  type: "Convolution"
  bottom: "inception_3a/5x5_reduce"
  top: "inception_3a/5x5"
  param {
    lr_mult: 1
    decay_mult: 1
  }
  param {
    lr_mult: 2
    decay_mult: 0
  }
  convolution_param {
    num_output: 32
    pad: 2
    kernel_size: 5
    weight_filler {
      type: "xavier"
    }
    bias_filler {
      type: "constant"
      value: 0.2
    }
  }
}
layer {
  name: "inception_3a/relu_5x5"
  type: "ReLU"
  bottom: "inception_3a/5x5"
  top: "inception_3a/5x5"
}
layer {
  name: "inception_3a/pool"
  type: "Pooling"
  bottom: "pool2/3x3_s2"
  top: "inception_3a/pool"
  pooling_param {
    pool: MAX
    kernel_size: 3
    stride: 1
    pad: 1
  }
}
layer {
  name: "inception_3a/pool_proj"
  type: "Convolution"
  bottom: "inception_3a/pool"
  top: "inception_3a/pool_proj"
  param {
    lr_mult: 1
    decay_mult: 1
  }
  param {
    lr_mult: 2
    decay_mult: 0
  }
  convolution_param {
    num_output: 32
    kernel_size: 1
    weight_filler {
      type: "xavier"
    }
    bias_filler {
      type: "constant"
      value: 0.2
    }
  }
}
layer {
  name: "inception_3a/relu_pool_proj"
  type: "ReLU"
  bottom: "inception_3a/pool_proj"
  top: "inception_3a/pool_proj"
}
layer {
  name: "inception_3a/output"
  type: "Concat"
  bottom: "inception_3a/1x1"
  bottom: "inception_3a/3x3"
  bottom: "inception_3a/5x5"
  bottom: "inception_3a/pool_proj"
  top: "inception_3a/output"
}
layer {
  name: "inception_3b/1x1"
  type: "Convolution"
  bottom: "inception_3a/output"
  top: "inception_3b/1x1"
  param {
    lr_mult: 1
    decay_mult: 1
  }
  param {
    lr_mult: 2
    decay_mult: 0
  }
  convolution_param {
    num_output: 128
    kernel_size: 1
    weight_filler {
      type: "xavier"
    }
    bias_filler {
      type: "constant"
      value: 0.2
    }
  }
}
layer {
  name: "inception_3b/relu_1x1"
  type: "ReLU"
  bottom: "inception_3b/1x1"
  top: "inception_3b/1x1"
}
layer {
  name: "inception_3b/3x3_reduce"
  type: "Convolution"
  bottom: "inception_3a/output"
  top: "inception_3b/3x3_reduce"
  param {
    lr_mult: 1
    decay_mult: 1
  }
  param {
    lr_mult: 2
    decay_mult: 0
  }
  convolution_param {
    num_output: 128
    kernel_size: 1
    weight_filler {
      type: "xavier"
    }
    bias_filler {
      type: "constant"
      value: 0.2
    }
  }
}
layer {
  name: "inception_3b/relu_3x3_reduce"
  type: "ReLU"
  bottom: "inception_3b/3x3_reduce"
  top: "inception_3b/3x3_reduce"
}
layer {
  name: "inception_3b/3x3"
  type: "Convolution"
  bottom: "inception_3b/3x3_reduce"
  top: "inception_3b/3x3"
  param {
    lr_mult: 1
    decay_mult: 1
  }
  param {
    lr_mult: 2
    decay_mult: 0
  }
  convolution_param {
    num_output: 192
    pad: 1
    kernel_size: 3
    weight_filler {
      type: "xavier"
    }
    bias_filler {
      type: "constant"
      value: 0.2
    }
  }
}
layer {
  name: "inception_3b/relu_3x3"
  type: "ReLU"
  bottom: "inception_3b/3x3"
  top: "inception_3b/3x3"
}
layer {
  name: "inception_3b/5x5_reduce"
  type: "Convolution"
  bottom: "inception_3a/output"
  top: "inception_3b/5x5_reduce"
  param {
    lr_mult: 1
    decay_mult: 1
  }
  param {
    lr_mult: 2
    decay_mult: 0
  }
  convolution_param {
    num_output: 32
    kernel_size: 1
    weight_filler {
      type: "xavier"
    }
    bias_filler {
      type: "constant"
      value: 0.2
    }
  }
}
layer {
  name: "inception_3b/relu_5x5_reduce"
  type: "ReLU"
  bottom: "inception_3b/5x5_reduce"
  top: "inception_3b/5x5_reduce"
}
layer {
  name: "inception_3b/5x5"
  type: "Convolution"
  bottom: "inception_3b/5x5_reduce"
  top: "inception_3b/5x5"
  param {
    lr_mult: 1
    decay_mult: 1
  }
  param {
    lr_mult: 2
    decay_mult: 0
  }
  convolution_param {
    num_output: 96
    pad: 2
    kernel_size: 5
    weight_filler {
      type: "xavier"
    }
    bias_filler {
      type: "constant"
      value: 0.2
    }
  }
}
layer {
  name: "inception_3b/relu_5x5"
  type: "ReLU"
  bottom: "inception_3b/5x5"
  top: "inception_3b/5x5"
}
layer {
  name: "inception_3b/pool"
  type: "Pooling"
  bottom: "inception_3a/output"
  top: "inception_3b/pool"
  pooling_param {
    pool: MAX
    kernel_size: 3
    stride: 1
    pad: 1
  }
}
layer {
  name: "inception_3b/pool_proj"
  type: "Convolution"
  bottom: "inception_3b/pool"
  top: "inception_3b/pool_proj"
  param {
    lr_mult: 1
    decay_mult: 1
  }
  param {
    lr_mult: 2
    decay_mult: 0
  }
  convolution_param {
    num_output: 64
    kernel_size: 1
    weight_filler {
      type: "xavier"
    }
    bias_filler {
      type: "constant"
      value: 0.2
    }
  }
}
layer {
  name: "inception_3b/relu_pool_proj"
  type: "ReLU"
  bottom: "inception_3b/pool_proj"
  top: "inception_3b/pool_proj"
}
layer {
  name: "inception_3b/output"
  type: "Concat"
  bottom: "inception_3b/1x1"
  bottom: "inception_3b/3x3"
  bottom: "inception_3b/5x5"
  bottom: "inception_3b/pool_proj"
  top: "inception_3b/output"
}
layer {
  name: "pool3/3x3_s2"
  type: "Pooling"
  bottom: "inception_3b/output"
  top: "pool3/3x3_s2"
  pooling_param {
    pool: MAX
    kernel_size: 3
    stride: 2
  }
}
layer {
  name: "inception_4a/1x1"
  type: "Convolution"
  bottom: "pool3/3x3_s2"
  top: "inception_4a/1x1"
  param {
    lr_mult: 1
    decay_mult: 1
  }
  param {
    lr_mult: 2
    decay_mult: 0
  }
  convolution_param {
    num_output: 192
    kernel_size: 1
    weight_filler {
      type: "xavier"
    }
    bias_filler {
      type: "constant"
      value: 0.2
    }
  }
}
layer {
  name: "inception_4a/relu_1x1"
  type: "ReLU"
  bottom: "inception_4a/1x1"
  top: "inception_4a/1x1"
}
layer {
  name: "inception_4a/3x3_reduce"
  type: "Convolution"
  bottom: "pool3/3x3_s2"
  top: "inception_4a/3x3_reduce"
  param {
    lr_mult: 1
    decay_mult: 1
  }
  param {
    lr_mult: 2
    decay_mult: 0
  }
  convolution_param {
    num_output: 96
    kernel_size: 1
    weight_filler {
      type: "xavier"
    }
    bias_filler {
      type: "constant"
      value: 0.2
    }
  }
}
layer {
  name: "inception_4a/relu_3x3_reduce"
  type: "ReLU"
  bottom: "inception_4a/3x3_reduce"
  top: "inception_4a/3x3_reduce"
}
layer {
  name: "inception_4a/3x3"
  type: "Convolution"
  bottom: "inception_4a/3x3_reduce"
  top: "inception_4a/3x3"
  param {
    lr_mult: 1
    decay_mult: 1
  }
  param {
    lr_mult: 2
    decay_mult: 0
  }
  convolution_param {
    num_output: 208
    pad: 1
    kernel_size: 3
    weight_filler {
      type: "xavier"
    }
    bias_filler {
      type: "constant"
      value: 0.2
    }
  }
}
layer {
  name: "inception_4a/relu_3x3"
  type: "ReLU"
  bottom: "inception_4a/3x3"
  top: "inception_4a/3x3"
}
layer {
  name: "inception_4a/5x5_reduce"
  type: "Convolution"
  bottom: "pool3/3x3_s2"
  top: "inception_4a/5x5_reduce"
  param {
    lr_mult: 1
    decay_mult: 1
  }
  param {
    lr_mult: 2
    decay_mult: 0
  }
  convolution_param {
    num_output: 16
    kernel_size: 1
    weight_filler {
      type: "xavier"
    }
    bias_filler {
      type: "constant"
      value: 0.2
    }
  }
}
layer {
  name: "inception_4a/relu_5x5_reduce"
  type: "ReLU"
  bottom: "inception_4a/5x5_reduce"
  top: "inception_4a/5x5_reduce"
}
layer {
  name: "inception_4a/5x5"
  type: "Convolution"
  bottom: "inception_4a/5x5_reduce"
  top: "inception_4a/5x5"
  param {
    lr_mult: 1
    decay_mult: 1
  }
  param {
    lr_mult: 2
    decay_mult: 0
  }
  convolution_param {
    num_output: 48
    pad: 2
    kernel_size: 5
    weight_filler {
      type: "xavier"
    }
    bias_filler {
      type: "constant"
      value: 0.2
    }
  }
}
layer {
  name: "inception_4a/relu_5x5"
  type: "ReLU"
  bottom: "inception_4a/5x5"
  top: "inception_4a/5x5"
}
layer {
  name: "inception_4a/pool"
  type: "Pooling"
  bottom: "pool3/3x3_s2"
  top: "inception_4a/pool"
  pooling_param {
    pool: MAX
    kernel_size: 3
    stride: 1
    pad: 1
  }
}
layer {
  name: "inception_4a/pool_proj"
  type: "Convolution"
  bottom: "inception_4a/pool"
  top: "inception_4a/pool_proj"
  param {
    lr_mult: 1
    decay_mult: 1
  }
  param {
    lr_mult: 2
    decay_mult: 0
  }
  convolution_param {
    num_output: 64
    kernel_size: 1
    weight_filler {
      type: "xavier"
    }
    bias_filler {
      type: "constant"
      value: 0.2
    }
  }
}
layer {
  name: "inception_4a/relu_pool_proj"
  type: "ReLU"
  bottom: "inception_4a/pool_proj"
  top: "inception_4a/pool_proj"
}
layer {
  name: "inception_4a/output"
  type: "Concat"
  bottom: "inception_4a/1x1"
  bottom: "inception_4a/3x3"
  bottom: "inception_4a/5x5"
  bottom: "inception_4a/pool_proj"
  top: "inception_4a/output"
}
layer {
  name: "loss1/ave_pool"
  type: "Pooling"
  bottom: "inception_4a/output"
  top: "loss1/ave_pool"
  pooling_param {
    pool: AVE
    kernel_size: 5
    stride: 3
  }
}
layer {
  name: "loss1/conv"
  type: "Convolution"
  bottom: "loss1/ave_pool"
  top: "loss1/conv"
  param {
    lr_mult: 1
    decay_mult: 1
  }
  param {
    lr_mult: 2
    decay_mult: 0
  }
  convolution_param {
    num_output: 128
    kernel_size: 1
    weight_filler {
      type: "xavier"
    }
    bias_filler {
      type: "constant"
      value: 0.2
    }
  }
}
layer {
  name: "loss1/relu_conv"
  type: "ReLU"
  bottom: "loss1/conv"
  top: "loss1/conv"
}
layer {
  name: "loss1/fc"
  type: "InnerProduct"
  bottom: "loss1/conv"
  top: "loss1/fc"
  param {
    lr_mult: 1
    decay_mult: 1
  }
  param {
    lr_mult: 2
    decay_mult: 0
  }
  inner_product_param {
    num_output: 1024
    weight_filler {
      type: "xavier"
    }
    bias_filler {
      type: "constant"
      value: 0.2
    }
  }
}
layer {
  name: "loss1/relu_fc"
  type: "ReLU"
  bottom: "loss1/fc"
  top: "loss1/fc"
}
layer {
  name: "loss1/drop_fc"
  type: "Dropout"
  bottom: "loss1/fc"
  top: "loss1/fc"
  dropout_param {
    dropout_ratio: 0.7
  }
}
layer {
  name: "loss1/classifier_kaggle"
  type: "InnerProduct"
  bottom: "loss1/fc"
  top: "loss1/classifier_kaggle"
  param {
    lr_mult: 1
    decay_mult: 1
  }
  param {
    lr_mult: 2
    decay_mult: 0
  }
  inner_product_param {
    num_output: 447
    weight_filler {
      type: "xavier"
    }
    bias_filler {
      type: "constant"
      value: 0
    }
  }
}
layer {
  name: "loss1/loss"
  type: "SoftmaxWithLoss"
  bottom: "loss1/classifier_kaggle"
  bottom: "label"
  top: "loss1/loss1"
  loss_weight: 0.3
}
layer {
  name: "loss1/top-1"
  type: "Accuracy"
  bottom: "loss1/classifier_kaggle"
  bottom: "label"
  top: "loss1/top-1"
  include {
    phase: TEST
  }
}
layer {
  name: "loss1/top-5"
  type: "Accuracy"
  bottom: "loss1/classifier_kaggle"
  bottom: "label"
  top: "loss1/top-5"
  include {
    phase: TEST
  }
  accuracy_param {
    top_k: 5
  }
}
layer {
  name: "inception_4b/1x1"
  type: "Convolution"
  bottom: "inception_4a/output"
  top: "inception_4b/1x1"
  param {
    lr_mult: 1
    decay_mult: 1
  }
  param {
    lr_mult: 2
    decay_mult: 0
  }
  convolution_param {
    num_output: 160
    kernel_size: 1
    weight_filler {
      type: "xavier"
    }
    bias_filler {
      type: "constant"
      value: 0.2
    }
  }
}
layer {
  name: "inception_4b/relu_1x1"
  type: "ReLU"
  bottom: "inception_4b/1x1"
  top: "inception_4b/1x1"
}
layer {
  name: "inception_4b/3x3_reduce"
  type: "Convolution"
  bottom: "inception_4a/output"
  top: "inception_4b/3x3_reduce"
  param {
    lr_mult: 1
    decay_mult: 1
  }
  param {
    lr_mult: 2
    decay_mult: 0
  }
  convolution_param {
    num_output: 112
    kernel_size: 1
    weight_filler {
      type: "xavier"
    }
    bias_filler {
      type: "constant"
      value: 0.2
    }
  }
}
layer {
  name: "inception_4b/relu_3x3_reduce"
  type: "ReLU"
  bottom: "inception_4b/3x3_reduce"
  top: "inception_4b/3x3_reduce"
}
layer {
  name: "inception_4b/3x3"
  type: "Convolution"
  bottom: "inception_4b/3x3_reduce"
  top: "inception_4b/3x3"
  param {
    lr_mult: 1
    decay_mult: 1
  }
  param {
    lr_mult: 2
    decay_mult: 0
  }
  convolution_param {
    num_output: 224
    pad: 1
    kernel_size: 3
    weight_filler {
      type: "xavier"
    }
    bias_filler {
      type: "constant"
      value: 0.2
    }
  }
}
layer {
  name: "inception_4b/relu_3x3"
  type: "ReLU"
  bottom: "inception_4b/3x3"
  top: "inception_4b/3x3"
}
layer {
  name: "inception_4b/5x5_reduce"
  type: "Convolution"
  bottom: "inception_4a/output"
  top: "inception_4b/5x5_reduce"
  param {
    lr_mult: 1
    decay_mult: 1
  }
  param {
    lr_mult: 2
    decay_mult: 0
  }
  convolution_param {
    num_output: 24
    kernel_size: 1
    weight_filler {
      type: "xavier"
    }
    bias_filler {
      type: "constant"
      value: 0.2
    }
  }
}
layer {
  name: "inception_4b/relu_5x5_reduce"
  type: "ReLU"
  bottom: "inception_4b/5x5_reduce"
  top: "inception_4b/5x5_reduce"
}
layer {
  name: "inception_4b/5x5"
  type: "Convolution"
  bottom: "inception_4b/5x5_reduce"
  top: "inception_4b/5x5"
  param {
    lr_mult: 1
    decay_mult: 1
  }
  param {
    lr_mult: 2
    decay_mult: 0
  }
  convolution_param {
    num_output: 64
    pad: 2
    kernel_size: 5
    weight_filler {
      type: "xavier"
    }
    bias_filler {
      type: "constant"
      value: 0.2
    }
  }
}
layer {
  name: "inception_4b/relu_5x5"
  type: "ReLU"
  bottom: "inception_4b/5x5"
  top: "inception_4b/5x5"
}
layer {
  name: "inception_4b/pool"
  type: "Pooling"
  bottom: "inception_4a/output"
  top: "inception_4b/pool"
  pooling_param {
    pool: MAX
    kernel_size: 3
    stride: 1
    pad: 1
  }
}
layer {
  name: "inception_4b/pool_proj"
  type: "Convolution"
  bottom: "inception_4b/pool"
  top: "inception_4b/pool_proj"
  param {
    lr_mult: 1
    decay_mult: 1
  }
  param {
    lr_mult: 2
    decay_mult: 0
  }
  convolution_param {
    num_output: 64
    kernel_size: 1
    weight_filler {
      type: "xavier"
    }
    bias_filler {
      type: "constant"
      value: 0.2
    }
  }
}
layer {
  name: "inception_4b/relu_pool_proj"
  type: "ReLU"
  bottom: "inception_4b/pool_proj"
  top: "inception_4b/pool_proj"
}
layer {
  name: "inception_4b/output"
  type: "Concat"
  bottom: "inception_4b/1x1"
  bottom: "inception_4b/3x3"
  bottom: "inception_4b/5x5"
  bottom: "inception_4b/pool_proj"
  top: "inception_4b/output"
}
layer {
  name: "inception_4c/1x1"
  type: "Convolution"
  bottom: "inception_4b/output"
  top: "inception_4c/1x1"
  param {
    lr_mult: 1
    decay_mult: 1
  }
  param {
    lr_mult: 2
    decay_mult: 0
  }
  convolution_param {
    num_output: 128
    kernel_size: 1
    weight_filler {
      type: "xavier"
    }
    bias_filler {
      type: "constant"
      value: 0.2
    }
  }
}
layer {
  name: "inception_4c/relu_1x1"
  type: "ReLU"
  bottom: "inception_4c/1x1"
  top: "inception_4c/1x1"
}
layer {
  name: "inception_4c/3x3_reduce"
  type: "Convolution"
  bottom: "inception_4b/output"
  top: "inception_4c/3x3_reduce"
  param {
    lr_mult: 1
    decay_mult: 1
  }
  param {
    lr_mult: 2
    decay_mult: 0
  }
  convolution_param {
    num_output: 128
    kernel_size: 1
    weight_filler {
      type: "xavier"
    }
    bias_filler {
      type: "constant"
      value: 0.2
    }
  }
}
layer {
  name: "inception_4c/relu_3x3_reduce"
  type: "ReLU"
  bottom: "inception_4c/3x3_reduce"
  top: "inception_4c/3x3_reduce"
}
layer {
  name: "inception_4c/3x3"
  type: "Convolution"
  bottom: "inception_4c/3x3_reduce"
  top: "inception_4c/3x3"
  param {
    lr_mult: 1
    decay_mult: 1
  }
  param {
    lr_mult: 2
    decay_mult: 0
  }
  convolution_param {
    num_output: 256
    pad: 1
    kernel_size: 3
    weight_filler {
      type: "xavier"
    }
    bias_filler {
      type: "constant"
      value: 0.2
    }
  }
}
layer {
  name: "inception_4c/relu_3x3"
  type: "ReLU"
  bottom: "inception_4c/3x3"
  top: "inception_4c/3x3"
}
layer {
  name: "inception_4c/5x5_reduce"
  type: "Convolution"
  bottom: "inception_4b/output"
  top: "inception_4c/5x5_reduce"
  param {
    lr_mult: 1
    decay_mult: 1
  }
  param {
    lr_mult: 2
    decay_mult: 0
  }
  convolution_param {
    num_output: 24
    kernel_size: 1
    weight_filler {
      type: "xavier"
    }
    bias_filler {
      type: "constant"
      value: 0.2
    }
  }
}
layer {
  name: "inception_4c/relu_5x5_reduce"
  type: "ReLU"
  bottom: "inception_4c/5x5_reduce"
  top: "inception_4c/5x5_reduce"
}
layer {
  name: "inception_4c/5x5"
  type: "Convolution"
  bottom: "inception_4c/5x5_reduce"
  top: "inception_4c/5x5"
  param {
    lr_mult: 1
    decay_mult: 1
  }
  param {
    lr_mult: 2
    decay_mult: 0
  }
  convolution_param {
    num_output: 64
    pad: 2
    kernel_size: 5
    weight_filler {
      type: "xavier"
    }
    bias_filler {
      type: "constant"
      value: 0.2
    }
  }
}
layer {
  name: "inception_4c/relu_5x5"
  type: "ReLU"
  bottom: "inception_4c/5x5"
  top: "inception_4c/5x5"
}
layer {
  name: "inception_4c/pool"
  type: "Pooling"
  bottom: "inception_4b/output"
  top: "inception_4c/pool"
  pooling_param {
    pool: MAX
    kernel_size: 3
    stride: 1
    pad: 1
  }
}
layer {
  name: "inception_4c/pool_proj"
  type: "Convolution"
  bottom: "inception_4c/pool"
  top: "inception_4c/pool_proj"
  param {
    lr_mult: 1
    decay_mult: 1
  }
  param {
    lr_mult: 2
    decay_mult: 0
  }
  convolution_param {
    num_output: 64
    kernel_size: 1
    weight_filler {
      type: "xavier"
    }
    bias_filler {
      type: "constant"
      value: 0.2
    }
  }
}
layer {
  name: "inception_4c/relu_pool_proj"
  type: "ReLU"
  bottom: "inception_4c/pool_proj"
  top: "inception_4c/pool_proj"
}
layer {
  name: "inception_4c/output"
  type: "Concat"
  bottom: "inception_4c/1x1"
  bottom: "inception_4c/3x3"
  bottom: "inception_4c/5x5"
  bottom: "inception_4c/pool_proj"
  top: "inception_4c/output"
}
layer {
  name: "inception_4d/1x1"
  type: "Convolution"
  bottom: "inception_4c/output"
  top: "inception_4d/1x1"
  param {
    lr_mult: 1
    decay_mult: 1
  }
  param {
    lr_mult: 2
    decay_mult: 0
  }
  convolution_param {
    num_output: 112
    kernel_size: 1
    weight_filler {
      type: "xavier"
    }
    bias_filler {
      type: "constant"
      value: 0.2
    }
  }
}
layer {
  name: "inception_4d/relu_1x1"
  type: "ReLU"
  bottom: "inception_4d/1x1"
  top: "inception_4d/1x1"
}
layer {
  name: "inception_4d/3x3_reduce"
  type: "Convolution"
  bottom: "inception_4c/output"
  top: "inception_4d/3x3_reduce"
  param {
    lr_mult: 1
    decay_mult: 1
  }
  param {
    lr_mult: 2
    decay_mult: 0
  }
  convolution_param {
    num_output: 144
    kernel_size: 1
    weight_filler {
      type: "xavier"
    }
    bias_filler {
      type: "constant"
      value: 0.2
    }
  }
}
layer {
  name: "inception_4d/relu_3x3_reduce"
  type: "ReLU"
  bottom: "inception_4d/3x3_reduce"
  top: "inception_4d/3x3_reduce"
}
layer {
  name: "inception_4d/3x3"
  type: "Convolution"
  bottom: "inception_4d/3x3_reduce"
  top: "inception_4d/3x3"
  param {
    lr_mult: 1
    decay_mult: 1
  }
  param {
    lr_mult: 2
    decay_mult: 0
  }
  convolution_param {
    num_output: 288
    pad: 1
    kernel_size: 3
    weight_filler {
      type: "xavier"
    }
    bias_filler {
      type: "constant"
      value: 0.2
    }
  }
}
layer {
  name: "inception_4d/relu_3x3"
  type: "ReLU"
  bottom: "inception_4d/3x3"
  top: "inception_4d/3x3"
}
layer {
  name: "inception_4d/5x5_reduce"
  type: "Convolution"
  bottom: "inception_4c/output"
  top: "inception_4d/5x5_reduce"
  param {
    lr_mult: 1
    decay_mult: 1
  }
  param {
    lr_mult: 2
    decay_mult: 0
  }
  convolution_param {
    num_output: 32
    kernel_size: 1
    weight_filler {
      type: "xavier"
    }
    bias_filler {
      type: "constant"
      value: 0.2
    }
  }
}
layer {
  name: "inception_4d/relu_5x5_reduce"
  type: "ReLU"
  bottom: "inception_4d/5x5_reduce"
  top: "inception_4d/5x5_reduce"
}
layer {
  name: "inception_4d/5x5"
  type: "Convolution"
  bottom: "inception_4d/5x5_reduce"
  top: "inception_4d/5x5"
  param {
    lr_mult: 1
    decay_mult: 1
  }
  param {
    lr_mult: 2
    decay_mult: 0
  }
  convolution_param {
    num_output: 64
    pad: 2
    kernel_size: 5
    weight_filler {
      type: "xavier"
    }
    bias_filler {
      type: "constant"
      value: 0.2
    }
  }
}
layer {
  name: "inception_4d/relu_5x5"
  type: "ReLU"
  bottom: "inception_4d/5x5"
  top: "inception_4d/5x5"
}
layer {
  name: "inception_4d/pool"
  type: "Pooling"
  bottom: "inception_4c/output"
  top: "inception_4d/pool"
  pooling_param {
    pool: MAX
    kernel_size: 3
    stride: 1
    pad: 1
  }
}
layer {
  name: "inception_4d/pool_proj"
  type: "Convolution"
  bottom: "inception_4d/pool"
  top: "inception_4d/pool_proj"
  param {
    lr_mult: 1
    decay_mult: 1
  }
  param {
    lr_mult: 2
    decay_mult: 0
  }
  convolution_param {
    num_output: 64
    kernel_size: 1
    weight_filler {
      type: "xavier"
    }
    bias_filler {
      type: "constant"
      value: 0.2
    }
  }
}
layer {
  name: "inception_4d/relu_pool_proj"
  type: "ReLU"
  bottom: "inception_4d/pool_proj"
  top: "inception_4d/pool_proj"
}
layer {
  name: "inception_4d/output"
  type: "Concat"
  bottom: "inception_4d/1x1"
  bottom: "inception_4d/3x3"
  bottom: "inception_4d/5x5"
  bottom: "inception_4d/pool_proj"
  top: "inception_4d/output"
}
layer {
  name: "loss2/ave_pool"
  type: "Pooling"
  bottom: "inception_4d/output"
  top: "loss2/ave_pool"
  pooling_param {
    pool: AVE
    kernel_size: 5
    stride: 3
  }
}
layer {
  name: "loss2/conv"
  type: "Convolution"
…
I1218 17:10:13.002336 27366 net.cpp:84] Creating Layer inception_4c/1x1
I1218 17:10:13.002342 27366 net.cpp:380] inception_4c/1x1 <- inception_4b/output_inception_4b/output_0_split_0
I1218 17:10:13.002354 27366 net.cpp:338] inception_4c/1x1 -> inception_4c/1x1
I1218 17:10:13.002368 27366 net.cpp:113] Setting up inception_4c/1x1
I1218 17:10:13.003825 27366 net.cpp:120] Top shape: 50 128 14 14 (1254400)
I1218 17:10:13.003849 27366 layer_factory.hpp:74] Creating layer inception_4c/relu_1x1
I1218 17:10:13.003865 27366 net.cpp:84] Creating Layer inception_4c/relu_1x1
I1218 17:10:13.003875 27366 net.cpp:380] inception_4c/relu_1x1 <- inception_4c/1x1
I1218 17:10:13.003886 27366 net.cpp:327] inception_4c/relu_1x1 -> inception_4c/1x1 (in-place)
I1218 17:10:13.003900 27366 net.cpp:113] Setting up inception_4c/relu_1x1
I1218 17:10:13.004241 27366 net.cpp:120] Top shape: 50 128 14 14 (1254400)
I1218 17:10:13.004271 27366 layer_factory.hpp:74] Creating layer inception_4c/3x3_reduce
I1218 17:10:13.004290 27366 net.cpp:84] Creating Layer inception_4c/3x3_reduce
I1218 17:10:13.004302 27366 net.cpp:380] inception_4c/3x3_reduce <- inception_4b/output_inception_4b/output_0_split_1
I1218 17:10:13.004315 27366 net.cpp:338] inception_4c/3x3_reduce -> inception_4c/3x3_reduce
I1218 17:10:13.004331 27366 net.cpp:113] Setting up inception_4c/3x3_reduce
I1218 17:10:13.005797 27366 net.cpp:120] Top shape: 50 128 14 14 (1254400)
I1218 17:10:13.005822 27366 layer_factory.hpp:74] Creating layer inception_4c/relu_3x3_reduce
I1218 17:10:13.005836 27366 net.cpp:84] Creating Layer inception_4c/relu_3x3_reduce
I1218 17:10:13.005847 27366 net.cpp:380] inception_4c/relu_3x3_reduce <- inception_4c/3x3_reduce
I1218 17:10:13.005859 27366 net.cpp:327] inception_4c/relu_3x3_reduce -> inception_4c/3x3_reduce (in-place)
I1218 17:10:13.005873 27366 net.cpp:113] Setting up inception_4c/relu_3x3_reduce
I1218 17:10:13.005980 27366 net.cpp:120] Top shape: 50 128 14 14 (1254400)
I1218 17:10:13.005995 27366 layer_factory.hpp:74] Creating layer inception_4c/3x3
I1218 17:10:13.006011 27366 net.cpp:84] Creating Layer inception_4c/3x3
I1218 17:10:13.006019 27366 net.cpp:380] inception_4c/3x3 <- inception_4c/3x3_reduce
I1218 17:10:13.006033 27366 net.cpp:338] inception_4c/3x3 -> inception_4c/3x3
I1218 17:10:13.006048 27366 net.cpp:113] Setting up inception_4c/3x3
I1218 17:10:13.010504 27366 net.cpp:120] Top shape: 50 256 14 14 (2508800)
I1218 17:10:13.010555 27366 layer_factory.hpp:74] Creating layer inception_4c/relu_3x3
I1218 17:10:13.010570 27366 net.cpp:84] Creating Layer inception_4c/relu_3x3
I1218 17:10:13.010579 27366 net.cpp:380] inception_4c/relu_3x3 <- inception_4c/3x3
I1218 17:10:13.010591 27366 net.cpp:327] inception_4c/relu_3x3 -> inception_4c/3x3 (in-place)
I1218 17:10:13.010604 27366 net.cpp:113] Setting up inception_4c/relu_3x3
I1218 17:10:13.010704 27366 net.cpp:120] Top shape: 50 256 14 14 (2508800)
I1218 17:10:13.010713 27366 layer_factory.hpp:74] Creating layer inception_4c/5x5_reduce
I1218 17:10:13.010726 27366 net.cpp:84] Creating Layer inception_4c/5x5_reduce
I1218 17:10:13.010735 27366 net.cpp:380] inception_4c/5x5_reduce <- inception_4b/output_inception_4b/output_0_split_2
I1218 17:10:13.010748 27366 net.cpp:338] inception_4c/5x5_reduce -> inception_4c/5x5_reduce
I1218 17:10:13.010763 27366 net.cpp:113] Setting up inception_4c/5x5_reduce
I1218 17:10:13.011503 27366 net.cpp:120] Top shape: 50 24 14 14 (235200)
I1218 17:10:13.011526 27366 layer_factory.hpp:74] Creating layer inception_4c/relu_5x5_reduce
I1218 17:10:13.011539 27366 net.cpp:84] Creating Layer inception_4c/relu_5x5_reduce
I1218 17:10:13.011548 27366 net.cpp:380] inception_4c/relu_5x5_reduce <- inception_4c/5x5_reduce
I1218 17:10:13.011560 27366 net.cpp:327] inception_4c/relu_5x5_reduce -> inception_4c/5x5_reduce (in-place)
I1218 17:10:13.011572 27366 net.cpp:113] Setting up inception_4c/relu_5x5_reduce
I1218 17:10:13.011904 27366 net.cpp:120] Top shape: 50 24 14 14 (235200)
I1218 17:10:13.011921 27366 layer_factory.hpp:74] Creating layer inception_4c/5x5
I1218 17:10:13.011940 27366 net.cpp:84] Creating Layer inception_4c/5x5
I1218 17:10:13.011948 27366 net.cpp:380] inception_4c/5x5 <- inception_4c/5x5_reduce
I1218 17:10:13.011965 27366 net.cpp:338] inception_4c/5x5 -> inception_4c/5x5
I1218 17:10:13.011979 27366 net.cpp:113] Setting up inception_4c/5x5
I1218 17:10:13.013083 27366 net.cpp:120] Top shape: 50 64 14 14 (627200)
I1218 17:10:13.013108 27366 layer_factory.hpp:74] Creating layer inception_4c/relu_5x5
I1218 17:10:13.013120 27366 net.cpp:84] Creating Layer inception_4c/relu_5x5
I1218 17:10:13.013129 27366 net.cpp:380] inception_4c/relu_5x5 <- inception_4c/5x5
I1218 17:10:13.013141 27366 net.cpp:327] inception_4c/relu_5x5 -> inception_4c/5x5 (in-place)
I1218 17:10:13.013154 27366 net.cpp:113] Setting up inception_4c/relu_5x5
I1218 17:10:13.013267 27366 net.cpp:120] Top shape: 50 64 14 14 (627200)
I1218 17:10:13.013288 27366 layer_factory.hpp:74] Creating layer inception_4c/pool
I1218 17:10:13.013308 27366 layer_factory.cpp:56] CUDNN does not support padding or multiple tops. Using Caffe's own pooling layer.
I1218 17:10:13.013319 27366 net.cpp:84] Creating Layer inception_4c/pool
I1218 17:10:13.013325 27366 net.cpp:380] inception_4c/pool <- inception_4b/output_inception_4b/output_0_split_3
I1218 17:10:13.013335 27366 net.cpp:338] inception_4c/pool -> inception_4c/pool
I1218 17:10:13.013345 27366 net.cpp:113] Setting up inception_4c/pool
I1218 17:10:13.013355 27366 net.cpp:120] Top shape: 50 512 14 14 (5017600)
I1218 17:10:13.013360 27366 layer_factory.hpp:74] Creating layer inception_4c/pool_proj
I1218 17:10:13.013368 27366 net.cpp:84] Creating Layer inception_4c/pool_proj
I1218 17:10:13.013373 27366 net.cpp:380] inception_4c/pool_proj <- inception_4c/pool
I1218 17:10:13.013387 27366 net.cpp:338] inception_4c/pool_proj -> inception_4c/pool_proj
I1218 17:10:13.013401 27366 net.cpp:113] Setting up inception_4c/pool_proj
I1218 17:10:13.014436 27366 net.cpp:120] Top shape: 50 64 14 14 (627200)
I1218 17:10:13.014459 27366 layer_factory.hpp:74] Creating layer inception_4c/relu_pool_proj
I1218 17:10:13.014470 27366 net.cpp:84] Creating Layer inception_4c/relu_pool_proj
I1218 17:10:13.014480 27366 net.cpp:380] inception_4c/relu_pool_proj <- inception_4c/pool_proj
I1218 17:10:13.014492 27366 net.cpp:327] inception_4c/relu_pool_proj -> inception_4c/pool_proj (in-place)
I1218 17:10:13.014504 27366 net.cpp:113] Setting up inception_4c/relu_pool_proj
I1218 17:10:13.014612 27366 net.cpp:120] Top shape: 50 64 14 14 (627200)
I1218 17:10:13.014622 27366 layer_factory.hpp:74] Creating layer inception_4c/output
I1218 17:10:13.014629 27366 net.cpp:84] Creating Layer inception_4c/output
I1218 17:10:13.014637 27366 net.cpp:380] inception_4c/output <- inception_4c/1x1
I1218 17:10:13.014647 27366 net.cpp:380] inception_4c/output <- inception_4c/3x3
I1218 17:10:13.014657 27366 net.cpp:380] inception_4c/output <- inception_4c/5x5
I1218 17:10:13.014665 27366 net.cpp:380] inception_4c/output <- inception_4c/pool_proj
I1218 17:10:13.014677 27366 net.cpp:338] inception_4c/output -> inception_4c/output
I1218 17:10:13.014689 27366 net.cpp:113] Setting up inception_4c/output
I1218 17:10:13.014703 27366 net.cpp:120] Top shape: 50 512 14 14 (5017600)
I1218 17:10:13.014713 27366 layer_factory.hpp:74] Creating layer inception_4c/output_inception_4c/output_0_split
I1218 17:10:13.014729 27366 net.cpp:84] Creating Layer inception_4c/output_inception_4c/output_0_split
I1218 17:10:13.014736 27366 net.cpp:380] inception_4c/output_inception_4c/output_0_split <- inception_4c/output
I1218 17:10:13.014747 27366 net.cpp:338] inception_4c/output_inception_4c/output_0_split -> inception_4c/output_inception_4c/output_0_split_0
I1218 17:10:13.014760 27366 net.cpp:338] inception_4c/output_inception_4c/output_0_split -> inception_4c/output_inception_4c/output_0_split_1
I1218 17:10:13.014777 27366 net.cpp:338] inception_4c/output_inception_4c/output_0_split -> inception_4c/output_inception_4c/output_0_split_2
I1218 17:10:13.014791 27366 net.cpp:338] inception_4c/output_inception_4c/output_0_split -> inception_4c/output_inception_4c/output_0_split_3
I1218 17:10:13.014803 27366 net.cpp:113] Setting up inception_4c/output_inception_4c/output_0_split
I1218 17:10:13.014817 27366 net.cpp:120] Top shape: 50 512 14 14 (5017600)
I1218 17:10:13.014827 27366 net.cpp:120] Top shape: 50 512 14 14 (5017600)
I1218 17:10:13.014832 27366 net.cpp:120] Top shape: 50 512 14 14 (5017600)
I1218 17:10:13.014837 27366 net.cpp:120] Top shape: 50 512 14 14 (5017600)
I1218 17:10:13.014843 27366 layer_factory.hpp:74] Creating layer inception_4d/1x1
I1218 17:10:13.014855 27366 net.cpp:84] Creating Layer inception_4d/1x1
I1218 17:10:13.014864 27366 net.cpp:380] inception_4d/1x1 <- inception_4c/output_inception_4c/output_0_split_0
I1218 17:10:13.014879 27366 net.cpp:338] inception_4d/1x1 -> inception_4d/1x1
I1218 17:10:13.014899 27366 net.cpp:113] Setting up inception_4d/1x1
I1218 17:10:13.016275 27366 net.cpp:120] Top shape: 50 112 14 14 (1097600)
I1218 17:10:13.016311 27366 layer_factory.hpp:74] Creating layer inception_4d/relu_1x1
I1218 17:10:13.016324 27366 net.cpp:84] Creating Layer inception_4d/relu_1x1
I1218 17:10:13.016335 27366 net.cpp:380] inception_4d/relu_1x1 <- inception_4d/1x1
I1218 17:10:13.016346 27366 net.cpp:327] inception_4d/relu_1x1 -> inception_4d/1x1 (in-place)
I1218 17:10:13.016357 27366 net.cpp:113] Setting up inception_4d/relu_1x1
I1218 17:10:13.016455 27366 net.cpp:120] Top shape: 50 112 14 14 (1097600)
I1218 17:10:13.016468 27366 layer_factory.hpp:74] Creating layer inception_4d/3x3_reduce
I1218 17:10:13.016482 27366 net.cpp:84] Creating Layer inception_4d/3x3_reduce
I1218 17:10:13.016491 27366 net.cpp:380] inception_4d/3x3_reduce <- inception_4c/output_inception_4c/output_0_split_1
I1218 17:10:13.016506 27366 net.cpp:338] inception_4d/3x3_reduce -> inception_4d/3x3_reduce
I1218 17:10:13.016521 27366 net.cpp:113] Setting up inception_4d/3x3_reduce
I1218 17:10:13.020776 27366 net.cpp:120] Top shape: 50 144 14 14 (1411200)
I1218 17:10:13.020800 27366 layer_factory.hpp:74] Creating layer inception_4d/relu_3x3_reduce
I1218 17:10:13.020814 27366 net.cpp:84] Creating Layer inception_4d/relu_3x3_reduce
I1218 17:10:13.020823 27366 net.cpp:380] inception_4d/relu_3x3_reduce <- inception_4d/3x3_reduce
I1218 17:10:13.020843 27366 net.cpp:327] inception_4d/relu_3x3_reduce -> inception_4d/3x3_reduce (in-place)
I1218 17:10:13.020856 27366 net.cpp:113] Setting up inception_4d/relu_3x3_reduce
I1218 17:10:13.025653 27366 net.cpp:120] Top shape: 50 144 14 14 (1411200)
I1218 17:10:13.025674 27366 layer_factory.hpp:74] Creating layer inception_4d/3x3
I1218 17:10:13.025692 27366 net.cpp:84] Creating Layer inception_4d/3x3
I1218 17:10:13.025702 27366 net.cpp:380] inception_4d/3x3 <- inception_4d/3x3_reduce
I1218 17:10:13.025717 27366 net.cpp:338] inception_4d/3x3 -> inception_4d/3x3
I1218 17:10:13.025732 27366 net.cpp:113] Setting up inception_4d/3x3
I1218 17:10:13.031297 27366 net.cpp:120] Top shape: 50 288 14 14 (2822400)
I1218 17:10:13.031322 27366 layer_factory.hpp:74] Creating layer inception_4d/relu_3x3
I1218 17:10:13.031335 27366 net.cpp:84] Creating Layer inception_4d/relu_3x3
I1218 17:10:13.031343 27366 net.cpp:380] inception_4d/relu_3x3 <- inception_4d/3x3
I1218 17:10:13.031352 27366 net.cpp:327] inception_4d/relu_3x3 -> inception_4d/3x3 (in-place)
I1218 17:10:13.031364 27366 net.cpp:113] Setting up inception_4d/relu_3x3
I1218 17:10:13.031479 27366 net.cpp:120] Top shape: 50 288 14 14 (2822400)
I1218 17:10:13.031492 27366 layer_factory.hpp:74] Creating layer inception_4d/5x5_reduce
I1218 17:10:13.031507 27366 net.cpp:84] Creating Layer inception_4d/5x5_reduce
I1218 17:10:13.031515 27366 net.cpp:380] inception_4d/5x5_reduce <- inception_4c/output_inception_4c/output_0_split_2
I1218 17:10:13.031533 27366 net.cpp:338] inception_4d/5x5_reduce -> inception_4d/5x5_reduce
I1218 17:10:13.031546 27366 net.cpp:113] Setting up inception_4d/5x5_reduce
I1218 17:10:13.032419 27366 net.cpp:120] Top shape: 50 32 14 14 (313600)
I1218 17:10:13.032443 27366 layer_factory.hpp:74] Creating layer inception_4d/relu_5x5_reduce
I1218 17:10:13.032459 27366 net.cpp:84] Creating Layer inception_4d/relu_5x5_reduce
I1218 17:10:13.032469 27366 net.cpp:380] inception_4d/relu_5x5_reduce <- inception_4d/5x5_reduce
I1218 17:10:13.032480 27366 net.cpp:327] inception_4d/relu_5x5_reduce -> inception_4d/5x5_reduce (in-place)
I1218 17:10:13.032493 27366 net.cpp:113] Setting up inception_4d/relu_5x5_reduce
I1218 17:10:13.032603 27366 net.cpp:120] Top shape: 50 32 14 14 (313600)
I1218 17:10:13.032615 27366 layer_factory.hpp:74] Creating layer inception_4d/5x5
I1218 17:10:13.032627 27366 net.cpp:84] Creating Layer inception_4d/5x5
I1218 17:10:13.032636 27366 net.cpp:380] inception_4d/5x5 <- inception_4d/5x5_reduce
I1218 17:10:13.032649 27366 net.cpp:338] inception_4d/5x5 -> inception_4d/5x5
I1218 17:10:13.032663 27366 net.cpp:113] Setting up inception_4d/5x5
I1218 17:10:13.033982 27366 net.cpp:120] Top shape: 50 64 14 14 (627200)
I1218 17:10:13.034014 27366 layer_factory.hpp:74] Creating layer inception_4d/relu_5x5
I1218 17:10:13.034041 27366 net.cpp:84] Creating Layer inception_4d/relu_5x5
I1218 17:10:13.034052 27366 net.cpp:380] inception_4d/relu_5x5 <- inception_4d/5x5
I1218 17:10:13.034063 27366 net.cpp:327] inception_4d/relu_5x5 -> inception_4d/5x5 (in-place)
I1218 17:10:13.034077 27366 net.cpp:113] Setting up inception_4d/relu_5x5
I1218 17:10:13.034191 27366 net.cpp:120] Top shape: 50 64 14 14 (627200)
I1218 17:10:13.034207 27366 layer_factory.hpp:74] Creating layer inception_4d/pool
I1218 17:10:13.034216 27366 layer_factory.cpp:56] CUDNN does not support padding or multiple tops. Using Caffe's own pooling layer.
I1218 17:10:13.034227 27366 net.cpp:84] Creating Layer inception_4d/pool
I1218 17:10:13.034237 27366 net.cpp:380] inception_4d/pool <- inception_4c/output_inception_4c/output_0_split_3
I1218 17:10:13.034252 27366 net.cpp:338] inception_4d/pool -> inception_4d/pool
I1218 17:10:13.034266 27366 net.cpp:113] Setting up inception_4d/pool
I1218 17:10:13.034283 27366 net.cpp:120] Top shape: 50 512 14 14 (5017600)
I1218 17:10:13.034291 27366 layer_factory.hpp:74] Creating layer inception_4d/pool_proj
I1218 17:10:13.034306 27366 net.cpp:84] Creating Layer inception_4d/pool_proj
I1218 17:10:13.034313 27366 net.cpp:380] inception_4d/pool_proj <- inception_4d/pool
I1218 17:10:13.034328 27366 net.cpp:338] inception_4d/pool_proj -> inception_4d/pool_proj
I1218 17:10:13.034343 27366 net.cpp:113] Setting up inception_4d/pool_proj
I1218 17:10:13.035397 27366 net.cpp:120] Top shape: 50 64 14 14 (627200)
I1218 17:10:13.035423 27366 layer_factory.hpp:74] Creating layer inception_4d/relu_pool_proj
I1218 17:10:13.035437 27366 net.cpp:84] Creating Layer inception_4d/relu_pool_proj
I1218 17:10:13.035446 27366 net.cpp:380] inception_4d/relu_pool_proj <- inception_4d/pool_proj
I1218 17:10:13.035459 27366 net.cpp:327] inception_4d/relu_pool_proj -> inception_4d/pool_proj (in-place)
I1218 17:10:13.035471 27366 net.cpp:113] Setting up inception_4d/relu_pool_proj
I1218 17:10:13.035820 27366 net.cpp:120] Top shape: 50 64 14 14 (627200)
I1218 17:10:13.035837 27366 layer_factory.hpp:74] Creating layer inception_4d/output
I1218 17:10:13.035852 27366 net.cpp:84] Creating Layer inception_4d/output
I1218 17:10:13.035861 27366 net.cpp:380] inception_4d/output <- inception_4d/1x1
I1218 17:10:13.035872 27366 net.cpp:380] inception_4d/output <- inception_4d/3x3
I1218 17:10:13.035882 27366 net.cpp:380] inception_4d/output <- inception_4d/5x5
I1218 17:10:13.035892 27366 net.cpp:380] inception_4d/output <- inception_4d/pool_proj
I1218 17:10:13.035903 27366 net.cpp:338] inception_4d/output -> inception_4d/output
I1218 17:10:13.035917 27366 net.cpp:113] Setting up inception_4d/output
I1218 17:10:13.035931 27366 net.cpp:120] Top shape: 50 528 14 14 (5174400)
I1218 17:10:13.035940 27366 layer_factory.hpp:74] Creating layer inception_4d/output_inception_4d/output_0_split
I1218 17:10:13.035953 27366 net.cpp:84] Creating Layer inception_4d/output_inception_4d/output_0_split
I1218 17:10:13.035958 27366 net.cpp:380] inception_4d/output_inception_4d/output_0_split <- inception_4d/output
I1218 17:10:13.035966 27366 net.cpp:338] inception_4d/output_inception_4d/output_0_split -> inception_4d/output_inception_4d/output_0_split_0
I1218 17:10:13.035975 27366 net.cpp:338] inception_4d/output_inception_4d/output_0_split -> inception_4d/output_inception_4d/output_0_split_1
I1218 17:10:13.035986 27366 net.cpp:338] inception_4d/output_inception_4d/output_0_split -> inception_4d/output_inception_4d/output_0_split_2
I1218 17:10:13.036000 27366 net.cpp:338] inception_4d/output_inception_4d/output_0_split -> inception_4d/output_inception_4d/output_0_split_3
I1218 17:10:13.036011 27366 net.cpp:338] inception_4d/output_inception_4d/output_0_split -> inception_4d/output_inception_4d/output_0_split_4
I1218 17:10:13.036023 27366 net.cpp:113] Setting up inception_4d/output_inception_4d/output_0_split
I1218 17:10:13.036037 27366 net.cpp:120] Top shape: 50 528 14 14 (5174400)
I1218 17:10:13.036056 27366 net.cpp:120] Top shape: 50 528 14 14 (5174400)
I1218 17:10:13.036074 27366 net.cpp:120] Top shape: 50 528 14 14 (5174400)
I1218 17:10:13.036084 27366 net.cpp:120] Top shape: 50 528 14 14 (5174400)
I1218 17:10:13.036093 27366 net.cpp:120] Top shape: 50 528 14 14 (5174400)
I1218 17:10:13.036101 27366 layer_factory.hpp:74] Creating layer loss2/ave_pool
I1218 17:10:13.036116 27366 net.cpp:84] Creating Layer loss2/ave_pool
I1218 17:10:13.036124 27366 net.cpp:380] loss2/ave_pool <- inception_4d/output_inception_4d/output_0_split_0
I1218 17:10:13.036137 27366 net.cpp:338] loss2/ave_pool -> loss2/ave_pool
I1218 17:10:13.036150 27366 net.cpp:113] Setting up loss2/ave_pool
I1218 17:10:13.036267 27366 net.cpp:120] Top shape: 50 528 4 4 (422400)
I1218 17:10:13.036279 27366 layer_factory.hpp:74] Creating layer loss2/conv
I1218 17:10:13.036295 27366 net.cpp:84] Creating Layer loss2/conv
I1218 17:10:13.036305 27366 net.cpp:380] loss2/conv <- loss2/ave_pool
I1218 17:10:13.036320 27366 net.cpp:338] loss2/conv -> loss2/conv
I1218 17:10:13.036335 27366 net.cpp:113] Setting up loss2/conv
I1218 17:10:13.037847 27366 net.cpp:120] Top shape: 50 128 4 4 (102400)
I1218 17:10:13.037873 27366 layer_factory.hpp:74] Creating layer loss2/relu_conv
I1218 17:10:13.037885 27366 net.cpp:84] Creating Layer loss2/relu_conv
I1218 17:10:13.037895 27366 net.cpp:380] loss2/relu_conv <- loss2/conv
I1218 17:10:13.037907 27366 net.cpp:327] loss2/relu_conv -> loss2/conv (in-place)
I1218 17:10:13.037916 27366 net.cpp:113] Setting up loss2/relu_conv
I1218 17:10:13.038030 27366 net.cpp:120] Top shape: 50 128 4 4 (102400)
I1218 17:10:13.038044 27366 layer_factory.hpp:74] Creating layer loss2/fc
I1218 17:10:13.038063 27366 net.cpp:84] Creating Layer loss2/fc
I1218 17:10:13.038071 27366 net.cpp:380] loss2/fc <- loss2/conv
I1218 17:10:13.038084 27366 net.cpp:338] loss2/fc -> loss2/fc
I1218 17:10:13.038099 27366 net.cpp:113] Setting up loss2/fc
I1218 17:10:13.135632 27366 net.cpp:120] Top shape: 50 1024 (51200)
I1218 17:10:13.135674 27366 layer_factory.hpp:74] Creating layer loss2/relu_fc
I1218 17:10:13.135689 27366 net.cpp:84] Creating Layer loss2/relu_fc
I1218 17:10:13.135699 27366 net.cpp:380] loss2/relu_fc <- loss2/fc
I1218 17:10:13.135709 27366 net.cpp:327] loss2/relu_fc -> loss2/fc (in-place)
I1218 17:10:13.135720 27366 net.cpp:113] Setting up loss2/relu_fc
I1218 17:10:13.135861 27366 net.cpp:120] Top shape: 50 1024 (51200)
I1218 17:10:13.135869 27366 layer_factory.hpp:74] Creating layer loss2/drop_fc
I1218 17:10:13.135881 27366 net.cpp:84] Creating Layer loss2/drop_fc
I1218 17:10:13.135886 27366 net.cpp:380] loss2/drop_fc <- loss2/fc
I1218 17:10:13.135893 27366 net.cpp:327] loss2/drop_fc -> loss2/fc (in-place)
I1218 17:10:13.135901 27366 net.cpp:113] Setting up loss2/drop_fc
I1218 17:10:13.135910 27366 net.cpp:120] Top shape: 50 1024 (51200)
I1218 17:10:13.135915 27366 layer_factory.hpp:74] Creating layer loss2/classifier_kaggle
I1218 17:10:13.135924 27366 net.cpp:84] Creating Layer loss2/classifier_kaggle
I1218 17:10:13.135929 27366 net.cpp:380] loss2/classifier_kaggle <- loss2/fc
I1218 17:10:13.135938 27366 net.cpp:338] loss2/classifier_kaggle -> loss2/classifier_kaggle
I1218 17:10:13.135949 27366 net.cpp:113] Setting up loss2/classifier_kaggle
I1218 17:10:13.141360 27366 net.cpp:120] Top shape: 50 447 (22350)
I1218 17:10:13.141379 27366 layer_factory.hpp:74] Creating layer loss2/classifier_kaggle_loss2/classifier_kaggle_0_split
I1218 17:10:13.141388 27366 net.cpp:84] Creating Layer loss2/classifier_kaggle_loss2/classifier_kaggle_0_split
I1218 17:10:13.141396 27366 net.cpp:380] loss2/classifier_kaggle_loss2/classifier_kaggle_0_split <- loss2/classifier_kaggle
I1218 17:10:13.141405 27366 net.cpp:338] loss2/classifier_kaggle_loss2/classifier_kaggle_0_split -> loss2/classifier_kaggle_loss2/classifier_kaggle_0_split_0
I1218 17:10:13.141417 27366 net.cpp:338] loss2/classifier_kaggle_loss2/classifier_kaggle_0_split -> loss2/classifier_kaggle_loss2/classifier_kaggle_0_split_1
I1218 17:10:13.141424 27366 net.cpp:338] loss2/classifier_kaggle_loss2/classifier_kaggle_0_split -> loss2/classifier_kaggle_loss2/classifier_kaggle_0_split_2
I1218 17:10:13.141458 27366 net.cpp:113] Setting up loss2/classifier_kaggle_loss2/classifier_kaggle_0_split
I1218 17:10:13.141465 27366 net.cpp:120] Top shape: 50 447 (22350)
I1218 17:10:13.141471 27366 net.cpp:120] Top shape: 50 447 (22350)
I1218 17:10:13.141476 27366 net.cpp:120] Top shape: 50 447 (22350)
I1218 17:10:13.141480 27366 layer_factory.hpp:74] Creating layer loss2/loss
I1218 17:10:13.141490 27366 net.cpp:84] Creating Layer loss2/loss
I1218 17:10:13.141495 27366 net.cpp:380] loss2/loss <- loss2/classifier_kaggle_loss2/classifier_kaggle_0_split_0
I1218 17:10:13.141502 27366 net.cpp:380] loss2/loss <- label_data_1_split_3
I1218 17:10:13.141510 27366 net.cpp:338] loss2/loss -> loss2/loss1
…
I1218 17:10:13.142204 27366 net.cpp:338] loss2/top-5 -> loss2/top-5
I1218 17:10:13.142212 27366 net.cpp:113] Setting up loss2/top-5
I1218 17:10:13.142218 27366 net.cpp:120] Top shape: (1)
I1218 17:10:13.142223 27366 layer_factory.hpp:74] Creating layer inception_4e/1x1
I1218 17:10:13.142235 27366 net.cpp:84] Creating Layer inception_4e/1x1
I1218 17:10:13.142241 27366 net.cpp:380] inception_4e/1x1 <- inception_4d/output_inception_4d/output_0_split_1
I1218 17:10:13.142249 27366 net.cpp:338] inception_4e/1x1 -> inception_4e/1x1
I1218 17:10:13.142257 27366 net.cpp:113] Setting up inception_4e/1x1
I1218 17:10:13.144304 27366 net.cpp:120] Top shape: 50 256 14 14 (2508800)
I1218 17:10:13.144321 27366 layer_factory.hpp:74] Creating layer inception_4e/relu_1x1
I1218 17:10:13.144330 27366 net.cpp:84] Creating Layer inception_4e/relu_1x1
I1218 17:10:13.144335 27366 net.cpp:380] inception_4e/relu_1x1 <- inception_4e/1x1
I1218 17:10:13.144342 27366 net.cpp:327] inception_4e/relu_1x1 -> inception_4e/1x1 (in-place)
I1218 17:10:13.144351 27366 net.cpp:113] Setting up inception_4e/relu_1x1
I1218 17:10:13.144425 27366 net.cpp:120] Top shape: 50 256 14 14 (2508800)
I1218 17:10:13.144434 27366 layer_factory.hpp:74] Creating layer inception_4e/3x3_reduce
I1218 17:10:13.144469 27366 net.cpp:84] Creating Layer inception_4e/3x3_reduce
I1218 17:10:13.144474 27366 net.cpp:380] inception_4e/3x3_reduce <- inception_4d/output_inception_4d/output_0_split_2
I1218 17:10:13.144482 27366 net.cpp:338] inception_4e/3x3_reduce -> inception_4e/3x3_reduce
I1218 17:10:13.144491 27366 net.cpp:113] Setting up inception_4e/3x3_reduce
I1218 17:10:13.145938 27366 net.cpp:120] Top shape: 50 160 14 14 (1568000)
I1218 17:10:13.145956 27366 layer_factory.hpp:74] Creating layer inception_4e/relu_3x3_reduce
I1218 17:10:13.145963 27366 net.cpp:84] Creating Layer inception_4e/relu_3x3_reduce
I1218 17:10:13.145968 27366 net.cpp:380] inception_4e/relu_3x3_reduce <- inception_4e/3x3_reduce
I1218 17:10:13.145977 27366 net.cpp:327] inception_4e/relu_3x3_reduce -> inception_4e/3x3_reduce (in-place)
I1218 17:10:13.145985 27366 net.cpp:113] Setting up inception_4e/relu_3x3_reduce
I1218 17:10:13.146064 27366 net.cpp:120] Top shape: 50 160 14 14 (1568000)
I1218 17:10:13.146076 27366 layer_factory.hpp:74] Creating layer inception_4e/3x3
I1218 17:10:13.146092 27366 net.cpp:84] Creating Layer inception_4e/3x3
I1218 17:10:13.146098 27366 net.cpp:380] inception_4e/3x3 <- inception_4e/3x3_reduce
I1218 17:10:13.146108 27366 net.cpp:338] inception_4e/3x3 -> inception_4e/3x3
I1218 17:10:13.146116 27366 net.cpp:113] Setting up inception_4e/3x3
I1218 17:10:13.152073 27366 net.cpp:120] Top shape: 50 320 14 14 (3136000)
I1218 17:10:13.152091 27366 layer_factory.hpp:74] Creating layer inception_4e/relu_3x3
I1218 17:10:13.152097 27366 net.cpp:84] Creating Layer inception_4e/relu_3x3
I1218 17:10:13.152103 27366 net.cpp:380] inception_4e/relu_3x3 <- inception_4e/3x3
I1218 17:10:13.152111 27366 net.cpp:327] inception_4e/relu_3x3 -> inception_4e/3x3 (in-place)
I1218 17:10:13.152118 27366 net.cpp:113] Setting up inception_4e/relu_3x3
I1218 17:10:13.152382 27366 net.cpp:120] Top shape: 50 320 14 14 (3136000)
I1218 17:10:13.152395 27366 layer_factory.hpp:74] Creating layer inception_4e/5x5_reduce
I1218 17:10:13.152403 27366 net.cpp:84] Creating Layer inception_4e/5x5_reduce
I1218 17:10:13.152410 27366 net.cpp:380] inception_4e/5x5_reduce <- inception_4d/output_inception_4d/output_0_split_3
I1218 17:10:13.152417 27366 net.cpp:338] inception_4e/5x5_reduce -> inception_4e/5x5_reduce
I1218 17:10:13.152426 27366 net.cpp:113] Setting up inception_4e/5x5_reduce
I1218 17:10:13.153049 27366 net.cpp:120] Top shape: 50 32 14 14 (313600)
I1218 17:10:13.153079 27366 layer_factory.hpp:74] Creating layer inception_4e/relu_5x5_reduce
I1218 17:10:13.153087 27366 net.cpp:84] Creating Layer inception_4e/relu_5x5_reduce
I1218 17:10:13.153094 27366 net.cpp:380] inception_4e/relu_5x5_reduce <- inception_4e/5x5_reduce
I1218 17:10:13.153100 27366 net.cpp:327] inception_4e/relu_5x5_reduce -> inception_4e/5x5_reduce (in-place)
I1218 17:10:13.153107 27366 net.cpp:113] Setting up inception_4e/relu_5x5_reduce
I1218 17:10:13.153184 27366 net.cpp:120] Top shape: 50 32 14 14 (313600)
I1218 17:10:13.153192 27366 layer_factory.hpp:74] Creating layer inception_4e/5x5
I1218 17:10:13.153201 27366 net.cpp:84] Creating Layer inception_4e/5x5
I1218 17:10:13.153208 27366 net.cpp:380] inception_4e/5x5 <- inception_4e/5x5_reduce
I1218 17:10:13.153213 27366 net.cpp:338] inception_4e/5x5 -> inception_4e/5x5
I1218 17:10:13.153223 27366 net.cpp:113] Setting up inception_4e/5x5
I1218 17:10:13.154891 27366 net.cpp:120] Top shape: 50 128 14 14 (1254400)
I1218 17:10:13.154906 27366 layer_factory.hpp:74] Creating layer inception_4e/relu_5x5
I1218 17:10:13.154914 27366 net.cpp:84] Creating Layer inception_4e/relu_5x5
I1218 17:10:13.154920 27366 net.cpp:380] inception_4e/relu_5x5 <- inception_4e/5x5
I1218 17:10:13.154929 27366 net.cpp:327] inception_4e/relu_5x5 -> inception_4e/5x5 (in-place)
I1218 17:10:13.154937 27366 net.cpp:113] Setting up inception_4e/relu_5x5
I1218 17:10:13.155009 27366 net.cpp:120] Top shape: 50 128 14 14 (1254400)
I1218 17:10:13.155014 27366 layer_factory.hpp:74] Creating layer inception_4e/pool
I1218 17:10:13.155020 27366 layer_factory.cpp:56] CUDNN does not support padding or multiple tops. Using Caffe's own pooling layer.
I1218 17:10:13.155030 27366 net.cpp:84] Creating Layer inception_4e/pool
I1218 17:10:13.155035 27366 net.cpp:380] inception_4e/pool <- inception_4d/output_inception_4d/output_0_split_4
I1218 17:10:13.155043 27366 net.cpp:338] inception_4e/pool -> inception_4e/pool
I1218 17:10:13.155051 27366 net.cpp:113] Setting up inception_4e/pool
I1218 17:10:13.155061 27366 net.cpp:120] Top shape: 50 528 14 14 (5174400)
I1218 17:10:13.155066 27366 layer_factory.hpp:74] Creating layer inception_4e/pool_proj
I1218 17:10:13.155076 27366 net.cpp:84] Creating Layer inception_4e/pool_proj
I1218 17:10:13.155081 27366 net.cpp:380] inception_4e/pool_proj <- inception_4e/pool
I1218 17:10:13.155088 27366 net.cpp:338] inception_4e/pool_proj -> inception_4e/pool_proj
I1218 17:10:13.155095 27366 net.cpp:113] Setting up inception_4e/pool_proj
I1218 17:10:13.156337 27366 net.cpp:120] Top shape: 50 128 14 14 (1254400)
I1218 17:10:13.156358 27366 layer_factory.hpp:74] Creating layer inception_4e/relu_pool_proj
I1218 17:10:13.156373 27366 net.cpp:84] Creating Layer inception_4e/relu_pool_proj
I1218 17:10:13.156378 27366 net.cpp:380] inception_4e/relu_pool_proj <- inception_4e/pool_proj
I1218 17:10:13.156388 27366 net.cpp:327] inception_4e/relu_pool_proj -> inception_4e/pool_proj (in-place)
I1218 17:10:13.156395 27366 net.cpp:113] Setting up inception_4e/relu_pool_proj
I1218 17:10:13.156468 27366 net.cpp:120] Top shape: 50 128 14 14 (1254400)
I1218 17:10:13.156476 27366 layer_factory.hpp:74] Creating layer inception_4e/output
I1218 17:10:13.156482 27366 net.cpp:84] Creating Layer inception_4e/output
I1218 17:10:13.156487 27366 net.cpp:380] inception_4e/output <- inception_4e/1x1
I1218 17:10:13.156493 27366 net.cpp:380] inception_4e/output <- inception_4e/3x3
I1218 17:10:13.156499 27366 net.cpp:380] inception_4e/output <- inception_4e/5x5
I1218 17:10:13.156504 27366 net.cpp:380] inception_4e/output <- inception_4e/pool_proj
I1218 17:10:13.156512 27366 net.cpp:338] inception_4e/output -> inception_4e/output
I1218 17:10:13.156520 27366 net.cpp:113] Setting up inception_4e/output
I1218 17:10:13.156528 27366 net.cpp:120] Top shape: 50 832 14 14 (8153600)
I1218 17:10:13.156533 27366 layer_factory.hpp:74] Creating layer pool4/3x3_s2
I1218 17:10:13.156540 27366 net.cpp:84] Creating Layer pool4/3x3_s2
I1218 17:10:13.156545 27366 net.cpp:380] pool4/3x3_s2 <- inception_4e/output
I1218 17:10:13.156554 27366 net.cpp:338] pool4/3x3_s2 -> pool4/3x3_s2
I1218 17:10:13.156561 27366 net.cpp:113] Setting up pool4/3x3_s2
I1218 17:10:13.156837 27366 net.cpp:120] Top shape: 50 832 7 7 (2038400)
I1218 17:10:13.156848 27366 layer_factory.hpp:74] Creating layer pool4/3x3_s2_pool4/3x3_s2_0_split
I1218 17:10:13.156857 27366 net.cpp:84] Creating Layer pool4/3x3_s2_pool4/3x3_s2_0_split
I1218 17:10:13.156862 27366 net.cpp:380] pool4/3x3_s2_pool4/3x3_s2_0_split <- pool4/3x3_s2
I1218 17:10:13.156869 27366 net.cpp:338] pool4/3x3_s2_pool4/3x3_s2_0_split -> pool4/3x3_s2_pool4/3x3_s2_0_split_0
I1218 17:10:13.156878 27366 net.cpp:338] pool4/3x3_s2_pool4/3x3_s2_0_split -> pool4/3x3_s2_pool4/3x3_s2_0_split_1
I1218 17:10:13.156886 27366 net.cpp:338] pool4/3x3_s2_pool4/3x3_s2_0_split -> pool4/3x3_s2_pool4/3x3_s2_0_split_2
I1218 17:10:13.156915 27366 net.cpp:338] pool4/3x3_s2_pool4/3x3_s2_0_split -> pool4/3x3_s2_pool4/3x3_s2_0_split_3
I1218 17:10:13.156924 27366 net.cpp:113] Setting up pool4/3x3_s2_pool4/3x3_s2_0_split
I1218 17:10:13.156931 27366 net.cpp:120] Top shape: 50 832 7 7 (2038400)
I1218 17:10:13.156936 27366 net.cpp:120] Top shape: 50 832 7 7 (2038400)
I1218 17:10:13.156944 27366 net.cpp:120] Top shape: 50 832 7 7 (2038400)
I1218 17:10:13.156949 27366 net.cpp:120] Top shape: 50 832 7 7 (2038400)
I1218 17:10:13.156954 27366 layer_factory.hpp:74] Creating layer inception_5a/1x1
I1218 17:10:13.156963 27366 net.cpp:84] Creating Layer inception_5a/1x1
I1218 17:10:13.156970 27366 net.cpp:380] inception_5a/1x1 <- pool4/3x3_s2_pool4/3x3_s2_0_split_0
I1218 17:10:13.156976 27366 net.cpp:338] inception_5a/1x1 -> inception_5a/1x1
I1218 17:10:13.156985 27366 net.cpp:113] Setting up inception_5a/1x1
I1218 17:10:13.159940 27366 net.cpp:120] Top shape: 50 256 7 7 (627200)
I1218 17:10:13.159955 27366 layer_factory.hpp:74] Creating layer inception_5a/relu_1x1
I1218 17:10:13.159965 27366 net.cpp:84] Creating Layer inception_5a/relu_1x1
I1218 17:10:13.159971 27366 net.cpp:380] inception_5a/relu_1x1 <- inception_5a/1x1
I1218 17:10:13.159978 27366 net.cpp:327] inception_5a/relu_1x1 -> inception_5a/1x1 (in-place)
I1218 17:10:13.159986 27366 net.cpp:113] Setting up inception_5a/relu_1x1
I1218 17:10:13.160063 27366 net.cpp:120] Top shape: 50 256 7 7 (627200)
I1218 17:10:13.160069 27366 layer_factory.hpp:74] Creating layer inception_5a/3x3_reduce
I1218 17:10:13.160079 27366 net.cpp:84] Creating Layer inception_5a/3x3_reduce
I1218 17:10:13.160085 27366 net.cpp:380] inception_5a/3x3_reduce <- pool4/3x3_s2_pool4/3x3_s2_0_split_1
I1218 17:10:13.160094 27366 net.cpp:338] inception_5a/3x3_reduce -> inception_5a/3x3_reduce
I1218 17:10:13.160115 27366 net.cpp:113] Setting up inception_5a/3x3_reduce
I1218 17:10:13.162130 27366 net.cpp:120] Top shape: 50 160 7 7 (392000)
I1218 17:10:13.162147 27366 layer_factory.hpp:74] Creating layer inception_5a/relu_3x3_reduce
I1218 17:10:13.162155 27366 net.cpp:84] Creating Layer inception_5a/relu_3x3_reduce
I1218 17:10:13.162161 27366 net.cpp:380] inception_5a/relu_3x3_reduce <- inception_5a/3x3_reduce
I1218 17:10:13.162169 27366 net.cpp:327] inception_5a/relu_3x3_reduce -> inception_5a/3x3_reduce (in-place)
I1218 17:10:13.162176 27366 net.cpp:113] Setting up inception_5a/relu_3x3_reduce
I1218 17:10:13.162256 27366 net.cpp:120] Top shape: 50 160 7 7 (392000)
I1218 17:10:13.162262 27366 layer_factory.hpp:74] Creating layer inception_5a/3x3
I1218 17:10:13.162271 27366 net.cpp:84] Creating Layer inception_5a/3x3
I1218 17:10:13.162276 27366 net.cpp:380] inception_5a/3x3 <- inception_5a/3x3_reduce
I1218 17:10:13.162284 27366 net.cpp:338] inception_5a/3x3 -> inception_5a/3x3
I1218 17:10:13.162292 27366 net.cpp:113] Setting up inception_5a/3x3
I1218 17:10:13.168154 27366 net.cpp:120] Top shape: 50 320 7 7 (784000)
I1218 17:10:13.168172 27366 layer_factory.hpp:74] Creating layer inception_5a/relu_3x3
I1218 17:10:13.168180 27366 net.cpp:84] Creating Layer inception_5a/relu_3x3
I1218 17:10:13.168186 27366 net.cpp:380] inception_5a/relu_3x3 <- inception_5a/3x3
I1218 17:10:13.168193 27366 net.cpp:327] inception_5a/relu_3x3 -> inception_5a/3x3 (in-place)
I1218 17:10:13.168200 27366 net.cpp:113] Setting up inception_5a/relu_3x3
I1218 17:10:13.168274 27366 net.cpp:120] Top shape: 50 320 7 7 (784000)
I1218 17:10:13.168280 27366 layer_factory.hpp:74] Creating layer inception_5a/5x5_reduce
I1218 17:10:13.168289 27366 net.cpp:84] Creating Layer inception_5a/5x5_reduce
I1218 17:10:13.168294 27366 net.cpp:380] inception_5a/5x5_reduce <- pool4/3x3_s2_pool4/3x3_s2_0_split_2
I1218 17:10:13.168304 27366 net.cpp:338] inception_5a/5x5_reduce -> inception_5a/5x5_reduce
I1218 17:10:13.168313 27366 net.cpp:113] Setting up inception_5a/5x5_reduce
I1218 17:10:13.169087 27366 net.cpp:120] Top shape: 50 32 7 7 (78400)
I1218 17:10:13.169103 27366 layer_factory.hpp:74] Creating layer inception_5a/relu_5x5_reduce
I1218 17:10:13.169111 27366 net.cpp:84] Creating Layer inception_5a/relu_5x5_reduce
I1218 17:10:13.169117 27366 net.cpp:380] inception_5a/relu_5x5_reduce <- inception_5a/5x5_reduce
I1218 17:10:13.169123 27366 net.cpp:327] inception_5a/relu_5x5_reduce -> inception_5a/5x5_reduce (in-place)
I1218 17:10:13.169131 27366 net.cpp:113] Setting up inception_5a/relu_5x5_reduce
I1218 17:10:13.169404 27366 net.cpp:120] Top shape: 50 32 7 7 (78400)
I1218 17:10:13.169414 27366 layer_factory.hpp:74] Creating layer inception_5a/5x5
I1218 17:10:13.169426 27366 net.cpp:84] Creating Layer inception_5a/5x5
I1218 17:10:13.169431 27366 net.cpp:380] inception_5a/5x5 <- inception_5a/5x5_reduce
I1218 17:10:13.169440 27366 net.cpp:338] inception_5a/5x5 -> inception_5a/5x5
I1218 17:10:13.169450 27366 net.cpp:113] Setting up inception_5a/5x5
I1218 17:10:13.171095 27366 net.cpp:120] Top shape: 50 128 7 7 (313600)
I1218 17:10:13.171110 27366 layer_factory.hpp:74] Creating layer inception_5a/relu_5x5
I1218 17:10:13.171118 27366 net.cpp:84] Creating Layer inception_5a/relu_5x5
I1218 17:10:13.171124 27366 net.cpp:380] inception_5a/relu_5x5 <- inception_5a/5x5
I1218 17:10:13.171133 27366 net.cpp:327] inception_5a/relu_5x5 -> inception_5a/5x5 (in-place)
I1218 17:10:13.171140 27366 net.cpp:113] Setting up inception_5a/relu_5x5
I1218 17:10:13.171219 27366 net.cpp:120] Top shape: 50 128 7 7 (313600)
I1218 17:10:13.171226 27366 layer_factory.hpp:74] Creating layer inception_5a/pool
I1218 17:10:13.171231 27366 layer_factory.cpp:56] CUDNN does not support padding or multiple tops. Using Caffe's own pooling layer.
I1218 17:10:13.171238 27366 net.cpp:84] Creating Layer inception_5a/pool
I1218 17:10:13.171243 27366 net.cpp:380] inception_5a/pool <- pool4/3x3_s2_pool4/3x3_s2_0_split_3
I1218 17:10:13.171250 27366 net.cpp:338] inception_5a/pool -> inception_5a/pool
I1218 17:10:13.171265 27366 net.cpp:113] Setting up inception_5a/pool
I1218 17:10:13.171283 27366 net.cpp:120] Top shape: 50 832 7 7 (2038400)
I1218 17:10:13.171288 27366 layer_factory.hpp:74] Creating layer inception_5a/pool_proj
I1218 17:10:13.171299 27366 net.cpp:84] Creating Layer inception_5a/pool_proj
I1218 17:10:13.171304 27366 net.cpp:380] inception_5a/pool_proj <- inception_5a/pool
I1218 17:10:13.171314 27366 net.cpp:338] inception_5a/pool_proj -> inception_5a/pool_proj
I1218 17:10:13.171321 27366 net.cpp:113] Setting up inception_5a/pool_proj
I1218 17:10:13.173029 27366 net.cpp:120] Top shape: 50 128 7 7 (313600)
I1218 17:10:13.173045 27366 layer_factory.hpp:74] Creating layer inception_5a/relu_pool_proj
I1218 17:10:13.173053 27366 net.cpp:84] Creating Layer inception_5a/relu_pool_proj
I1218 17:10:13.173079 27366 net.cpp:380] inception_5a/relu_pool_proj <- inception_5a/pool_proj
I1218 17:10:13.173089 27366 net.cpp:327] inception_5a/relu_pool_proj -> inception_5a/pool_proj (in-place)
I1218 17:10:13.173097 27366 net.cpp:113] Setting up inception_5a/relu_pool_proj
I1218 17:10:13.173171 27366 net.cpp:120] Top shape: 50 128 7 7 (313600)
I1218 17:10:13.173178 27366 layer_factory.hpp:74] Creating layer inception_5a/output
I1218 17:10:13.173185 27366 net.cpp:84] Creating Layer inception_5a/output
I1218 17:10:13.173190 27366 net.cpp:380] inception_5a/output <- inception_5a/1x1
I1218 17:10:13.173197 27366 net.cpp:380] inception_5a/output <- inception_5a/3x3
I1218 17:10:13.173202 27366 net.cpp:380] inception_5a/output <- inception_5a/5x5
I1218 17:10:13.173207 27366 net.cpp:380] inception_5a/output <- inception_5a/pool_proj
I1218 17:10:13.173215 27366 net.cpp:338] inception_5a/output -> inception_5a/output
I1218 17:10:13.173223 27366 net.cpp:113] Setting up inception_5a/output
I1218 17:10:13.173231 27366 net.cpp:120] Top shape: 50 832 7 7 (2038400)
I1218 17:10:13.173236 27366 layer_factory.hpp:74] Creating layer inception_5a/output_inception_5a/output_0_split
I1218 17:10:13.173244 27366 net.cpp:84] Creating Layer inception_5a/output_inception_5a/output_0_split
I1218 17:10:13.173249 27366 net.cpp:380] inception_5a/output_inception_5a/output_0_split <- inception_5a/output
I1218 17:10:13.173256 27366 net.cpp:338] inception_5a/output_inception_5a/output_0_split -> inception_5a/output_inception_5a/output_0_split_0
I1218 17:10:13.173265 27366 net.cpp:338] inception_5a/output_inception_5a/output_0_split -> inception_5a/output_inception_5a/output_0_split_1
I1218 17:10:13.173272 27366 net.cpp:338] inception_5a/output_inception_5a/output_0_split -> inception_5a/output_inception_5a/output_0_split_2
I1218 17:10:13.173280 27366 net.cpp:338] inception_5a/output_inception_5a/output_0_split -> inception_5a/output_inception_5a/output_0_split_3
I1218 17:10:13.173286 27366 net.cpp:113] Setting up inception_5a/output_inception_5a/output_0_split
I1218 17:10:13.173295 27366 net.cpp:120] Top shape: 50 832 7 7 (2038400)
I1218 17:10:13.173300 27366 net.cpp:120] Top shape: 50 832 7 7 (2038400)
I1218 17:10:13.173305 27366 net.cpp:120] Top shape: 50 832 7 7 (2038400)
I1218 17:10:13.173310 27366 net.cpp:120] Top shape: 50 832 7 7 (2038400)
I1218 17:10:13.173315 27366 layer_factory.hpp:74] Creating layer inception_5b/1x1
I1218 17:10:13.173326 27366 net.cpp:84] Creating Layer inception_5b/1x1
I1218 17:10:13.173331 27366 net.cpp:380] inception_5b/1x1 <- inception_5a/output_inception_5a/output_0_split_0
I1218 17:10:13.173337 27366 net.cpp:338] inception_5b/1x1 -> inception_5b/1x1
I1218 17:10:13.173344 27366 net.cpp:113] Setting up inception_5b/1x1
I1218 17:10:13.177551 27366 net.cpp:120] Top shape: 50 384 7 7 (940800)
I1218 17:10:13.177568 27366 layer_factory.hpp:74] Creating layer inception_5b/relu_1x1
I1218 17:10:13.177578 27366 net.cpp:84] Creating Layer inception_5b/relu_1x1
I1218 17:10:13.177584 27366 net.cpp:380] inception_5b/relu_1x1 <- inception_5b/1x1
I1218 17:10:13.177592 27366 net.cpp:327] inception_5b/relu_1x1 -> inception_5b/1x1 (in-place)
I1218 17:10:13.177599 27366 net.cpp:113] Setting up inception_5b/relu_1x1
I1218 17:10:13.177686 27366 net.cpp:120] Top shape: 50 384 7 7 (940800)
I1218 17:10:13.177701 27366 layer_factory.hpp:74] Creating layer inception_5b/3x3_reduce
I1218 17:10:13.177711 27366 net.cpp:84] Creating Layer inception_5b/3x3_reduce
I1218 17:10:13.177716 27366 net.cpp:380] inception_5b/3x3_reduce <- inception_5a/output_inception_5a/output_0_split_1
I1218 17:10:13.177726 27366 net.cpp:338] inception_5b/3x3_reduce -> inception_5b/3x3_reduce
I1218 17:10:13.177734 27366 net.cpp:113] Setting up inception_5b/3x3_reduce
I1218 17:10:13.180045 27366 net.cpp:120] Top shape: 50 192 7 7 (470400)
I1218 17:10:13.180061 27366 layer_factory.hpp:74] Creating layer inception_5b/relu_3x3_reduce
I1218 17:10:13.180071 27366 net.cpp:84] Creating Layer inception_5b/relu_3x3_reduce
I1218 17:10:13.180078 27366 net.cpp:380] inception_5b/relu_3x3_reduce <- inception_5b/3x3_reduce
I1218 17:10:13.180084 27366 net.cpp:327] inception_5b/relu_3x3_reduce -> inception_5b/3x3_reduce (in-place)
I1218 17:10:13.180093 27366 net.cpp:113] Setting up inception_5b/relu_3x3_reduce
I1218 17:10:13.180362 27366 net.cpp:120] Top shape: 50 192 7 7 (470400)
I1218 17:10:13.180373 27366 layer_factory.hpp:74] Creating layer inception_5b/3x3
I1218 17:10:13.180384 27366 net.cpp:84] Creating Layer inception_5b/3x3
I1218 17:10:13.180392 27366 net.cpp:380] inception_5b/3x3 <- inception_5b/3x3_reduce
I1218 17:10:13.180402 27366 net.cpp:338] inception_5b/3x3 -> inception_5b/3x3
I1218 17:10:13.180410 27366 net.cpp:113] Setting up inception_5b/3x3
I1218 17:10:13.194736 27366 net.cpp:120] Top shape: 50 384 7 7 (940800)
I1218 17:10:13.194763 27366 layer_factory.hpp:74] Creating layer inception_5b/relu_3x3
I1218 17:10:13.194777 27366 net.cpp:84] Creating Layer inception_5b/relu_3x3
I1218 17:10:13.194785 27366 net.cpp:380] inception_5b/relu_3x3 <- inception_5b/3x3
I1218 17:10:13.194793 27366 net.cpp:327] inception_5b/relu_3x3 -> inception_5b/3x3 (in-place)
I1218 17:10:13.194803 27366 net.cpp:113] Setting up inception_5b/relu_3x3
I1218 17:10:13.194882 27366 net.cpp:120] Top shape: 50 384 7 7 (940800)
I1218 17:10:13.194890 27366 layer_factory.hpp:74] Creating layer inception_5b/5x5_reduce
I1218 17:10:13.194900 27366 net.cpp:84] Creating Layer inception_5b/5x5_reduce
I1218 17:10:13.194908 27366 net.cpp:380] inception_5b/5x5_reduce <- inception_5a/output_inception_5a/output_0_split_2
I1218 17:10:13.194917 27366 net.cpp:338] inception_5b/5x5_reduce -> inception_5b/5x5_reduce
I1218 17:10:13.194926 27366 net.cpp:113] Setting up inception_5b/5x5_reduce
I1218 17:10:13.195852 27366 net.cpp:120] Top shape: 50 48 7 7 (117600)
I1218 17:10:13.195868 27366 layer_factory.hpp:74] Creating layer inception_5b/relu_5x5_reduce
I1218 17:10:13.195878 27366 net.cpp:84] Creating Layer inception_5b/relu_5x5_reduce
I1218 17:10:13.195885 27366 net.cpp:380] inception_5b/relu_5x5_reduce <- inception_5b/5x5_reduce
I1218 17:10:13.195893 27366 net.cpp:327] inception_5b/relu_5x5_reduce -> inception_5b/5x5_reduce (in-place)
I1218 17:10:13.195900 27366 net.cpp:113] Setting up inception_5b/relu_5x5_reduce
I1218 17:10:13.195979 27366 net.cpp:120] Top shape: 50 48 7 7 (117600)
I1218 17:10:13.195987 27366 layer_factory.hpp:74] Creating layer inception_5b/5x5
I1218 17:10:13.195996 27366 net.cpp:84] Creating Layer inception_5b/5x5
I1218 17:10:13.196002 27366 net.cpp:380] inception_5b/5x5 <- inception_5b/5x5_reduce
I1218 17:10:13.196010 27366 net.cpp:338] inception_5b/5x5 -> inception_5b/5x5
I1218 17:10:13.196018 27366 net.cpp:113] Setting up inception_5b/5x5
I1218 17:10:13.198282 27366 net.cpp:120] Top shape: 50 128 7 7 (313600)
I1218 17:10:13.198299 27366 layer_factory.hpp:74] Creating layer inception_5b/relu_5x5
I1218 17:10:13.198307 27366 net.cpp:84] Creating Layer inception_5b/relu_5x5
I1218 17:10:13.198313 27366 net.cpp:380] inception_5b/relu_5x5 <- inception_5b/5x5
I1218 17:10:13.198320 27366 net.cpp:327] inception_5b/relu_5x5 -> inception_5b/5x5 (in-place)
I1218 17:10:13.198328 27366 net.cpp:113] Setting up inception_5b/relu_5x5
I1218 17:10:13.198596 27366 net.cpp:120] Top shape: 50 128 7 7 (313600)
I1218 17:10:13.198614 27366 layer_factory.hpp:74] Creating layer inception_5b/pool
I1218 17:10:13.198631 27366 layer_factory.cpp:56] CUDNN does not support padding or multiple tops. Using Caffe's own pooling layer.
I1218 17:10:13.198642 27366 net.cpp:84] Creating Layer inception_5b/pool
I1218 17:10:13.198647 27366 net.cpp:380] inception_5b/pool <- inception_5a/output_inception_5a/output_0_split_3
I1218 17:10:13.198655 27366 net.cpp:338] inception_5b/pool -> inception_5b/pool
I1218 17:10:13.198664 27366 net.cpp:113] Setting up inception_5b/pool
I1218 17:10:13.198673 27366 net.cpp:120] Top shape: 50 832 7 7 (2038400)
I1218 17:10:13.198678 27366 layer_factory.hpp:74] Creating layer inception_5b/pool_proj
I1218 17:10:13.198689 27366 net.cpp:84] Creating Layer inception_5b/pool_proj
I1218 17:10:13.198694 27366 net.cpp:380] inception_5b/pool_proj <- inception_5b/pool
I1218 17:10:13.198701 27366 net.cpp:338] inception_5b/pool_proj -> inception_5b/pool_proj
I1218 17:10:13.198709 27366 net.cpp:113] Setting up inception_5b/pool_proj
I1218 17:10:13.200395 27366 net.cpp:120] Top shape: 50 128 7 7 (313600)
I1218 17:10:13.200410 27366 layer_factory.hpp:74] Creating layer inception_5b/relu_pool_proj
I1218 17:10:13.200418 27366 net.cpp:84] Creating Layer inception_5b/relu_pool_proj
I1218 17:10:13.200424 27366 net.cpp:380] inception_5b/relu_pool_proj <- inception_5b/pool_proj
I1218 17:10:13.200433 27366 net.cpp:327] inception_5b/relu_pool_proj -> inception_5b/pool_proj (in-place)
I1218 17:10:13.200441 27366 net.cpp:113] Setting up inception_5b/relu_pool_proj
I1218 17:10:13.200515 27366 net.cpp:120] Top shape: 50 128 7 7 (313600)
I1218 17:10:13.200522 27366 layer_factory.hpp:74] Creating layer inception_5b/output
I1218 17:10:13.200530 27366 net.cpp:84] Creating Layer inception_5b/output
I1218 17:10:13.200534 27366 net.cpp:380] inception_5b/output <- inception_5b/1x1
I1218 17:10:13.200541 27366 net.cpp:380] inception_5b/output <- inception_5b/3x3
I1218 17:10:13.200546 27366 net.cpp:380] inception_5b/output <- inception_5b/5x5
I1218 17:10:13.200552 27366 net.cpp:380] inception_5b/output <- inception_5b/pool_proj
I1218 17:10:13.200561 27366 net.cpp:338] inception_5b/output -> inception_5b/output
I1218 17:10:13.200568 27366 net.cpp:113] Setting up inception_5b/output
I1218 17:10:13.200577 27366 net.cpp:120] Top shape: 50 1024 7 7 (2508800)
I1218 17:10:13.200582 27366 layer_factory.hpp:74] Creating layer pool5/7x7_s1
I1218 17:10:13.200588 27366 net.cpp:84] Creating Layer pool5/7x7_s1
I1218 17:10:13.200593 27366 net.cpp:380] pool5/7x7_s1 <- inception_5b/output
I1218 17:10:13.200600 27366 net.cpp:338] pool5/7x7_s1 -> pool5/7x7_s1
I1218 17:10:13.200608 27366 net.cpp:113] Setting up pool5/7x7_s1
I1218 17:10:13.200683 27366 net.cpp:120] Top shape: 50 1024 1 1 (51200)
I1218 17:10:13.200690 27366 layer_factory.hpp:74] Creating layer pool5/drop_7x7_s1
I1218 17:10:13.200698 27366 net.cpp:84] Creating Layer pool5/drop_7x7_s1
I1218 17:10:13.200703 27366 net.cpp:380] pool5/drop_7x7_s1 <- pool5/7x7_s1
I1218 17:10:13.200709 27366 net.cpp:327] pool5/drop_7x7_s1 -> pool5/7x7_s1 (in-place)
I1218 17:10:13.200716 27366 net.cpp:113] Setting up pool5/drop_7x7_s1
I1218 17:10:13.200724 27366 net.cpp:120] Top shape: 50 1024 1 1 (51200)
I1218 17:10:13.200729 27366 layer_factory.hpp:74] Creating layer loss3/classifier_kaggle
I1218 17:10:13.200741 27366 net.cpp:84] Creating Layer loss3/classifier_kaggle
I1218 17:10:13.200745 27366 net.cpp:380] loss3/classifier_kaggle <- pool5/7x7_s1
I1218 17:10:13.200752 27366 net.cpp:338] loss3/classifier_kaggle -> loss3/classifier_kaggle
I1218 17:10:13.200760 27366 net.cpp:113] Setting up loss3/classifier_kaggle
I1218 17:10:13.206145 27366 net.cpp:120] Top shape: 50 447 (22350)
I1218 17:10:13.206158 27366 layer_factory.hpp:74] Creating layer loss3/classifier_kaggle_loss3/classifier_kaggle_0_split
I1218 17:10:13.206168 27366 net.cpp:84] Creating Layer loss3/classifier_kaggle_loss3/classifier_kaggle_0_split
I1218 17:10:13.206173 27366 net.cpp:380] loss3/classifier_kaggle_loss3/classifier_kaggle_0_split <- loss3/classifier_kaggle
I1218 17:10:13.206187 27366 net.cpp:338] loss3/classifier_kaggle_loss3/classifier_kaggle_0_split -> loss3/classifier_kaggle_loss3/classifier_kaggle_0_split_0
I1218 17:10:13.206205 27366 net.cpp:338] loss3/classifier_kaggle_loss3/classifier_kaggle_0_split -> loss3/classifier_kaggle_loss3/classifier_kaggle_0_split_1
I1218 17:10:13.206215 27366 net.cpp:338] loss3/classifier_kaggle_loss3/classifier_kaggle_0_split -> loss3/classifier_kaggle_loss3/classifier_kaggle_0_split_2
I1218 17:10:13.206223 27366 net.cpp:113] Setting up loss3/classifier_kaggle_loss3/classifier_kaggle_0_split
I1218 17:10:13.206230 27366 net.cpp:120] Top shape: 50 447 (22350)
I1218 17:10:13.206236 27366 net.cpp:120] Top shape: 50 447 (22350)
I1218 17:10:13.206241 27366 net.cpp:120] Top shape: 50 447 (22350)
I1218 17:10:13.206245 27366 layer_factory.hpp:74] Creating layer loss3/loss3
I1218 17:10:13.206253 27366 net.cpp:84] Creating Layer loss3/loss3
I1218 17:10:13.206257 27366 net.cpp:380] loss3/loss3 <- loss3/classifier_kaggle_loss3/classifier_kaggle_0_split_0
I1218 17:10:13.206264 27366 net.cpp:380] loss3/loss3 <- label_data_1_split_6
I1218 17:10:13.206270 27366 net.cpp:338] loss3/loss3 -> loss3/loss3
…
